artifact_store/13/62198e0309484491acdbc54a40381e1c/artifacts/model/data/model.pth (torch_old, 92235 bytes, 8 tensors)

weight f4 [10, 1, 5, 5]
000000 08 d0 a5 3c 9f 4f 96 3e 1f 2c 99 bd d6 6d a9 3d
       0.020240799 0.2935762 -0.074791186 0.08272903
000010 1e a8 70 3e 5c 29 8e be 15 87 60 3e 30 bf 65 3e
       0.23501632 -0.2776593 0.2192653 0.22436213
000020 cd 94 15 bd 13 88 06 bd aa 52 ae be 19 27 86 bb
       -0.03651886 -0.032844614 -0.34047443 -0.0040940163
000030 cc c5 33 be a8 4a 39 bd b3 4b 0f be b6 8c 9b be
       -0.17555922 -0.045237213 -0.1399372 -0.3038079
000040 f5 60 7f be c1 b8 0b be fd 22 90 be ca 9b e4 bd
       -0.2493933 -0.13644697 -0.28151694 -0.11162527
000050 1c 45 09 3c 0a 55 1b 3c 82 0f 2c 3e 9c 9c ac 3d
       0.008378293 0.009480724 0.16802791 0.08428308
000060 45 c4 d3 bc 6b 3e 20 be 15 9c 1f be da 41 2e be
       -0.025850425 -0.1564881 -0.15586884 -0.17017308
000070 9e dd 70 be 7b 5c 5d be e7 91 50 be 53 23 7a bd
       -0.2352204 -0.2161731 -0.20368157 -0.061068844
000080 1b ab a6 3c fa 85 9f bd 93 72 2d bc d1 c6 95 bd
       0.020345261 -0.07789226 -0.010586399 -0.07313312
000090 98 38 7c bd 5d 32 23 be 00 0a 30 be 07 65 a1 bc
       -0.06157741 -0.15937181 -0.17191315 -0.019701494
0000a0 5e 8a 1c be 82 86 76 3c 75 f6 88 bc 1d 61 01 be
       -0.15287158 0.015046718 -0.016719082 -0.12634702
0000b0 a5 f5 02 3e 74 7d fc bd 77 f6 7d be 58 31 db bd
       0.12789018 -0.12328616 -0.2480105 -0.10702771
0000c0 b4 2d b4 bd 31 46 1a 3e 5f de 8b 3e 83 70 2a 3e
       -0.0879778 0.15065838 0.27318093 0.16644482
0000d0 c6 32 50 3e f1 44 a1 3e 28 b7 0a be 61 cd 44 bd
       0.20331869 0.3149791 -0.13546431 -0.048047427
0000e0 ae 9f a8 3d 73 23 c4 bc 0e 7d 92 bb 83 42 a5 be
       0.082335815 -0.023942685 -0.004470474 -0.32277307
0000f0 ff 49 68 be c9 2e ce bd 7f 43 00 be 50 7e db be
       -0.22684477 -0.10067517 -0.12525748 -0.42869806
000100 21 fb b8 be 1f 68 7e be f8 ba f3 be 03 56 33 bf
       -0.36129096 -0.24844407 -0.47603583 -0.7005312
000110 ca 75 8e be c1 8e 02 be 28 54 fa bc b8 e0 a3 3b
       -0.2782424 -0.12749769 -0.030557707 0.005001154
000120 89 58 7c 3e 52 08 08 3e 01 f0 2b 3d df 29 47 be
       0.24643148 0.13284424 0.041976932 -0.19449566
000130 a7 ac c7 3d cb 6c bb bd dc 26 62 be 90 24 b6 be
       0.09749728 -0.0915161 -0.22085136 -0.3557477
000140 7d df 0c be bd 15 12 3d 1e 9d 89 3e de fb 04 3d
       -0.13757129 0.035665262 0.26877683 0.03246676
000150 20 7b c0 3d 12 49 35 be ef 12 4c 3d c3 40 97 3e
       0.09398484 -0.17703655 0.049822744 0.29541597
000160 a6 27 e1 3d 12 a8 24 be 11 51 75 3d 93 4c 8c be
       0.109938905 -0.16079739 0.059891764 -0.27402171
000170 dc 50 3b 3b 42 f6 89 3e 0c 5e 8c 3d 76 cf b7 3d
       0.0028582131 0.26945692 0.068538755 0.08975117
000180 27 87 b9 3d cf de c5 bd ee 4a 71 3d 05 a4 bb 3e
       0.090589814 -0.09661638 0.05890935 0.36648574
000190 13 d4 8d 3e 96 7d 16 be 5e bc 83 be 52 4b 83 be
       0.27700862 -0.14696345 -0.2572965 -0.25643402
0001a0 cf a2 b9 bd 81 47 16 3e 8d 9f 41 be 15 d2 5d be
       -0.090642564 0.14675714 -0.1890852 -0.21662171
0001b0 42 fa 80 bd 49 c5 0c 3c c7 e2 fd bd 62 08 04 be
       -0.06297733 0.008591958 -0.1239677 -0.12893823
0001c0 aa 6a ae bd 6b fd c4 bd f3 04 b1 3d 10 48 c8 bd
       -0.08516438 -0.09618648 0.08643522 -0.0977937
0001d0 d7 41 6f bd 1a 42 1c be 41 23 f7 bc 4b e8 07 3e
       -0.0584124 -0.1525959 -0.030168178 0.13272206
0001e0 7f 5d 87 be 6d c8 7b be f8 65 15 be e3 ae ee 3d
       -0.2643852 -0.24588175 -0.14589679 0.11654451
0001f0 b1 89 25 3e 2d 5c 48 be ee 95 c1 bd 7a 38 23 be
       0.16165806 -0.19566412 -0.09452425 -0.15939513
000200 13 75 c7 bc fc 08 62 3e 1e e7 82 be 96 10 0d be
       -0.024347818 0.2207374 -0.25566953 -0.13775858
000210 f3 41 28 3b 9f af 00 3b 4b e7 70 3e 33 6b d3 bc
       0.0025674074 0.0019635928 0.23525731 -0.025807953
000220 c5 e4 68 3e 11 65 16 3e f6 f6 06 be 3f c9 6e 3e
       0.22743519 0.14686991 -0.13180146 0.23318957
000230 94 de b2 3c d5 dc d3 bb c4 54 67 bc 10 e1 ac 3d
       0.02183465 -0.006465534 -0.014119331 0.08441365
000240 53 94 fd 3d 41 64 36 bd 9a 88 09 3e 70 64 81 3d
       0.12381806 -0.044529203 0.13431016 0.06317985
000250 e3 8e 12 be ed 53 31 3e b6 19 37 3e df 11 3f bc
       -0.1431232 0.17317171 0.17880902 -0.011661976
000260 5a 29 01 bf a4 bf d9 be e7 37 04 3e f5 a6 8e bd
       -0.5045372 -0.42529023 0.1291195 -0.06965438
000270 61 d8 24 be 35 3c ae be 0f 18 48 3d 79 29 24 be
       -0.16098167 -0.3403031 0.04885107 -0.16031446
000280 82 c1 bb be 32 ce a0 3d 31 26 15 bd eb 9f b4 3e
       -0.36671072 0.07851829 -0.036413375 0.35278258
000290 56 2c 89 bd c4 a8 80 3e 7a 06 c8 bd 75 39 4e 3e
       -0.066979095 0.25128758 -0.0976686 0.20139106
0002a0 03 f9 9f bb d9 17 8a be 6b ea 00 3d 3f 55 27 3e
       -0.0048819794 -0.2697132 0.03147356 0.16341113
0002b0 52 44 84 3e 0d 6b d5 3d de df 29 bd d5 0e 81 be
       0.25833374 0.10420809 -0.041473262 -0.25206628
0002c0 8d 68 47 be 85 c8 4f bc 5c cf 94 3e 30 f0 11 3e
       -0.19473477 -0.012682085 0.29064453 0.1425178
0002d0 07 eb 91 be 1f 34 16 bd 94 53 87 be 4d 34 43 bc
       -0.28499624 -0.0366708 -0.26430953 -0.011914325
0002e0 16 65 10 3e da d7 7a be ac 83 1f be 10 e3 f2 bd
       0.14101061 -0.24496403 -0.15577573 -0.11859715
0002f0 05 56 a9 bd 8f 7f 26 3d c9 3f f5 bc 2a 1e 83 be
       -0.0826836 0.040648993 -0.029937642 -0.2560895
000300 2b 3e 9e be fc 87 47 bc b3 2e f0 3d 9e d6 72 3e
       -0.30906805 -0.012178417 0.11727657 0.23714682
000310 79 a0 90 bd 7f 77 81 be 84 23 a2 be 37 69 48 be
       -0.07061858 -0.2528648 -0.3166772 -0.19571386
000320 9e ce d4 3d 4f 4e b7 3d cd e6 38 3d dd f1 13 3e
       0.103909716 0.08950483 0.045141984 0.14447732
000330 a6 d7 b4 bd 30 95 03 3e 06 f6 e0 bc c0 79 af be
       -0.08830194 0.1284988 -0.027461063 -0.34272575
000340 88 b5 17 bd b5 e7 1e 3e b9 be 6f be 95 3c e5 bd
       -0.037038356 0.15518077 -0.23412599 -0.11193196
000350 15 ba 4e 3e da 58 8a 3d 77 6c 90 3d 7d 3d 93 3d
       0.20188172 0.06755228 0.07051938 0.07189462
000360 7a f3 87 3d a3 26 84 3e f8 f9 b2 3d 79 dd 3f be
       0.06638236 0.25810727 0.08739084 -0.18736829
000370 e7 df 76 3d f5 0a 3c 3e 55 76 04 be c8 ee 16 be
       0.060272124 0.18363555 -0.12935765 -0.14739525
000380 17 c2 2b bd 5b 6d 8c 3d b7 fa 3b 3e cf 6d 38 bd
       -0.041933145 0.068567954 0.18357359 -0.045026597
000390 4e 3f 9e be dd ac 13 3d 9e 33 bb 3b a1 aa 76 bc
       -0.30907673 0.036053527 0.0057129404 -0.01505533
0003a0 98 5a 63 3d cd 74 08 3e b2 7b 02 be 90 f8 af 3b
       0.05550632 0.13325806 -0.12742499 0.005370207
0003b0 bc ba fe 3d ba 84 f5 bd 64 2e 90 be d6 4d 52 3e
       0.124379605 -0.11988206 -0.28160393 0.20537505
0003c0 20 44 0f be aa ba 76 3e 41 b8 a7 bd 5e 5d a8 be
       -0.13990831 0.24094644 -0.081894405 -0.32883734
0003d0 04 d6 04 3e 08 54 35 bd d8 2d ea 3d bf a7 5f 3d
       0.12972265 -0.04426959 0.11434525 0.054603335
0003e0 1f 7d b9 be fe 17 5a 3e
       -0.36228272 0.21298215

bias f4 [10]
000000 ca 74 d8 be 53 b8 5d be ec 2e 0b bf e9 27 8f be
       -0.42276603 -0.21652345 -0.5436847 -0.27960137
000010 cf 70 4a be c0 2b 46 be da b0 f9 be 16 d2 bf be
       -0.19769596 -0.19352627 -0.4876774 -0.3746497
000020 5a 82 0c bf af 1f 8c be
       -0.548864 -0.27367923

weight f4 [20, 10, 5, 5]
000000 38 4a 24 3d 96 0b 1b bd 11 43 ad bc 64 ab df 3d
       0.040109843 -0.037852846 -0.021150144 0.10921362
000010 54 e3 5a ba ee 21 c1 bd 82 e8 e8 3c bf 96 07 bc
       -0.00083499146 -0.094303 0.02843118 -0.008275687
000020 97 d0 a3 3d be b5 93 3d 7d 96 2f bd bb f1 15 3d
       0.0799877 0.07212399 -0.042868126 0.036607485
000030 19 ab 68 3c 64 92 06 3e 00 ca 32 3d 21 26 26 bd
       0.014200949 0.13141781 0.043649673 -0.040563706
000040 5e 1a 25 3e 69 87 e3 3d ae 94 d8 3d ba ec af 3d
       0.1612334 0.11109812 0.105752334 0.08590074
000050 8e ca f8 bd 79 b3 85 3d 73 21 9a 3d 90 c5 52 3d
       -0.12148009 0.06528372 0.07525911 0.05145794
000060 71 98 08 bd c3 c7 9d 3a 33 53 f2 bc 16 c3 e9 3c
       -0.033348504 0.0012037683 -0.029580688 0.028535407
000070 3f f4 0f bd 50 62 ab bd d4 30 b0 3c 6c 37 ea bd
       -0.03514504 -0.08368361 0.021507658 -0.11436352
000080 02 dd d8 bd 59 6c d1 bd 00 21 98 bd b2 16 88 bc
       -0.10589029 -0.10225744 -0.07428169 -0.016612384
000090 9d e2 14 bc 50 3b 93 bd 42 ae 74 bd 59 9a 68 3d
       -0.009087232 -0.07189047 -0.059736498 0.056787822
0000a0 c0 8c 99 3a 7c 70 2f 3d ba 54 59 bc 10 41 70 3d
       0.001171492 0.042831883 -0.013264829 0.0586558
0000b0 67 f7 8d bc aa f0 84 3b 75 22 bf 3c eb 7a 98 bd
       -0.017329885 0.0040570097 0.02333186 -0.0744532
0000c0 88 c8 92 bd d3 3a 52 3d 63 38 45 3c 36 df a6 bd
       -0.071671546 0.05132563 0.012037369 -0.08148043
0000d0 f1 f0 8e bd 3f d1 e7 3c d2 80 a0 3d 25 69 66 bc
       -0.0697955 0.028298019 0.078370705 -0.014063154
0000e0 44 1f da bd 13 ce c1 bc 95 80 19 3e 3d 5b 13 3e
       -0.10650495 -0.023657834 0.14990456 0.14390273
0000f0 a6 33 5f bd 1a 5a 0d be 2c 4f c1 3b 93 4b a8 bc
       -0.054492615 -0.13803902 0.0058993306 -0.02054385
000100 c0 35 90 bd a7 c8 66 bd f7 a3 95 3d 2c 6e 41 3e
       -0.07041502 -0.0563437 0.073066644 0.18889683
000110 83 7b 66 3d a2 b8 10 be 47 4f dc bd 71 ee f2 3c
       0.056270134 -0.14132932 -0.107573085 0.029654713
000120 b6 4d 35 3e fe 52 8d 3c 26 b4 0e bd 6e 6d c7 bd
       0.17705426 0.017251488 -0.03483977 -0.09737669
000130 8d 2f a4 3d 40 0e 1d 3e 70 d6 08 3e ce a6 83 3e
       0.08016882 0.15337467 0.13363051 0.257132
000140 9e ff 37 bd 98 30 51 3d 1e 49 f0 3d 01 61 84 bd
       -0.04492151 0.051071733 0.11732696 -0.064638145
000150 e5 cd b3 3d 71 74 e9 bd e4 c5 e9 3c c4 14 b0 3c
       0.08779506 -0.113991626 0.028536744 0.021494277
000160 57 4f aa bd 8f ac 0b bd 36 4f 80 bd 50 21 92 bd
       -0.08315914 -0.03410011 -0.06265108 -0.0713526
000170 85 c1 0e be 3e 0c 5b be 21 19 82 bc 5e ee 60 3d
       -0.1394101 -0.21391389 -0.015881123 0.054914825
000180 2c 54 fb 3c ec fe cc 3c ac 83 e0 bd d3 99 d2 3c
       0.030679785 0.0250239 -0.109626144 0.025708115
000190 84 15 41 3d 7c 9d d2 bd 0f 22 89 bd 36 c9 0e be
       0.04713966 -0.10283944 -0.06695949 -0.13943943
0001a0 72 b3 83 bd e4 03 a0 3d 66 75 ec bd 9c fb 69 bd
       -0.06430711 0.07813242 -0.115458295 -0.05712472
0001b0 d7 a0 05 be 2e e4 85 bd 23 ac 4d bd c2 60 ec bd
       -0.13049637 -0.065376624 -0.05021299 -0.115418926
0001c0 b9 15 17 bd aa 31 2e bd 6d b1 c1 3b e6 78 b1 bb
       -0.03688595 -0.042527832 0.0059110434 -0.0054160235
0001d0 04 d2 80 bd cb a7 0d bc 62 0e 12 bd 77 eb 3f bc
       -0.06290057 -0.008645962 -0.035658248 -0.011713854
0001e0 54 8d be bd 55 d8 bf bd 2e fd fa bc 42 64 86 bd
       -0.093043 -0.09367434 -0.030638304 -0.065620914
0001f0 3f 36 fd 3c 1a c7 9b bd 56 7a 42 bd 79 6f a4 3b
       0.030909656 -0.07606335 -0.04747995 0.0050181714
000200 df 7c 1f 3d b2 85 81 bd 55 70 3d bd 63 ef 22 bc
       0.038937446 -0.063243285 -0.046249706 -0.00994477
000210 61 0e d4 3c 8c c2 04 3e 81 b8 27 3e db d1 5f 3d
       0.025885763 0.12964839 0.16378976 0.054643493
000220 11 9c 29 bc 1c 49 74 bd 00 93 8f 3d 75 0b 7b 3d
       -0.010352151 -0.059640035 0.0701046 0.061290223
000230 ad 55 7a 3b 61 b8 df bd 97 28 2d be 48 48 1a be
       0.003819804 -0.10923839 -0.16910015 -0.15066636
000240 34 2f f2 bd bd ed a8 bd 3d ac d5 bd d5 70 aa bd
       -0.118254095 -0.0824847 -0.104332425 -0.08322302
000250 b0 9b c0 bd 0d e5 4d bd 0a ee 6a 3d 3f ba d7 3b
       -0.09404695 -0.050267268 0.057355918 0.0065834816
000260 fc 20 15 bd 7a df b2 3d 0b 82 9c 3d 65 f0 09 3d
       -0.03640841 0.08734031 0.07641991 0.033676524
000270 fd 5e ce bc 7d 9c 1c bd 17 0c 36 bd 25 a2 73 3d
       -0.025191778 -0.038235176 -0.044445124 0.059480805
000280 c2 af 46 3d 08 f9 7e bd 4e b1 af bc bb 35 87 bc
       0.04850746 -0.062249213 -0.02144685 -0.016505113
000290 23 95 6a bd 68 e2 22 3d 64 47 e8 bd bf 6d 5f bd
       -0.057271134 0.0397667 -0.11341742 -0.05454802
0002a0 34 b6 23 be c5 f1 0e be ee 8c be 3d b6 0d 06 bc
       -0.15987474 -0.13959415 0.09304224 -0.00818198
0002b0 51 c0 58 3d d8 e5 89 bc 99 1e 4f be 12 4d 7f 3c
       0.052917782 -0.01683323 -0.20226516 0.01558234
0002c0 5a 86 45 3d ca 5b be 3d e2 dd a4 bc 9b 12 ca bd
       0.04822383 0.09294851 -0.020125333 -0.0986683
0002d0 1f f0 62 3b 48 7d 8e 3d e1 a7 13 3e 47 85 e3 3d
       0.0034627987 0.06957489 0.1441951 0.11109405
0002e0 de 2f 5a bd 38 d1 73 3d c2 fd 3e 3e 55 cd 1a 3e
       -0.053268306 0.0595257 0.18651488 0.1511739
0002f0 19 c2 9c 3d 63 9b dd 3d d1 c4 11 3e 65 bd 41 3e
       0.07654209 0.10820653 0.14235236 0.18919905
000300 8d d7 3d 3e 19 f0 05 bd 61 b2 87 3d ea de 2e bb
       0.18539257 -0.032699678 0.0662582 -0.002668316
000310 b5 0d 9c bc f7 73 40 bd 46 74 06 3d e3 16 e9 3d
       -0.019049505 -0.046985593 0.03282573 0.113813184
000320 93 5e cf bd 1f 5f 48 bc 30 7e 81 bd 14 73 90 3d
       -0.101254605 -0.01222971 -0.063228965 0.070531994
000330 81 21 f0 3c 4f c6 f8 bd 08 09 85 bd 6c 41 21 bd
       0.02931285 -0.12147199 -0.06495863 -0.03936903
000340 15 1a 99 3d 67 91 27 3e ca bc a1 bd 45 0a 05 bd
       0.07475678 0.1636406 -0.07897337 -0.032480497
000350 bc f8 81 3d fc 11 cd 3b a5 c7 dc 3c b4 46 45 bd
       0.063462704 0.0062582474 0.026950667 -0.04816313
000360 ea 94 95 bd 69 e4 2d be 35 fe 18 be e0 8f 02 be
       -0.07303794 -0.16981663 -0.14940722 -0.12750196
000370 79 88 60 bd 93 2f 2d be 3e a5 b0 bc ef 7b e5 bd
       -0.05481765 -0.1691268 -0.021563169 -0.11205279
000380 63 b0 d7 bd 4f cd cd bd 79 f3 8f bd f8 a8 84 3d
       -0.1053169 -0.10048925 -0.070288606 0.06477541
000390 fa ef 2d bd e4 a9 16 bc 57 ae d4 bd 95 a8 12 bd
       -0.042465188 -0.0091957785 -0.10384815 -0.035805304
0003a0 41 fe d4 3c fa 22 83 bd c1 0f cd 3c a3 cc ab bd
       0.026000144 -0.064031556 0.025031926 -0.08388641
0003b0 8d b7 82 bd db 37 b5 bd 6d 90 05 bc ea b9 8e 3d
       -0.06382666 -0.08848544 -0.00815211 0.06969054
0003c0 dc f6 80 bd 7f ad c0 bd 9a 9e bc bc 01 ac d1 3b
       -0.06297085 -0.09408092 -0.023024846 0.0063986783
0003d0 74 48 92 bd ed 42 0e 3d 64 9f f0 3c f5 07 3b 3d
       -0.071427256 0.034731794 0.029372878 0.045661885
0003e0 b6 d7 e8 bd ac b9 86 bd 13 8b 26 3c 59 17 c5 bb
       -0.113692686 -0.06578383 0.010164994 -0.006014746
0003f0 aa 16 67 3d 14 db e4 3c bc 78 d5 bc a6 16 1e 3e
       0.0564181 0.027936496 -0.026058547 0.15438327

bias f4 [20]
000000 d7 92 31 3d 48 08 86 bd 82 b1 0b bd 64 2b 3d 3d
       0.043352928 -0.06544548 -0.03410483 0.04618396
000010 d6 19 9e 3d 79 5b 6f bd 95 70 26 bd ea a7 a8 bd
       0.077197716 -0.058436844 -0.04063471 -0.08235152
000020 bf 56 d9 bd 48 e1 29 bd 7b 75 a0 b9 df f7 44 3d
       -0.10612249 -0.04147461 -0.00030605108 0.04808795
000030 4e 21 b6 3b 7c b9 34 bd 56 ae 83 bb a9 7e 80 bd
       0.0055581694 -0.044122204 -0.004018585 -0.062741585
000040 b5 d8 fc 3c 41 be 90 3c 01 bb 47 3d 1f 0f 8b 3c
       0.030865053 0.017668845 0.048762325 0.016974984

weight f4 [50, 320]
000000 d0 c0 55 3d 57 b4 cd bd c4 1d ab 3b 9d 63 e5 3c
       0.052185833 -0.10044163 0.005222054 0.0280016
000010 40 fa 79 3d dd 6f 78 bd 15 bd 5e 3d 43 08 c0 3d
       0.061029673 -0.060653556 0.05437954 0.09376576
000020 ed a9 05 3d b4 b5 e3 3c 8b 8e 89 bd f9 7e 3a bd
       0.032632757 0.027796604 -0.06716641 -0.045531247
000030 09 f5 80 3d 13 86 a4 3d ea 6d 8e bd 4d 6d af bc
       0.06296737 0.08033385 -0.06954558 -0.021414423
000040 59 ea 09 3c 09 51 76 3d 54 7a d5 3a 83 08 ad 3b
       0.008417689 0.060135875 0.0016287067 0.0052805557
000050 cf cc b4 3d 81 0e 0c bc 92 14 99 3c 38 b3 90 3d
       0.08828127 -0.00854838 0.018686567 0.07065433
000060 bb 28 23 b9 80 77 78 bc f0 82 a8 bd 1a ed af bd
       -0.00015560065 -0.01516521 -0.08228099 -0.085901454
000070 a6 3a 3d be 71 38 a5 3c 10 54 5c bc 76 c0 46 be
       -0.18479404 0.020168515 -0.013447776 -0.19409356
000080 da 33 56 ba 44 41 14 bd 02 c0 57 bd 03 ac 48 bd
       -0.00081711786 -0.036195055 -0.052673347 -0.04899217
000090 4e 8a 01 3e 76 88 47 bd 27 0b 88 bd 4e bb cc bc
       0.12650415 -0.048714124 -0.06642752 -0.024991658
0000a0 27 c4 f6 3c c9 6a 01 bc 71 68 d7 bc c7 ec cf 3a
       0.03012283 -0.007898995 -0.026294919 0.0015863412
0000b0 7e f6 9c 3d 00 45 72 3c f0 83 5e 3d b8 3d 0f 3e
       0.07664202 0.014786959 0.054325044 0.13988388
0000c0 e8 fe 16 3d 57 84 52 3d f8 20 7e 3d 32 95 96 3d
       0.03686419 0.05139574 0.06204316 0.073526755
0000d0 00 0f 97 3c 99 9b e2 bc 6f 4e 21 bd 16 25 7e 3a
       0.01843977 -0.027662085 -0.03938144 0.0009694857
0000e0 70 03 d4 3c 23 7d 90 bd 75 80 bb 3c 3d 54 97 bd
       0.025880545 -0.07055118 0.022888402 -0.07389114
0000f0 1c 43 2e bd 26 44 d7 ba 27 c1 f4 3c 75 9a 4c bd
       -0.04254447 -0.0016423508 0.029877258 -0.04995199
000100 cc 9d 18 3c a8 55 de 3c 6e e4 91 3d 1d e3 ea 3c
       0.009314965 0.027140453 0.07123648 0.02867275
000110 69 00 1b 3d 99 c4 c7 bc ec 37 25 3c 8a c6 a0 3d
       0.037842188 -0.024385737 0.010084134 0.07850368
000120 96 de 1d bd ec 06 f8 bd 03 b4 07 bd 46 4f 65 3b
       -0.038542353 -0.12110695 -0.033130657 0.0034989878
000130 ae 5c 67 3c 4c a7 b0 bd 14 6c 74 bc 33 12 f8 bc
       0.014121218 -0.08625659 -0.014918346 -0.030282116
000140 5b b0 c4 3d 84 25 18 bd 75 37 ab 3a 5e 2b ef 3d
       0.0960395 -0.037145153 0.0013062792 0.116781935
000150 44 b0 75 3d de 6b db bc 79 95 4b bd ec 7a 86 3d
       0.059982553 -0.026784834 -0.049703095 0.06566414
000160 59 0a 1b bd 34 5d 92 bd fc f6 30 bd 4e e5 df 3d
       -0.037851665 -0.07146683 -0.043204293 0.10932408
000170 52 e6 55 3b f7 f6 a5 bd 9f 7c 53 bc f8 72 e5 bd
       0.0032638502 -0.081037454 -0.01290813 -0.11203569
000180 77 96 62 bc ef bf 60 bd 54 51 18 3d 20 3c bb 3d
       -0.013829819 -0.054870542 0.037186936 0.09142327
000190 41 6e c3 bd 0c 7f 1b bc 83 20 22 3c f2 6d 7b 3d
       -0.09542514 -0.00949074 0.009895447 0.06138415
0001a0 1d 21 03 bd a7 9f df bd cb 9f 89 3d 5d a8 23 be
       -0.032014 -0.10919123 0.06719931 -0.15982194
0001b0 3d 9a d6 3c 12 5d a8 bd d7 17 5a 3d ae cf 73 3c
       0.026196593 -0.08220877 0.05324539 0.014881058
0001c0 74 a2 9c 3a 4c 5d 3d 3d bf 2f bc bc ae 9c 22 3c
       0.001195027 0.046231553 -0.022971986 0.009925051
0001d0 88 59 aa bc de 20 95 3b 27 35 be bd 6d 7f 16 bb
       -0.020794645 0.004551037 -0.09287482 -0.0022964135
0001e0 ee f1 ce bb 58 68 fc 3b ff 23 fe 3c 33 2f 09 3d
       -0.0063154614 0.0077028684 0.031023024 0.03349228
0001f0 9b f5 b4 bd ec 50 5f bd cf 5f af 3c c9 72 74 3d
       -0.08835908 -0.054520532 0.02140799 0.05967978
000200 c7 df 14 3d e2 0d 8d bd 86 77 62 bd 10 66 11 bc
       0.036346223 -0.068874136 -0.055289768 -0.008874431
000210 56 30 cf 3d dd 71 2b bd ba 9e 41 bd c2 b6 d6 3d
       0.10116641 -0.041856635 -0.047270514 0.10484077
000220 85 aa a0 3c a0 b4 9f bd ed 2d 82 bd ca 3f 15 3d
       0.01961256 -0.07798123 -0.06356416 0.036437787
000230 aa 14 bc bc 2c d0 e7 bc 4d 4f 97 bd 03 04 61 bd
       -0.022959072 -0.028297506 -0.07388172 -0.054935466
000240 25 1f 40 bd 4f 76 61 3d 07 b7 06 bd 00 7f 60 3d
       -0.0469047 0.05504447 -0.032889392 0.054808617
000250 39 d3 05 bd 49 35 37 3d df 49 13 bd 57 07 e1 bc
       -0.03267214 0.04472855 -0.03595912 -0.02746932
000260 99 39 b4 bc 4c bd 23 3d 23 fa 8d bc a8 0d d8 3c
       -0.022000121 0.03997545 -0.017331189 0.0263737
000270 b8 ab 7e 3c 72 83 27 3d 80 bf b8 bd 60 fa 49 bd
       0.015543871 0.04089684 -0.09020901 -0.04931104
000280 6a ce 1c bc af 42 a1 3d 05 f4 bb bb bc 2b a1 bd
       -0.009570697 0.07874047 -0.0057358765 -0.0786967
000290 f4 9a b9 bd 56 82 c2 bc d0 57 ab bd 7d f1 46 bd
       -0.09062758 -0.02374379 -0.08366358 -0.048570145
0002a0 95 7c c6 bc 46 94 a1 bd bf 1e 68 bd 29 16 86 3d
       -0.024229327 -0.07889609 -0.056669947 0.065471955
0002b0 9b 80 c8 bd 5c 08 ca 3b ca f8 07 3e 79 7b ce 3d
       -0.097901545 0.0061655473 0.13278499 0.10082144
0002c0 1f 28 51 be 32 35 ea bc 86 cb 0f bd 53 0b 37 bd
       -0.20425461 -0.028589819 -0.035106204 -0.044688534
0002d0 91 58 19 bc 8b ea 38 3c 5f c3 12 be da ae 12 be
       -0.009359495 0.011286388 -0.1433234 -0.14324513
0002e0 a5 68 90 3d 36 7c bb 3c 97 98 d0 bd 1e 85 2c bd
       0.07051209 0.022886377 -0.10185354 -0.042119138
0002f0 9b df 7a 3e 70 b4 4c 3d 93 b7 fa bd e1 59 8b bc
       0.24499361 0.049976766 -0.12242045 -0.017010631
000300 21 6d d2 3d c8 64 15 bd 03 16 8f bd db 1f 41 bd
       0.10274721 -0.036473066 -0.0698662 -0.04714952
000310 1f 26 05 3e 4c 20 14 be 01 74 fb bc d3 8b dd 3d
       0.13002823 -0.14465445 -0.030694963 0.10817685
000320 0e de 1f bd bb b3 5e bd 81 3c f8 bc 19 ed 95 bc
       -0.039030127 -0.054370623 -0.030302288 -0.018301534
000330 b0 f5 21 bd 74 fa ee bd 88 1e 0e be 5a 80 49 3d
       -0.039540946 -0.11668864 -0.13878834 0.04919467
000340 87 f1 84 3d 30 67 9f 3c be f6 32 bd 5e 34 73 bc
       0.0649138 0.019458383 -0.043692343 -0.014844028
000350 26 9e d8 3c 55 e0 1c bd cd 72 89 bd 9b 7f 9c bd
       0.026442599 -0.038299877 -0.0671135 -0.07641526
000360 9d 47 35 3e 7c 57 f7 3c ba 86 25 3d 4a d2 de bd
       0.177031 0.030193083 0.04041169 -0.10879953
000370 1c 7e 56 3e 24 e3 f7 3d 3a 24 0f 3e 7f d9 7c 3d
       0.20946544 0.121038705 0.13978663 0.061730858
000380 ba f8 03 3e 51 04 09 bd 37 63 21 3e 55 dd 35 3e
       0.1288785 -0.033451382 0.15760504 0.17760213
000390 f3 8f c2 3d 44 b7 54 3b e2 b3 c4 3c b3 7d e4 3b
       0.095001124 0.0032457868 0.024011556 0.0069729923
0003a0 36 fe 50 3d 7a a3 d0 bd 77 5f 0c be 3e ac 0c be
       0.051023684 -0.10187431 -0.13708292 -0.1373758
0003b0 f2 12 aa bd 41 f6 01 3d f9 47 85 bd a3 30 16 be
       -0.08304395 0.031728987 -0.06507868 -0.14666991
0003c0 5e 55 53 bc d2 e5 34 bd a9 12 12 bc 1a 11 55 3d
       -0.012898771 -0.044164486 -0.008915582 0.052018262
0003d0 27 9d 19 3d b7 61 56 3d 25 81 97 3c 0a 30 20 bc
       0.037503388 0.052339282 0.018494198 -0.009777078
0003e0 23 1b c0 3c 9f ef fb 3c 4c 5d fa 3c 7f cd 4b bd
       0.02345044 0.030753909 0.030562066 -0.049756523
0003f0 98 30 e7 bc 9d 67 20 bd 2d 69 1d bc 67 d7 d0 3c
       -0.028221413 -0.039161313 -0.009607595 0.025493337

bias f4 [50]
000000 af 97 04 3e b7 15 e6 3d 0e f8 0e 3e 3f e7 f1 3d
       0.12948488 0.112346105 0.13961813 0.11811685
000010 e3 ae 2f 3e aa e5 1d 3e ed 14 5e 3d e8 c1 78 3d
       0.17156558 0.15419641 0.054219175 0.0607318
000020 2b 47 4c 3e 0d ef 90 3d 39 85 06 3d 74 1e 66 3e
       0.19949023 0.07076845 0.032841895 0.22472554
000030 45 d5 f1 3d c9 e9 d7 3d 4c 81 04 3e 48 a6 6b 3d
       0.11808256 0.10542638 0.12939948 0.057531625
000040 7e c6 7e 3e 5d fb 3e 3e 2a df cf 3d 69 39 87 3d
       0.24880406 0.18650575 0.10149987 0.06602747
000050 a1 47 1b 3d 60 3d be 3d 3a a4 e9 3d 26 52 28 3e
       0.037910108 0.0928905 0.11408277 0.16437587
000060 e0 b6 27 3e 5f fc 38 ba 12 b8 a1 3d 1b d8 f7 3d
       0.16378355 -0.0007056649 0.07896437 0.12101766
000070 0b 6c 85 3d 1a 4c 01 3e e9 dc b4 3c 5b 6f c1 3c
       0.06514748 0.12626687 0.022077994 0.023612669
000080 79 dc 99 3d 56 b3 1a 3e 29 7e 20 3d b0 1c e9 3d
       0.07512755 0.15107474 0.039182816 0.11382425
000090 44 22 e3 3d db 0d 47 3e 20 45 10 3e 50 0e b4 3d
       0.1109052 0.19438879 0.14088869 0.087917924
0000a0 b1 42 0a 3e 71 05 86 3d f3 d8 e8 3d bc 91 e5 3b
       0.13502003 0.065440066 0.11369505 0.0070058983
0000b0 76 82 0a 3e 85 9d d7 3d 31 9e 4d 3e 60 d3 30 3d
       0.1352633 0.10528091 0.20079876 0.043170333
0000c0 32 5e df 3d 77 a6 0a 3e
       0.10906638 0.13540064

weight f4 [10, 50]
000000 62 7d 23 3d a2 fa 05 bd 82 28 a1 3c 98 ae c0 3d
       0.039914496 -0.032709725 0.019672636 0.09408301
000010 5e f7 85 3b 42 ab d5 bd a9 58 e0 be 31 28 bc 3c
       0.0040883264 -0.104330555 -0.43817642 0.022968384
000020 89 9f d2 bc fb 45 c1 be d1 67 e0 be 6d eb 32 be
       -0.025710838 -0.37748703 -0.43829206 -0.1747262
000030 8c a1 b0 be d9 f4 88 be c5 d5 e0 be 88 91 e8 3c
       -0.3449825 -0.26749304 -0.43913093 0.028389707
000040 0b 22 00 bf 1e 9d c8 be 6f ad b7 3d 9a 15 a6 ba
       -0.50051945 -0.3918237 0.08968627 -0.0012671233
000050 37 ef dd be 02 ed 3b be 49 9c 3a bd c0 24 b5 be
       -0.4334657 -0.1835213 -0.0455592 -0.353796
000060 b2 6a 09 bf 4c 39 c0 be 1b 28 5f 3d c7 e0 d3 3c
       -0.5367843 -0.37543714 0.054481607 0.025864018
000070 78 1c df 3a 0d a6 f7 be 7d fd ad 3d 15 e6 89 bc
       0.0017022034 -0.48368874 0.08495615 -0.016833344
000080 52 c6 1c bd fd 59 e9 be 62 6c cd 3c 3f 48 84 bd
       -0.03827507 -0.45576468 0.025076095 -0.06459092
000090 ee cc 01 bf f0 fd a5 be 79 56 e0 be d4 38 c3 bc
       -0.5070332 -0.324203 -0.43815973 -0.023830809
0000a0 b8 b5 b5 be b5 88 a8 3c cc a4 dc 3c 72 28 52 3c
       -0.35490203 0.020573 0.02693405 0.012827026
0000b0 8a d3 aa bc 99 65 3f 3d 95 9b fb be 79 de f1 be
       -0.020852823 0.04672775 -0.49142137 -0.47240046
0000c0 cd 09 d7 be 60 ab 5e 3d 70 1f c6 be 65 31 bb be
       -0.41999665 0.054362655 -0.3869586 -0.36561123
0000d0 ac 2e cb be a2 12 8d bb 82 64 72 be 9b 20 8d be
       -0.39684045 -0.0043051997 -0.23671153 -0.27563938
0000e0 7e 6d 6d be 1f ef ba be 04 07 44 be 04 f1 74 be
       -0.23186299 -0.3651056 -0.19143301 -0.23920065
0000f0 5c 77 a8 be be 6b f8 bb 01 96 b8 be 3e 54 08 3d
       -0.32903564 -0.0075812032 -0.36051944 0.033283465
000100 27 7a 83 be 3e 3f 69 be 34 31 24 bc 92 dd 94 3c
       -0.25679132 -0.22778031 -0.010021497 0.01817206
000110 4a 00 a2 be ed 46 c6 be bb f4 32 be d0 e6 c0 be
       -0.31640846 -0.38725987 -0.1747617 -0.37676096
000120 8a 00 34 3c 0a 30 3b bc 7e 2d 9f ba ce 45 f1 3c
       0.010986457 -0.011425028 -0.0012144295 0.02945223
000130 21 d0 c4 be 60 db 68 be 80 d8 8e be 97 fe 7a be
       -0.3844004 -0.22739935 -0.2789955 -0.24511181
000140 84 72 a2 be 51 fc ca bc d6 29 a6 be 83 b2 c3 be
       -0.31727993 -0.024778517 -0.32453793 -0.3822213
000150 5e c5 9d 3d e3 27 1a 3e 47 bb f2 3c 65 3e d9 be
       0.077036604 0.15054278 0.029630316 -0.42430416
000160 6f ad aa bb 61 8e 1e 3d 05 80 d2 bb 42 08 89 be
       -0.005208663 0.03871 -0.0064239525 -0.26764113
000170 f4 e9 ec be 5e 89 4d 3d ff 12 b5 be 7f 1f 26 be
       -0.46272242 0.05017983 -0.35366055 -0.16222952
000180 dc 42 15 3d e6 d1 82 3d ac 83 15 3d 4f 2e 6f be
       0.036440715 0.06387691 0.036502525 -0.23357509
000190 04 8e 87 3c 4d 0a 79 be 88 78 60 3d 75 56 bd 3d
       0.01654721 -0.24320336 0.054802448 0.09245006
0001a0 f8 e0 9f be ca d0 2f be 38 ca a0 be 8f 3b e2 be
       -0.31226325 -0.1716949 -0.3140428 -0.44186065
0001b0 63 35 dc be 6a 6b 91 3c e9 34 90 3c 06 65 d4 3b
       -0.4300948 0.017751414 0.017603355 0.0064817695
0001c0 86 5d 1e 3d ad 87 10 be 51 a6 5d be 87 db 86 3d
       0.03866341 -0.14114256 -0.21645476 0.0658484
0001d0 b1 6f 3b 3c af 83 96 be 4b 06 2c be b8 92 b3 be
       0.0114402035 -0.29397342 -0.16799276 -0.35072875
0001e0 ce ae b5 bc 93 43 73 3d 73 af ff 3c 7c 5c f4 bc
       -0.02217808 0.059390616 0.03121159 -0.029829256
0001f0 55 98 60 bb 52 c3 b7 be 0b d0 a9 be ea 14 cf be
       -0.0034270484 -0.35891205 -0.33166537 -0.40445644
000200 70 1c 02 bf 19 0e 80 3d 50 71 06 bf 70 70 e8 be
       -0.5082464 0.06252689 -0.5251665 -0.45398283
000210 1b 82 cf be 1b ac af 3d 78 d9 d2 be 8f b0 e1 be
       -0.4052895 0.085777484 -0.4118154 -0.44080016
000220 8f 82 79 3c 51 96 c9 bd ef 2f bd bd 54 3c bf be
       0.0152288815 -0.09843124 -0.09237658 -0.37350714
000230 66 f9 aa be e1 ce 88 be 4f 4e f6 be b0 8c ac be
       -0.333934 -0.26720336 -0.4810662 -0.33701086
000240 a4 5e 02 bd d7 6f d3 be 6b e7 28 bd 6f 23 4b bd
       -0.031828538 -0.41296265 -0.041236322 -0.04959434
000250 0a 79 d1 3c 8b d6 3e be f3 9c b0 be 89 65 18 bc
       0.025570411 -0.18636529 -0.34494743 -0.009301552
000260 b9 58 f9 ba 7a 00 c1 be 39 07 fb be 3b 9b 53 3b
       -0.0019023634 -0.37695676 -0.49028948 0.003228857
000270 25 5e 21 3d 1d 5f 46 3d 7e 9d 18 be e3 19 b1 be
       0.039396424 0.04843055 -0.14903829 -0.34590062
000280 80 3a 88 be 8d 94 4a 3d 25 90 c0 be 51 92 72 3c
       -0.26607132 0.049458075 -0.37609974 0.014805392
000290 f6 e8 1c 3d c5 42 f9 be 89 b8 90 3b f2 18 4a bd
       0.038308106 -0.48683754 0.0044165296 -0.049340196
0002a0 f4 1a aa 3c 83 c9 8e 3c 4a 7e 96 be 18 3d e0 be
       0.020764805 0.017430073 -0.29393226 -0.4379661
0002b0 1b 52 6a be 7a 07 16 3c d4 b9 d2 be d7 5b 82 be
       -0.22882883 0.009157056 -0.411574 -0.25460693
0002c0 2b 4a 80 be cb 55 58 3d 32 48 4d 3d 58 b0 b3 bd
       -0.25056586 0.052816194 0.05011768 -0.08773869
0002d0 6b 76 30 bb d6 18 cb bd 78 8d b0 be a4 1a 9c 3b
       -0.0026926051 -0.099168465 -0.34482932 0.004763918
0002e0 09 e1 fb be 5c fa d8 be 76 29 0c bf c8 16 b7 bd
       -0.49195126 -0.4237851 -0.54750764 -0.08939892
0002f0 b7 2c 12 3d 2f a5 ce be 04 88 e3 be 07 95 a9 be
       0.035687175 -0.403604 -0.4443971 -0.3312151
000300 35 2c 0c 3c e7 3b b9 be a8 0d be be 21 fe d6 be
       0.008555462 -0.36178514 -0.37119794 -0.4199076
000310 9d b3 09 3d ed 26 0f bf 45 71 7e be 2e 24 92 be
       0.03361856 -0.5591877 -0.24847896 -0.28543228
000320 2f 36 a9 3c 3c 90 2b bd ad fb a7 3c e0 ed 8b bb
       0.02065572 -0.0418856 0.02050575 -0.0042703003
000330 43 02 a0 bd 78 f6 6e 3d e1 a6 72 be 06 12 a4 be
       -0.078129314 0.05834052 -0.23696472 -0.32045
000340 d7 17 ea 3c 0f 78 ef be eb d5 92 be 6b 7f 98 be
       0.02857582 -0.46771285 -0.2867883 -0.29784712
000350 a9 ee 5d 3d 2f e1 57 3d 9b d4 8e be 77 d2 be be
       0.054182682 0.052704986 -0.2789658 -0.37269947
000360 e6 22 dc be 31 f2 c9 be fd 95 4a be f1 17 80 bc
       -0.42995375 -0.3944259 -0.19783778 -0.015636416
000370 58 60 8e 3d 8a bb ad be 7a 94 45 bd a7 6b e8 be
       0.0695197 -0.33932143 -0.0482373 -0.45394632
000380 bc 31 66 3d 1e 95 65 be d0 77 a2 be e0 55 66 bc
       0.056199774 -0.22420165 -0.31732035 -0.01405856
000390 b1 51 6c 3b c8 5f b6 bd f1 18 83 be fe 58 78 be
       0.0036059434 -0.089049876 -0.25604966 -0.24252698
0003a0 60 73 6f 3d a5 e6 38 3b 8f 22 f2 bd 0f 35 5f bb
       0.05845964 0.0028213647 -0.11822998 -0.0034058725
0003b0 d1 72 9c be 37 c6 94 be bb 21 ee be 77 49 54 be
       -0.30556348 -0.29057476 -0.4651011 -0.2073115
0003c0 a2 8f 58 3d 83 2a a5 3d 61 6b 97 be 4d 9d 96 be
       0.052871354 0.08064749 -0.2957411 -0.29416886
0003d0 38 c7 80 3c 64 c7 4f bb 33 ff 41 bc c4 70 c4 be
       0.015719995 -0.003170454 -0.011840629 -0.38367283
0003e0 ca 0f b8 bc 93 5f 72 3c dc 08 53 be 2a d2 53 3d
       -0.022468466 0.0147932945 -0.20608848 0.0517141
0003f0 04 43 ea bd 7b 1d d2 be 48 49 c9 be 22 2b a3 be
       -0.114385635 -0.41038117 -0.39313722 -0.31868845

bias f4 [10]
000000 aa 4a aa 3d 20 af 07 3c 38 0e 52 3d 00 21 06 be
       0.08315022 0.008281499 0.05128309 -0.13098526
000010 df 79 af 3b ce bc c8 3d 24 50 8e bd d2 fa 0c be
       0.0053551043 0.09801637 -0.06948879 -0.13767555
000020 bf 8d e7 bd a4 d1 fa bd
       -0.11306333 -0.12247017
