artifact_store/8/7bd22e9cb13e4086972fa870aacd1c9d/artifacts/model/data/model.pth (torch_old, 92235 bytes, 8 tensors)

weight f4 [10, 1, 5, 5]
0	0x3d03bd58	0.032162994
1	0x3e24c2c1	0.16089918
2	0xbe1629aa	-0.14664331
3	0xbe373ad5	-0.17893536
4	0x3e28fa2b	0.16501682
5	0x3e3129c1	0.17301084
6	0xbe0bf232	-0.13666609
7	0x3e305fc9	0.17224039
8	0x3d6498c4	0.05580975
9	0x3ce852d0	0.0283598
10	0xbdf9b1c0	-0.12192106
11	0x3cddeae8	0.027089551
12	0x3c336a80	0.010950685
13	0xbe145475	-0.14485343
14	0xbe2e77e5	-0.17037924
15	0xbe1fe81a	-0.15615883
16	0x3e3cd5f1	0.18440987
17	0x3d804d1e	0.06264709
18	0xbe2ba493	-0.16761999
19	0xbd6e8d88	-0.058240443
20	0x3cada580	0.02119708
21	0xbe3d63e7	-0.18495141
22	0xbe4a0ecb	-0.19732206
23	0x3cfd38a8	0.030910805
24	0x3e40cd03	0.18828206
25	0x3d811e3a	0.063045934
26	0xbc8866c0	-0.016650558
27	0xbdaf74f0	-0.08567226
28	0x3e2a15cb	0.16609876
29	0x3daa244e	0.08307706
30	0x3d450da8	0.048108727
31	0x3e335641	0.17513372
32	0xbe29a3b2	-0.16566351
33	0xbe2e4c58	-0.1702131
34	0x3e27367d	0.1632938
35	0x3d92bb6e	0.071646556
36	0x3dcf904e	0.10134946
37	0xbd04aa48	-0.032388955
38	0xbded39d3	-0.11583295
39	0xbd2d0e54	-0.042249992
40	0x3c3d0550	0.011536911
41	0x3dfcc5ba	0.12342401
42	0x3e102481	0.14076425
43	0xbc2786a0	-0.010224968
44	0x3e04494f	0.1291859
45	0x3cc26c28	0.023733214
46	0xbc711950	-0.014715508
47	0x3b877ea0	0.004134968
48	0x3dc9add6	0.0984761
49	0xbe1171d5	-0.1420358
50	0xbde5bae0	-0.11217284
51	0x3e11cbc9	0.14237894
52	0x3c72f230	0.01482825
53	0x3d93905e	0.0720527
54	0x3e400ee7	0.18755685
55	0x3df9c862	0.12196423
56	0x3e1257b7	0.14291273
57	0xbe45c640	-0.19313908
58	0x3d763ddc	0.060117587
59	0xbdb9343a	-0.090431646
60	0x3d64bbc4	0.05584313
61	0x3dc5e612	0.09663023
62	0x3debdeca	0.11517103
63	0x3e18bd55	0.14915974
64	0x3c780ba0	0.01513949
65	0x3dcf69d2	0.101276055
66	0x3e0c0a0d	0.13675709
67	0xbdf5ec43	-0.12007954
68	0x3c8bf818	0.017086074
69	0x3c952cc0	0.018209815
70	0x3e0c0a49	0.13675798
71	0x3de28742	0.11060955
72	0x3e0d7b85	0.1381665
73	0x3d79ec44	0.061016336
74	0x3d371254	0.044695213
75	0xbe3f1d35	-0.18663485
76	0x3dff1c36	0.12456553
77	0x3e06fcc5	0.13182361
78	0xbe0e81ae	-0.13916656
79	0xbe283cbe	-0.16429421
80	0x3e04031b	0.1289181
81	0xbcded050	-0.02719894
82	0x3dba3f2a	0.09094079
83	0x3dad880a	0.08473213
84	0x3cce6298	0.025193498
85	0x3e49aeb3	0.19695549
86	0xbe344f50	-0.1760838
87	0x3cfd0d40	0.030890107
88	0xbd921f5c	-0.071348876
89	0x3e2d9095	0.16949685
90	0xbd61dd38	-0.05514261
91	0x3e20ba93	0.15696172
92	0xbe0b6f68	-0.13616717
93	0xbe20823d	-0.15674682
94	0xbe03d318	-0.12873495
95	0xbde0cf23	-0.10977008
96	0x3d2d66c8	0.042334348
97	0xbe3686a5	-0.178248
98	0xbd42a2ec	-0.047518656
99	0x3e0f0989	0.13968481
100	0xbe284f4b	-0.16436498
101	0x3d6d4f44	0.05793692
102	0xbd8f88fc	-0.070085496
103	0x3dea30b2	0.11435069
104	0xbe34d743	-0.17660241
105	0x3d01f520	0.03172791
106	0xbd0d1ca0	-0.034451127
107	0xbde695ca	-0.11259039
108	0x3e32a2ed	0.17444964
109	0xbe388000	-0.18017578
110	0x3df70bf2	0.12062825
111	0x3941d400	0.0001848489
112	0x3e211b99	0.15733184
113	0xbe40be28	-0.18822539
114	0x3e2e3d01	0.17015459
115	0x3e16d953	0.1473134
116	0x3e1b3b31	0.15159298
117	0x3d6206cc	0.055182263
118	0x3e03dd71	0.12877442
119	0xbd3e7ba0	-0.046504617
120	0x3e046827	0.12930356
121	0xbddd5ae0	-0.10808349
122	0xbdbc194d	-0.09184513
123	0x3d52f26c	0.051500723
124	0xbd6167d8	-0.055030674
125	0xbd91414c	-0.070925325
126	0xbcbd7818	-0.023128554
127	0xbcc327e8	-0.02382274
128	0xbdcb2a5a	-0.09920187
129	0x3da384ae	0.07984291
130	0x3da01a3a	0.07817502
131	0xbdb4978d	-0.088179685
132	0x3d1a4228	0.037660748
133	0xbe10559e	-0.1409516
134	0xbdb36e97	-0.08761328
135	0x3dd42f5e	0.10360597
136	0xbdd7b447	-0.10532432
137	0xbe0239e2	-0.12717393
138	0x3e200e25	0.15630396
139	0xbdcd9f63	-0.10040166
140	0x3dbaccce	0.09121095
141	0xbe1ffaf2	-0.15623072
142	0xbde7bfd0	-0.11315882
143	0x3e1382f5	0.14405425
144	0xbe272d38	-0.16325843
145	0x3da690d6	0.08133094
146	0x3d3eec98	0.046612352
147	0xbe2b0116	-0.16699633
148	0xbdcd71e7	-0.10031491
149	0xbd1601c0	-0.036622763
150	0xbd868b50	-0.065695405
151	0x3d0ca2e8	0.034335047
152	0xbd2f5088	-0.04280141
153	0x3d7adb0c	0.061244056
154	0xbd97908c	-0.07400617
155	0xbe4b6842	-0.1986399
156	0x3e0264f7	0.12733828
157	0x3d8dd3fa	0.06925197
158	0xbc0d0680	-0.008607507
159	0x3da66fb2	0.08126773
160	0x3d9e7bd6	0.077384636
161	0x3d165fc8	0.036712438
162	0x3da22b62	0.07918431
163	0x3e1d0341	0.15333273
164	0x3e1066fb	0.14101784
165	0xbd805504	-0.062662154
166	0x3e131cb7	0.14366423
167	0x392ed400	0.00016672909
168	0xbde1bca3	-0.11022308
169	0xbd383320	-0.04497063
170	0x3e1ce513	0.1532176
171	0xbde9d05d	-0.11416695
172	0xbe2ba95a	-0.16763821
173	0xbe1502ab	-0.14551799
174	0xbe128c6e	-0.14311382
175	0xbd51c378	-0.051211804
176	0xbde7e697	-0.113232784
177	0xbe369c80	-0.17833138
178	0xbd621ed4	-0.05520518
179	0x3e170fd1	0.14752127
180	0x3d9173c2	0.07102157
181	0x3d0a7a34	0.03380795
182	0xbe4c113a	-0.19928446
183	0x3e0dade5	0.13835867
184	0xbdd75353	-0.1051394
185	0x3d87131e	0.06595443
186	0x3da04eae	0.07827507
187	0xbd35bc00	-0.044368744
188	0x3dcd9912	0.100389615
189	0xbc586aa0	-0.013209015
190	0xbe14cbcb	-0.14530866
191	0xbd381308	-0.044940025
192	0xbe3e2bf8	-0.1857146
193	0x3cc2c110	0.0237737
194	0x3d3ccc2c	0.04609315
195	0xbdb22ac3	-0.086995624
196	0x3e07ad15	0.1324962
197	0xbdc59123	-0.09646823
198	0x3e073089	0.13202108
199	0xbd1d4a58	-0.038400978
200	0x3dce8dce	0.10085641
201	0xbd968726	-0.07349996
202	0xbd97529a	-0.07388802
203	0xbe3064fa	-0.1722602
204	0x3c4eb8d0	0.012617305
205	0x3e4166ab	0.18886821
206	0x3d163da0	0.036679864
207	0x3e30dc05	0.17271431
208	0x3e42e9e9	0.19034542
209	0xbe25785d	-0.16159196
210	0x3d5708a4	0.052498475
211	0xbe36bbf0	-0.1784513
212	0xbe351613	-0.17684202
213	0xbd621980	-0.0552001
214	0x3d88be36	0.06676905
215	0x3dd57ab2	0.10423793
216	0xbe16d74d	-0.14730568
217	0x3e372429	0.17884888
218	0xbe030a0a	-0.12796798
219	0x3e0c5753	0.13705187
220	0x3b4a1180	0.0030833185
221	0x3c967a28	0.018368796
222	0x3d27a938	0.040932864
223	0x3c8ce550	0.017199188
224	0x3dda72f2	0.10666455
225	0x3de57676	0.11204235
226	0xbe2ee52d	-0.17079611
227	0xbd834016	-0.06408708
228	0x3dd79d0e	0.10528003
229	0x3dc5869e	0.09644817
230	0xbe3b8983	-0.18314175
231	0x3ce66cf0	0.028128117
232	0x3d847a0e	0.064685926
233	0x3e18e197	0.14929806
234	0x3df97692	0.121808186
235	0x3e1d4769	0.15359272
236	0x3dfe34c2	0.124124065
237	0xbd8a2980	-0.06746197
238	0x3e361c37	0.177842
239	0x3e19ead5	0.15030988
240	0x3cdfb940	0.027310014
241	0xbd34ccb8	-0.044140548
242	0x3d2b90ac	0.041886017
243	0xbd4f4b80	-0.05060911
244	0xbd806ecc	-0.06271133
245	0x3caee3b0	0.021348804
246	0x3e3faa6b	0.18717353
247	0xbe037ee6	-0.12841377
248	0xbdaaebb7	-0.0834574
249	0x3dd6c00e	0.1048585

bias f4 [10]
0	0xbd4d05e8	-0.05005446
1	0xbe4c9155	-0.19977315
2	0x3c209120	0.0098002255
3	0x3d2954ec	0.041340753
4	0x3e428a31	0.18998028
5	0x3dc2ac82	0.095055595
6	0xbda62800	-0.08113098
7	0x3dc31d6a	0.09527095
8	0xbdc98667	-0.09840088
9	0xbda89a2d	-0.08232532

weight f4 [20, 10, 5, 5]
0	0xbd06e58e	-0.032933764
1	0xbd1be5f7	-0.03806111
2	0x3d633cdc	0.055477962
3	0x3d50fda6	0.051023148
4	0x3ca36824	0.019947119
5	0x3d0524be	0.032505743
6	0xbd1925d6	-0.0373896
7	0x3d5c48d8	0.053780407
8	0x3d69e050	0.057098687
9	0x3cbc8150	0.02301088
10	0x3d5ed8ba	0.054405905
11	0x3c3244e0	0.010880679
12	0x3d2123a6	0.039340638
13	0x3d675b0a	0.056483306
14	0x3cfbcd6c	0.030737601
15	0xbcb7f87e	-0.022457357
16	0xbc9b9b16	-0.01899485
17	0xbd285eb2	-0.041105933
18	0x3d755bf8	0.05990216
19	0x3c941684	0.018077143
20	0x3cd7bea0	0.026336014
21	0x3c12e218	0.008965038
22	0x3c095208	0.008381374
23	0x3d2972f4	0.041369393
24	0xbd589e73	-0.052885484
25	0x3d083ee6	0.03326311
26	0xbd1a85a6	-0.037725113
27	0x3975aa00	0.0002342835
28	0xbd6453e7	-0.055744078
29	0xbd5a6bad	-0.053325344
30	0x3c87cbcc	0.01657667
31	0x3cc3c784	0.023898847
32	0x3b1a6540	0.0023558885
33	0x3c4867e8	0.012231804
34	0x3d2338f6	0.039849244
35	0x3d1c9704	0.038229957
36	0xbd7d47ce	-0.061836056
37	0xbd296a48	-0.041361123
38	0x3c45b940	0.012068093
39	0x3ca0ddd4	0.019637026
40	0x3d0d400c	0.034484908
41	0xbc195bec	-0.009360295
42	0xbbb40430	-0.0054936633
43	0xbc81ab28	-0.015828684
44	0x3d799738	0.06093523
45	0x3b5630c0	0.0032682866
46	0x3d150f10	0.036391318
47	0xbd4c3f41	-0.04986501
48	0x3ce64d30	0.028112978
49	0x3d1c562c	0.038168117
50	0xbd10a3a9	-0.03531233
51	0x3d392d6a	0.045209326
52	0x3c9413ec	0.018075906
53	0x3d72d38a	0.05928377
54	0x3be943d0	0.0071186796
55	0xbd73948e	-0.059467845
56	0xbc0549a4	-0.008135233
57	0x3d6f57ba	0.058433272
58	0x3d3496b0	0.04408902
59	0xbd218dc4	-0.03944184
60	0x3d49fe7e	0.04931497
61	0x3b878590	0.004135795
62	0xbcd9ff1a	-0.0266109
63	0x3cdefd84	0.027220495
64	0x3d2299e6	0.03969755
65	0xbc984e24	-0.018591948
66	0x3d624dfa	0.055250145
67	0x3d40f31c	0.047106847
68	0xbb940fa0	-0.004518464
69	0x3c7ba9d8	0.015360318
70	0xbd803857	-0.06260746
71	0x3a8cf940	0.0010755435
72	0x3d072ff8	0.03300473
73	0x3d3d22fe	0.04617595
74	0x3d630480	0.055424213
75	0x3cd13874	0.025539614
76	0xbc6cf9ac	-0.014463823
77	0xbd502f96	-0.05082663
78	0x3ca6e6f4	0.020373799
79	0x3d14c380	0.036319256
80	0xbc82c7d2	-0.015964422
81	0xb96d6800	-0.00022640824
82	0x3b0d84c0	0.0021594018
83	0x3d15bd36	0.0365574
84	0xbd1d627e	-0.038424008
85	0xbb942cf8	-0.0045219623
86	0xbd2c77c2	-0.042106397
87	0xbcec73a6	-0.02886374
88	0xbc89d03c	-0.016822927
89	0xbd0c9aa6	-0.03432717
90	0xba9ed9a0	-0.0012119301
91	0x3c1d5288	0.0096021965
92	0xbc21cef4	-0.009876002
93	0x3ccb2fc8	0.024803057
94	0x3c9de818	0.01927571
95	0xbc950a1c	-0.018193297
96	0x3d5e1738	0.054221362
97	0x3a242b00	0.0006262511
98	0x3d5d38e2	0.054009326
99	0xbb8a2f50	-0.004217066
100	0x3c67d800	0.0141506195
101	0xbd80ff51	-0.06298698
102	0x3c6c2d48	0.014415093
103	0x3c88c670	0.016696185
104	0xbc984cd0	-0.018591315
105	0xbcb41f4e	-0.021987583
106	0xbd1e5f3e	-0.03866505
107	0x3d6c63d6	0.0577124
108	0xbc80662a	-0.015673716
109	0x3c9e0264	0.01928825
110	0x3c48e380	0.0122612715
111	0xbcc2db3c	-0.02378618
112	0xbcf9f16a	-0.030510623
113	0x3c8d72d4	0.017266668
114	0x3c47cc78	0.012194745
115	0xbd80d260	-0.06290126
116	0xbcc7564e	-0.024333145
117	0x3d5d10fe	0.053971283
118	0x3c128f18	0.008945249
119	0xbc41ed6c	-0.011836391
120	0x3d73e0cc	0.059540555
121	0xbc8dbfb0	-0.017303318
122	0x3d6516c2	0.055929907
123	0xbcb3a946	-0.021931302
124	0x3cbfcb3c	0.02341234
125	0x3a34da00	0.00068989396
126	0x3c990ad4	0.018681921
127	0x3d50b23e	0.050951235
128	0xbb6e9d70	-0.0036409758
129	0xbd7a72fa	-0.061144806
130	0x3d1a079c	0.037604913
131	0xbcc87b32	-0.024472807
132	0x3d585254	0.05281289
133	0xbd746006	-0.059661888
134	0x3caf37d8	0.021388933
135	0xbc89fcfa	-0.016844261
136	0xbd740d36	-0.05958291
137	0x3d52489c	0.051338777
138	0x3d1dc224	0.038515225
139	0x3d26d16a	0.040727057
140	0xbc952d98	-0.018210217
141	0x3d49d446	0.049274705
142	0x3d6f37a0	0.058402658
143	0x3d2a634e	0.04159861
144	0xbd72ec8f	-0.05930763
145	0xbc9e64cc	-0.019335173
146	0xbcc0a18a	-0.023514528
147	0xbcb3b8a8	-0.021938637
148	0x3cd389e8	0.025822595
149	0xbd0bb98a	-0.03411249
150	0x3b660f00	0.0035104156
151	0x3d415532	0.04720039
152	0xbc4e388c	-0.012586724
153	0xbd358061	-0.044311885
154	0xbb0b1520	-0.0021222308
155	0xbd02c5e7	-0.031927016
156	0x3d289a70	0.041162908
157	0x3c844a4c	0.016148709
158	0x3d2d282c	0.04227464
159	0xbd342fda	-0.043990947
160	0xbccbaf6e	-0.024863925
161	0x3c823a90	0.015897065
162	0xbd2ee655	-0.04270013
163	0x3aeb6fc0	0.0017962381
164	0x3d0e56b8	0.03475067
165	0xbc4af6f0	-0.012387976
166	0xbd3eed1a	-0.046612836
167	0xbd25e670	-0.040502965
168	0xbd498592	-0.04919965
169	0xbd673dfc	-0.056455597
170	0x3a0f5180	0.00054671615
171	0xbd58f668	-0.052969366
172	0x3c855a64	0.016278453
173	0xbbbaba10	-0.00569845
174	0x3bf2d7f0	0.0074109957
175	0x3be8ccf0	0.0071045086
176	0xbd1c3f96	-0.038146578
177	0x3ccecab4	0.02524314
178	0xbc90ca66	-0.017674636
179	0xbc19146c	-0.009343248
180	0x3c701840	0.014654219
181	0x3d43faac	0.04784648
182	0xbcf846de	-0.03030723
183	0xbba401f0	-0.005005114
184	0x3d702264	0.058626547
185	0xbc926b94	-0.017873563
186	0x3cc1c71c	0.023654513
187	0x3b96d250	0.004602708
188	0xbd71065a	-0.058843948
189	0x3b9a8bd0	0.004716374
190	0x3ca28414	0.01983837
191	0xbd219958	-0.03945288
192	0xbcb31e52	-0.021865044
193	0x3d658108	0.056031257
194	0x3d53e754	0.051734284
195	0x3d7ad076	0.06123396
196	0xbad9ce80	-0.0016617328
197	0xbd081e79	-0.033232186
198	0x3c5922d8	0.013252936
199	0xbd12bfbd	-0.035827387
200	0x3ce09abc	0.027417533
201	0x3d2cf37c	0.042224392
202	0xbcc38fbe	-0.023872253
203	0xbc9d5e02	-0.019209865
204	0x3c67f610	0.014157787
205	0xbd7974d8	-0.060902447
206	0xbd42aaee	-0.047526293
207	0x3c906594	0.017626561
208	0xbd18c962	-0.03730143
209	0xbd24734e	-0.040149026
210	0xbc234510	-0.009965196
211	0xbcf3f790	-0.029781133
212	0xbd7a51a0	-0.061113
213	0xbd6f7083	-0.05845691
214	0x3adddf80	0.001692757
215	0xbd3f17a0	-0.04665339
216	0x3bc756f0	0.006083362
217	0x3d28f5b8	0.04124996
218	0x3d6fbb42	0.058528192
219	0xbd6a7c07	-0.057247188
220	0x3d04f586	0.032460712
221	0xbc8704a8	-0.016481712
222	0x3c2c1e28	0.010505237
223	0xbd092a7a	-0.033487774
224	0x3d41a056	0.04727205
225	0xbd7732fe	-0.060351364
226	0xbd1b86ae	-0.037970237
227	0x3d762dbe	0.060102217
228	0xbcfac5ce	-0.030611899
229	0xb9640e00	-0.0002174899
230	0x3d1efbdc	0.03881441
231	0xbca4f5a4	-0.020136662
232	0x3c9e1234	0.01929579
233	0x3bf88360	0.0075840205
234	0xbd651918	-0.055932134
235	0x3c9bb2d0	0.019006163
236	0xbc1f6234	-0.009728003
237	0x3cabf254	0.020989574
238	0xbcc25aa8	-0.023724869
239	0x3d135e08	0.035978347
240	0xbd00346f	-0.031300005
241	0x3d109c54	0.035305336
242	0x3d125204	0.035722747
243	0x3d516110	0.051117957
244	0xbd651f1c	-0.05593787
245	0x3d15e2a2	0.036593087
246	0xbd10e8bc	-0.035378203
247	0xbd790118	-0.06079206
248	0xbd11ec49	-0.03562573
249	0x3ce544b8	0.02798687
250	0x3d789872	0.06069226
251	0xbd159f40	-0.036528826
252	0xbd3925d0	-0.045202076
253	0x3d5bdfec	0.053680345
254	0xbd3481b6	-0.044069014
255	0x3c92c90c	0.017918132

bias f4 [20]
0	0xbd6c0b4c	-0.05762796
1	0xbd2d5c72	-0.04232449
2	0xbca82c72	-0.020529006
3	0xbbeb0f90	-0.007173486
4	0x3d154838	0.036445826
5	0x3c970abc	0.018437736
6	0xbb96b298	-0.0045989268
7	0xbc99a5a4	-0.018755741
8	0x3bad8540	0.0052954257
9	0xbd4c2d49	-0.049847875
10	0xbc703e80	-0.014663339
11	0x3cea7128	0.02861841
12	0xbd6ad33c	-0.057330355
13	0xbb28c080	-0.0025749505
14	0x3d381942	0.044945963
15	0xbc298d84	-0.010348681
16	0xbd7c49f2	-0.061593957
17	0xbd310b60	-0.04322374
18	0x3c5f6228	0.013634242
19	0x3a781000	0.00094628334

weight f4 [50, 320]
0	0xbd592314	-0.05301197
1	0xbce333f5	-0.027734736
2	0x3d0c9fb4	0.034331992
3	0x3d18fcbc	0.0373504
4	0xb984a300	-0.00025298446
5	0x3d5e316a	0.054246344
6	0xbacfdc20	-0.0015858449
7	0x3c7fdd68	0.015616752
8	0x3b68c330	0.0035516731
9	0xbc21c194	-0.009872813
10	0x3cb10c6c	0.021612369
11	0x3c519a48	0.012793131
12	0xbd55d5f6	-0.052206002
13	0xbd2ef99e	-0.042718522
14	0xbcb70b96	-0.022344392
15	0x3d21eb8a	0.03953127
16	0xbc1f5d74	-0.009726871
17	0x3d0f2edc	0.034956798
18	0xbc813c98	-0.015775964
19	0xbcfcd1ac	-0.030861698
20	0xbca2c92a	-0.019871313
21	0xbd20ed2d	-0.03928869
22	0x3d619c80	0.05508089
23	0xbd25f1f9	-0.040513966
24	0x39d7ca80	0.0004115887
25	0x3b3200f0	0.0027161203
26	0xbd36bb45	-0.044612188
27	0x3d02f658	0.031973213
28	0x3d149078	0.03627059
29	0xbb8edea0	-0.004360035
30	0xbd40a94b	-0.04703645
31	0x3d50976a	0.05092565
32	0x3d045ad0	0.032313168
33	0xbd3e637d	-0.0464816
34	0xbd4b0b5d	-0.049571384
35	0x3d617fe8	0.05505362
36	0xbc7792b0	-0.015110657
37	0x3c934c00	0.017980576
38	0x3c9258ec	0.017864667
39	0x3d4ae4ce	0.04953461
40	0x3cb39be4	0.02192492
41	0x3cbfc8cc	0.023411177
42	0xbd212a2e	-0.039346866
43	0x3d5d5188	0.054032832
44	0xbd60fd3f	-0.054929014
45	0x3d2a002a	0.041504063
46	0x3c131b30	0.00897865
47	0xbd16c7b4	-0.036811545
48	0x3d5e5e4c	0.054289147
49	0x3cdf36a0	0.027247727
50	0xbd5b210a	-0.053498305
51	0xbd2322f8	-0.03982827
52	0x3d4a9e5a	0.049467422
53	0x3c2dbe38	0.010604434
54	0x3c82fa5c	0.015988521
55	0xbd25aa45	-0.040445585
56	0x3a8d7380	0.0010791868
57	0x3cf51d70	0.029921263
58	0x3d082774	0.03324075
59	0x3cc8af3c	0.02449762
60	0x3d2e9c36	0.042629443
61	0xbced2e49	-0.028952735
62	0x3cf8cae8	0.03037019
63	0x3d0cccc2	0.03437496
64	0xbcfa5fd7	-0.030563278
65	0xbd2bd449	-0.041950498
66	0x3d37bad0	0.044855893
67	0xbd017256	-0.03160318
68	0xbb345c70	-0.0027520917
69	0xbd18cd4c	-0.03730516
70	0x3d0e95e6	0.034810923
71	0xbd0f29cc	-0.03495197
72	0x3c9fa438	0.019487485
73	0x3751e000	1.2509525e-05
74	0xbcc3d204	-0.023903854
75	0x3d14a7d0	0.03629285
76	0xbd05f007	-0.03269961
77	0xbb8f4ea8	-0.00437339
78	0xbd3a6e02	-0.045515068
79	0x38c58a00	9.4193965e-05
80	0xbd2b8213	-0.041872095
81	0xbc780944	-0.015138928
82	0x3d5d25c8	0.05399111
83	0xbd362c42	-0.0444758
84	0x3c8965f0	0.01677224
85	0xbcd5d34b	-0.026101729
86	0x3d0d989a	0.03456936
87	0xbd0a804f	-0.03381377
88	0xbcb41c64	-0.021986194
89	0xbc4b128c	-0.012394559
90	0x3c27c7e0	0.010240525
91	0xba9c6980	-0.0011933297
92	0xbc862046	-0.016372811
93	0xbd38caf9	-0.045115445
94	0xbd61e51d	-0.05515014
95	0xbd43dcb2	-0.047817893
96	0xbc6ab8c4	-0.014326278
97	0xbb146ef0	-0.0022649132
98	0xbd4f1500	-0.050557137
99	0xbcaf7218	-0.021416709
100	0x3b832d50	0.0040032044
101	0xbd550412	-0.052005835
102	0xbd44a72a	-0.048010983
103	0x3d052ade	0.032511584
104	0xbb8c70b8	-0.004285898
105	0xbc993718	-0.018703029
106	0xbd51d3e8	-0.05122748
107	0x3c72fca8	0.014830746
108	0x3cdb9324	0.02680356
109	0xbd13484c	-0.03595762
110	0xbd10a9ce	-0.03531819
111	0x3d1cfe88	0.038328677
112	0x3cc94b8c	0.024572156
113	0xbbd3ee60	-0.0064676255
114	0x3d4af73e	0.049552195
115	0x3ca0cbb4	0.019628383
116	0xbca2c99a	-0.019871522
117	0xbd3e875a	-0.0465158
118	0x3d389e4a	0.04507283
119	0x3d4de40c	0.05026631
120	0x3d0d8828	0.034553677
121	0xbd1f4fac	-0.03889434
122	0x3a3c5300	0.0007183999
123	0xbccc3c86	-0.024931204
124	0xbc699918	-0.014257692
125	0x3d104ab8	0.035227507
126	0xbc63875c	-0.013887253
127	0xbbd264d8	-0.006420713
128	0xbbb2ee40	-0.0054605305
129	0xbbc6da98	-0.006068539
130	0x3d2dddf4	0.042448
131	0xbb4e8880	-0.0031514466
132	0xbd199446	-0.03749492
133	0xbc5c13c0	-0.013432443
134	0x3ce603e4	0.028078027
135	0x3c42fc60	0.011900991
136	0x3cb3e6f8	0.02196072
137	0x3d41e6f0	0.04733938
138	0x3c2cd510	0.010548845
139	0xbc294280	-0.010330796
140	0x3c576198	0.013145827
141	0x3c84a22c	0.01619061
142	0x3d4cdf52	0.050017662
143	0x3cab5110	0.020912677
144	0xbce221ea	-0.027604062
145	0x3ba26028	0.0049553104
146	0x3d20bf92	0.039245196
147	0x3b866308	0.004101161
148	0xbcf87ecb	-0.030333897
149	0xbd62889b	-0.05530606
150	0xbae08f20	-0.0017132498
151	0xbbec1690	-0.007204838
152	0xbcde0988	-0.027104154
153	0x3d18e5fc	0.037328705
154	0xbd377c14	-0.044796064
155	0xbc6c0f54	-0.014407951
156	0x3d1526e8	0.036414057
157	0xbc14cd58	-0.009082161
158	0xbd1afa7e	-0.037836544
159	0xbd332004	-0.043731704
160	0x3d51f01c	0.051254377
161	0xbd2cede4	-0.042219058
162	0x3d1adcc8	0.03780821
163	0xbcfb38d6	-0.03066675
164	0x3b145840	0.002263561
165	0x3d5a85f4	0.053350404
166	0xbd6122f2	-0.054964967
167	0xbd2867ba	-0.041114546
168	0xbc83d97c	-0.016094916
169	0x3ce9a3b8	0.02852045
170	0xbd13f662	-0.03612364
171	0xbcd95c9b	-0.026533416
172	0x3c7897a0	0.015172869
173	0x3c69d7e8	0.0142726675
174	0x3c0f5f40	0.008750737
175	0x3d2d7738	0.042350024
176	0x3d32b006	0.0436249
177	0x3d01fe1e	0.031736486
178	0x3d141c5e	0.036159866
179	0x3cc69cec	0.024244748
180	0xbb47a8a0	-0.0030465499
181	0xbbf83a70	-0.0075753257
182	0x3cfe595c	0.03104847
183	0x3d5f343a	0.054493167
184	0x3c9889dc	0.018620424
185	0xbd5f7fc1	-0.054565195
186	0x3c997e98	0.018737122
187	0x3c78f668	0.015195467
188	0x3cb402d0	0.021973997
189	0xbd57842e	-0.05261629
190	0x3cc12e2c	0.023581587
191	0xbd17c99f	-0.037057515
192	0x3c9947b8	0.018710956
193	0xbd548c5c	-0.05189167
194	0x3d1d9b7e	0.038478367
195	0x3c9cc3b8	0.019136295
196	0x3d5af238	0.053453654
197	0xbd57f4dc	-0.05272375
198	0xbced9456	-0.029001396
199	0x3d0f18cc	0.034935758
200	0x3d3112ba	0.04323075
201	0x3cbafe24	0.022826262
202	0x3c3fa428	0.011696853
203	0xbc82e438	-0.015977964
204	0x3d582ac8	0.052775174
205	0xbcf9c517	-0.030489488
206	0x3c245c00	0.0100317
207	0x3d517884	0.051140323
208	0xbd171154	-0.03688176
209	0xbc919b00	-0.017774105
210	0x3cd34ebc	0.02579438
211	0x3d38879c	0.045051202
212	0x3ba89358	0.005144518
213	0x3cf91230	0.03040418
214	0x3d182514	0.037144735
215	0xbd096666	-0.03354492
216	0xbc31504c	-0.010822367
217	0xbccb7d33	-0.024839973
218	0x3ce898d8	0.028393194
219	0x3d5a2502	0.05325795
220	0x3c772bc0	0.015086114
221	0xbcf91fc3	-0.030410653
222	0x3d3f6f1a	0.046736814
223	0xbcddf4ce	-0.027094271
224	0x3c7269e8	0.014795758
225	0x3d5ffc6c	0.054684088
226	0xbb0f5230	-0.0021869056
227	0xbbbb4cd8	-0.0057159476
228	0x3cc23534	0.02370701
229	0xbd0a6f5c	-0.033797607
230	0xbd0093ca	-0.031390943
231	0x3d5ee596	0.05441817
232	0xbd2c6f54	-0.04209836
233	0xbd3eb45a	-0.046558715
234	0x3bb5f0c0	0.0055523813
235	0xbcb77894	-0.022396363
236	0x3d5bf024	0.053695813
237	0x3c3bd9c0	0.01146549
238	0xbd4d9c70	-0.05019802
239	0x3d589a1a	0.052881338
240	0xbd3d58d5	-0.046227295
241	0x3d4169e8	0.04722014
242	0xbd3158a6	-0.043297432
243	0xbc361fc8	-0.011115976
244	0x3d32263e	0.0434935
245	0x3d3cefbe	0.046127073
246	0xbce1d4a1	-0.02756721
247	0xbd51a662	-0.051184066
248	0xbc29bacc	-0.010359477
249	0x3cc9ca58	0.024632618
250	0xbc61267c	-0.013742086
251	0x3b8f13d0	0.0043663755
252	0xbd508148	-0.050904542
253	0x3cb1fce4	0.021727033
254	0xbcc36530	-0.02385196
255	0x3d1bfeaa	0.038084663

bias f4 [50]
0	0xbcc8f66a	-0.024531562
1	0xbca94d02	-0.020666603
2	0x3d39df6a	0.04537908
3	0x3c524528	0.012833871
4	0xbd1672f8	-0.036730736
5	0x3c2e54b0	0.010640308
6	0x3d1bc570	0.038030088
7	0x3d2f0546	0.04272964
8	0x3d4ea3be	0.050449125
9	0xbc7d1f18	-0.015449308
10	0xbd1a6e22	-0.037702687
11	0xbc8126be	-0.015765544
12	0xbd64573a	-0.05574725
13	0xbd1149c3	-0.035470735
14	0x3d394a10	0.045236647
15	0xbcbc188a	-0.02296092
16	0x3c1a3908	0.009413011
17	0xbcd8c996	-0.026463311
18	0x3c9161a8	0.017746761
19	0x3d45d6a4	0.0483004
20	0xbd31b1ca	-0.043382443
21	0x3d362204	0.044466034
22	0xbcda5131	-0.026650043
23	0x3c767350	0.015042141
24	0x3c297a78	0.01034414
25	0x3d3d5d64	0.046231642
26	0x3c74e900	0.01494813
27	0xbd1483a4	-0.036258355
28	0x3cd3de34	0.02586279
29	0x3d24e386	0.040256046
30	0xbcb52802	-0.022113804
31	0x3ca28708	0.019839779
32	0x3cb9759c	0.022639088
33	0x3d2afc06	0.041744255
34	0x3b9b60d0	0.0047417656
35	0xbd4c87b1	-0.049934093
36	0x3ce2c118	0.027679965
37	0xbd11f982	-0.03563834
38	0x3cbfeab4	0.023427345
39	0xbbd2c690	-0.006432362
40	0xbd22e503	-0.039769184
41	0xbd503063	-0.050827395
42	0xbd51e5fe	-0.05124473
43	0x3c991e10	0.018691093
44	0x3c6525e8	0.013986088
45	0xbd1a283d	-0.03763603
46	0xbd04aabe	-0.032389395
47	0x3d3e82ce	0.046511464
48	0x3d5e1788	0.05422166
49	0x3cb4dc4c	0.022077702

weight f4 [10, 50]
0	0xbc7f0fd0	-0.015567735
1	0x3deedfb2	0.1166376
2	0xbe0cb5bb	-0.137412
3	0x3da0796a	0.07835658
4	0xbe0279bf	-0.12741755
5	0x3dfd49ee	0.123676166
6	0xbd96f2e2	-0.07370545
7	0xbddb0918	-0.10695094
8	0x3d9029e6	0.070392415
9	0x3dfeb1ca	0.12436254
10	0x3c63c400	0.0139017105
11	0x3d19dc20	0.037563443
12	0xba060400	-0.00051122904
13	0x3d06e4b0	0.032932937
14	0xbd2d36b4	-0.042288497
15	0x3e0a99e9	0.13535275
16	0x3d9e0e2e	0.07717548
17	0xbc1537e0	-0.00910756
18	0x3dba4484	0.090950996
19	0x3d56d154	0.052445725
20	0x3cb84470	0.022493571
21	0x3c452760	0.0120333135
22	0x3d00aec4	0.03141667
23	0xbd1771fe	-0.036973946
24	0xbdd5ce66	-0.10439758
25	0x3d86f8e2	0.065904394
26	0xbe023aa6	-0.12717685
27	0x3c81c270	0.015839785
28	0xbddc2872	-0.10749902
29	0x3e0d7865	0.13815458
30	0x3c7b1f30	0.01532726
31	0x3df2a3c2	0.118476406
32	0xbd05a92a	-0.03263203
33	0x3d7f5d7c	0.062345013
34	0x3b79c000	0.0038108826
35	0xbd3b9138	-0.04579279
36	0x3de5e312	0.11224951
37	0xbe0f5952	-0.13998917
38	0x3d16c420	0.036808133
39	0xba9c9d00	-0.0011948645
40	0xbdf4bba7	-0.11949854
41	0xbdb4ce36	-0.08828394
42	0x3db684ae	0.089120254
43	0x3ddffc86	0.10936837
44	0x3df2a062	0.11846997
45	0x3b15df40	0.0022868663
46	0xbe05fbac	-0.13084286
47	0x3c484910	0.012224451
48	0x3d7073d4	0.058704212
49	0xbd385c0e	-0.045009665
50	0xbd44b082	-0.048019893
51	0x3e03dadf	0.12876461
52	0x3e080e31	0.13286664
53	0x3da1faaa	0.079091385
54	0x3d3ad334	0.045611575
55	0xbcd223d8	-0.025651857
56	0xbd3334aa	-0.043751396
57	0x3e0fc7e1	0.14041092
58	0x3de2e32e	0.11078487
59	0xba968180	-0.0011482686
60	0xbbe32460	-0.0069318265
61	0x3db4b5b6	0.08823721
62	0xbdd92d32	-0.106043234
63	0xbd63d1da	-0.055620052
64	0xbe0dba1e	-0.1384053
65	0xbdb59fbf	-0.0886836
66	0x3db2fc5a	0.087395385
67	0x3cc04f00	0.02347517
68	0x3dab1900	0.08354378
69	0xbd935b8c	-0.071951956
70	0x3db0931a	0.086218074
71	0xbde92091	-0.11383165
72	0xbdadc880	-0.08485508
73	0xbd874b91	-0.0660621
74	0xbdb9fe6a	-0.09081729
75	0xbe013c75	-0.12620719
76	0xbd822427	-0.06354552
77	0x3de3699e	0.11104129
78	0xbcc82e68	-0.02443619
79	0xbd06ff7a	-0.032958485
80	0x3dd64536	0.1046242
81	0xbda134b3	-0.0787138
82	0x3db87b80	0.09007931
83	0x3cb5aee0	0.022178113
84	0xbe10621d	-0.14099927
85	0x3d9480e4	0.072511464
86	0xbdab677f	-0.0836935
87	0xbdcf4e0a	-0.10122307
88	0x3ddd5a00	0.10808182
89	0xbdd71990	-0.105029225
90	0x3dec7272	0.11545266
91	0x3e0fe7b7	0.14053236
92	0x3e0baabd	0.1363935
93	0x3daad3ca	0.08341177
94	0x3dcb29e4	0.099200994
95	0x3c0d48f0	0.008623347
96	0x3c268b00	0.010164976
97	0x3d6fc3f4	0.058536485
98	0x3dc5ed86	0.096644446
99	0x3db0e4c8	0.086373866
100	0xbdab6f46	-0.08370833
101	0x3db75032	0.08950843
102	0x3e02350d	0.1271555
103	0xbe060c2a	-0.13090578
104	0x3c1f67a0	0.009729296
105	0x3c3de710	0.011590734
106	0x3e0f78f3	0.14010982
107	0x3dbee37a	0.093207315
108	0xbd22ab2e	-0.03971403
109	0x3dd4b13c	0.10385367
110	0xbe0edd8a	-0.13951698
111	0x3ddafe9e	0.106930956
112	0x3d8186ae	0.06324516
113	0xbdfbc675	-0.12293712
114	0xbdaf2a20	-0.085529566
115	0x3d8fa790	0.07014382
116	0xbe0317c9	-0.12802042
117	0x3b728c80	0.0037010014
118	0x3c8c4ba0	0.017125905
119	0x3de20da2	0.110377565
120	0x3dabe084	0.08392432
121	0x3d9b4a38	0.075825155
122	0xbd250ff6	-0.040298425
123	0x3d9a7c78	0.07543272
124	0x3d990f24	0.07473591
125	0x3da83f86	0.08215241
126	0x3dcc89fa	0.099872544
127	0xbddcfb96	-0.10790174
128	0x3d5f1524	0.05446352
129	0x3dd826de	0.10554288
130	0x3dfc386a	0.12315448
131	0x3c84ea18	0.016224906
132	0xbdb47796	-0.08811872
133	0x3e089033	0.13336258
134	0x3da0e300	0.07855797
135	0x3dfe2106	0.124086425
136	0xbdf0163f	-0.11722993
137	0xbd8c6f93	-0.068572186
138	0x3dff4b9a	0.12465592
139	0x3d91d528	0.071207345
140	0x3d8561e0	0.06512809
141	0xbc774fb0	-0.015094683
142	0x3dad486c	0.08461079
143	0x3cf71d58	0.03016536
144	0x3cc0fc88	0.023557916
145	0x3e02c593	0.12770681
146	0xbc77e810	-0.015131012
147	0x3e073c31	0.13206555
148	0x3dcbbc82	0.099480644
149	0x3d1cfe44	0.038328424
150	0x3b828940	0.0039836466
151	0x3dd54654	0.10413805
152	0xbd60255e	-0.054723136
153	0x3dde96aa	0.10868581
154	0xbd6e1fe8	-0.058135897
155	0x3d854388	0.06507021
156	0x3dce1ff4	0.10064688
157	0xbdc6fd8e	-0.097163305
158	0x3dc14cb4	0.09438458
159	0xbd955168	-0.07290918
160	0xbe04af8f	-0.12957595
161	0xbdb2f486	-0.087380454
162	0x3da2f07a	0.079560235
163	0xbd9eb45a	-0.07749243
164	0x3d8179b2	0.0632204
165	0xbe0375f4	-0.12837964
166	0xbd87c393	-0.066291
167	0x3d9433cc	0.07236442
168	0xbde878e7	-0.11351185
169	0xbd8df3dd	-0.06931279
170	0x3d5b1528	0.053486973
171	0xbdd387b5	-0.103286184
172	0x3d878ec0	0.06619024
173	0xbd27af40	-0.040938616
174	0x3de1723e	0.11008118
175	0xbc517cd0	-0.012786105
176	0xbd8f92ed	-0.07010446
177	0xbd870e3c	-0.06594512
178	0xbd7037a6	-0.05864682
179	0xbc72a940	-0.01481086
180	0x3e066081	0.13122751
181	0xbceaf20c	-0.02867987
182	0xbde30384	-0.11084655
183	0xbd063210	-0.032762587
184	0x3d43d05c	0.04780613
185	0xbdfcda4f	-0.123463266
186	0xbc34ef20	-0.01104334
187	0x3de1c7f6	0.11024468
188	0xbd90f532	-0.07078017
189	0xbe0fb93a	-0.14035502
190	0x3e041331	0.12897946
191	0x3dde2252	0.1084639
192	0xbcbbb93c	-0.022915475
193	0x3ca95f18	0.020675227
194	0x3d810200	0.062992096
195	0xbc4c97c0	-0.012487352
196	0x3da00c1e	0.07814811
197	0xbddb0303	-0.10693934
198	0x3d5ee48c	0.054417178
199	0xbd90251d	-0.07038329
200	0x3d9c13a6	0.07620935
201	0xbce83584	-0.02834583
202	0xbc470270	-0.012146577
203	0xbc5683b0	-0.01309292
204	0xbc38bfb0	-0.011276171
205	0xbd76dc86	-0.0602689
206	0x3d0d0854	0.03443177
207	0xbde52653	-0.111889504
208	0x3d821f80	0.063536644
209	0x3cc0b808	0.023525253
210	0x3d23fe48	0.040037423
211	0x3d8eabbc	0.069663495
212	0xbcd4b31c	-0.025964312
213	0xbdc741ae	-0.09729324
214	0xbd41dd40	-0.04733014
215	0xbc2a22f0	-0.010384306
216	0xbd663f66	-0.056212805
217	0x3c408560	0.011750549
218	0x3c38ffc0	0.011291444
219	0x3c667d60	0.014067978
220	0xbcef9370	-0.029245108
221	0x3c489490	0.012242451
222	0xbdf86968	-0.1212948
223	0x3d303820	0.043022275
224	0xbe0c2780	-0.13686943
225	0x3da7b1ba	0.081881955
226	0x3db7c39c	0.089728564
227	0x3d5dfedc	0.05419813
228	0xbe0067d7	-0.12539612
229	0x3d104690	0.035223544
230	0x3e010d29	0.12602676
231	0x3d9be682	0.07612325
232	0x3c54f930	0.012998864
233	0x3dbf177c	0.09330651
234	0x3d4f6490	0.050633013
235	0x3daa63d4	0.08319822
236	0xbdff48e4	-0.12465075
237	0xbd8f01e8	-0.069827855
238	0xbd6eb3a8	-0.058276802
239	0x3d85ea4a	0.06538828
240	0xbd4c367a	-0.04985664
241	0x3c53ea80	0.012934327
242	0xbe0893ea	-0.13337675
243	0x3d35932c	0.044329807
244	0xbcb1d4a0	-0.021707833
245	0x3ba1f900	0.004943013
246	0x3b1f2700	0.002428472
247	0xbbe9d080	-0.007135451
248	0xbde30fa5	-0.11086968
249	0xbd825d6d	-0.06365476
250	0xbd3e8906	-0.046517394
251	0xbd6dfca0	-0.05810225
252	0x3d172c38	0.036907405
253	0xbd8f4bef	-0.06996905
254	0xbdda67cb	-0.10664328
255	0xbd21bcec	-0.03948681

bias f4 [10]
0	0x3e0a2b1b	0.13493006
1	0xbe101edd	-0.14074273
2	0x3d6f1a44	0.05837466
3	0x3d1ca608	0.038244277
4	0xbc109020	-0.008823425
5	0x3d57e9ac	0.05271308
6	0xbdd66662	-0.10468747
7	0xbbd611c0	-0.0065328777
8	0xbcea7258	-0.028618976
9	0x3de90ffe	0.113800034
