artifact_store/13/56cec8a0d65d42dd9c0cd88a72f00ea0/artifacts/model/data/model.pth (torch_old, 92211 bytes, 8 tensors)

weight f4 [10, 1, 5, 5]
00000000: 0123 f93d 4c1a 0e3e ccc1 013e 25d1 313e
00000010: 925b 10bf 940e 50be 27ed b8be 5345 b83e
00000020: ef92 ac3e d812 bebe 4029 d3bc 98fb e7be
00000030: 12df 913c 74a9 d13e 5a26 a6be 1c08 683e
00000040: 510f 73be 2b5e 30bd 47b7 3f3e 737a 20be
00000050: f09a 5e3e d4d5 69be 352e 083e 12c8 3e3e
00000060: 6dd8 d8bd c365 6ebe d288 173b 31bb 073e
00000070: 2836 983e 6d52 3e3e 73b6 b8be 4c06 52be
00000080: a3e5 d43d ae04 6f3e e226 083e 11b4 b8be
00000090: 3afa 7ebe b7d8 fcbd a598 213d a8c4 e13e
000000a0: f1f4 35be 6ae3 47be abe8 37be 3d30 d03d
000000b0: 6d3b 4c3e a9fc d63d 933a 7d3d dd64 bdbd
000000c0: 6363 5cbc fc58 e4bd f47a 5d3e 9c09 c4be
000000d0: c250 c5ba 30e7 29bd ac95 37be 6279 fa3e
000000e0: 090c 77bd e7a7 44be 28a2 04bd 6b49 84bd
000000f0: 4aa5 593e d89a ff3e ff3a 38be b9d7 0dbe
00000100: 1762 7dbd 7b21 9cbd 6230 983e 53d3 913e
00000110: 7734 d9bd a7f7 6cbe 6ef3 64bc 2281 383d
00000120: a89e dd3e 5f14 723e 11b6 6a3e fe88 79be
00000130: a76d 3abe 3e90 23be f7b6 54bd 02c7 6b3e
00000140: 2058 4fbe 5ddb 93bc 4e7d 0dbc b404 6fbd
00000150: af66 6e3e 8cfb cbbd ee3e 05bc 3eee 123c
00000160: 1c0d 4b3d f12f 623e 2da1 61be c342 643e
00000170: 2fb4 37bd ea34 2c3d 036b d73d 763b 773e
00000180: 9e2a 923d 7386 733e 0b6a a73e 993a bf3d
00000190: 0845 6cbe 42dd c2be 0968 6bbe 134a 803b
000001a0: 75b0 0ebe b3de a4bd cf00 8fbe 68d8 d1be
000001b0: c4f5 acbd 20d3 be3c 5299 c2bd 6559 88be
000001c0: c0a5 4abe bf9d 38be ed39 8dbe 8d95 283e
000001d0: f67d ac3e 6370 8a3c 91f3 86be dd93 1bbe
000001e0: 5182 c0bd 4335 133f 8c2e 233f 0efc 7d3e
000001f0: 63c8 a03d 9b70 a9be d055 8bbe e20a a1be
00000200: d14e 523d c81e b23d e6c1 abbe cc15 6abe
00000210: 6a00 33be 2e68 a3be 8660 f43c 1302 66be
00000220: da1e 2fbe f9f2 84be 0004 84be 1115 94be
00000230: 4f5f 3f3d cd2a 82be f1ba 7dbe 1681 5cbe
00000240: 039b 92be a5f0 093e 80b9 d2bd 6fd4 4ebe
00000250: b61c 9fbe 1629 f1be 584b 013e 603e 62bd
00000260: f3fa 46bd 5fa9 023c a7d6 3dbe 687e ddbe
00000270: e2bb 9ebe ba4b bbbe 614d c1bd 8907 afbd
00000280: 1b3f 1cbe b38b 83bc 42dd 3a3d 9df4 bd3d
00000290: b29a d63d e210 143f b19b 133f 212e d93e
000002a0: 9810 533e 0b73 a13e a77a 51be aa01 abbe
000002b0: 447a 18be 1cc0 c4bd ad35 b0bd ac45 21be
000002c0: 667f c7be 8c1a 9ebd dd22 453e 0266 4f3e
000002d0: 9797 4dbe 40e6 5bbe 7bc8 883e 1f26 493e
000002e0: 45b2 ee3c 4f41 8d3c d8bf b13e 9604 cc3d
000002f0: be54 04be e800 153c a49b b03e ced3 d83d
00000300: 2f8f 9a3c 1fdf fabd 587f 68ba 50ef 633e
00000310: a5ca 003e b6f6 bdbe 05e2 953c 8aa8 46be
00000320: 9605 20be dba1 16be 8d1e e7bd 7540 27be
00000330: e694 0ebe d356 32be 08d8 d0bd 3084 18be
00000340: 7a1e 7dbd d79b 48be db9d cebd 2d94 48be
00000350: d1fa 83bd 07fe 85bd 0d53 2bbe 47a2 2cbe
00000360: 7541 23be caab fdbd e785 1cbe a08a e4bd
00000370: 5e69 41be 8516 44be a460 9cbd e70a 7bbd
00000380: 56d7 95be 37cb e33d 8b0e 873c ea1c 35be
00000390: 6d59 753d 016e 443e 1cad c03d 3f02 7cbe
000003a0: 2d37 4abe b700 c33e d5ac 0ebe 7e60 dbbc
000003b0: 18a1 c8be 63f3 ae3e 5180 923e d130 9fbe
000003c0: ab01 6cbe 5949 d63b d7b4 cd3e f15e a23c
000003d0: 2958 42be 0b41 83bd ca18 a13e 31cb 023e
000003e0: ecab 9cbe ddfd 24be
0.121648796 0.13877219 0.12671584 0.17364939 -0.56389725 -0.20318061 -0.36118433 0.3599039
0.3370585 -0.37123752 -0.025776505 -0.45309138 0.017806564 0.40949595 -0.32451135 0.22659343
-0.23736311 -0.043058556 0.18722259 -0.1567171 0.21738791 -0.22835475 0.13298877 0.18631008
-0.10588155 -0.23281007 0.0023122323 0.13255002 0.29728818 0.1858613 -0.36076698 -0.20510215
0.10395362 0.23341629 0.13296083 -0.3607488 -0.24900141 -0.123460226 0.039452214 0.4409535
-0.17769219 -0.19520345 -0.1795985 0.10165451 0.19944544 0.1049741 0.06182344 -0.09247754
-0.01345143 -0.11149785 0.21628934 -0.3828858 -0.0015053975 -0.041480243 -0.17928189 0.48920733
-0.060314212 -0.19204675 -0.032381207 -0.06459316 0.21254459 0.49922824 -0.17991255 -0.13851823
-0.061861124 -0.076235734 0.29724413 0.2848154 -0.1060571 -0.23141347 -0.013974054 0.045045026
0.43285108 0.23640583 0.22921015 -0.24368665 -0.18205892 -0.15972993 -0.0519323 0.23025134
-0.20248461 -0.018048937 -0.008635832 -0.058354095 0.23281358 -0.09960088 -0.008132679 0.008967934
0.04957305 0.220886 -0.2203414 0.22291093 -0.04484957 0.04204265 0.10518458 0.24143776
0.07137035 0.23781757 0.32698092 0.093373485 -0.23073208 -0.3805943 -0.22988905 0.0039150803
-0.139345 -0.08050289 -0.27930304 -0.40985417 -0.084453136 0.023294032 -0.095019 -0.26630703
-0.19789791 -0.18028925 -0.27583256 0.16463299 0.3368985 0.016899293 -0.263577 -0.15193124
-0.09399856 0.57503146 0.637429 0.24803182 0.07850721 -0.33093724 -0.27213907 -0.31453615
0.051344696 0.08697277 -0.3354637 -0.22859877 -0.17480627 -0.3191542 0.029831182 -0.22461729
-0.17101613 -0.25966623 -0.25784302 -0.28922322 0.046721753 -0.2542328 -0.24778344 -0.21533617
-0.2863389 0.13470705 -0.102892876 -0.20198224 -0.31076592 -0.4710166 0.12626398 -0.055235267
-0.048579168 0.0079749515 -0.18538915 -0.43260503 -0.31002718 -0.36581212 -0.09438587 -0.08546359
-0.15258448 -0.016057825 0.045621164 0.09275172 0.104787245 0.5783826 0.5765944 0.42418006
0.20611799 0.31533083 -0.20456944 -0.33399707 -0.1489039 -0.096069545 -0.08603988 -0.15749234
-0.38964385 -0.07719907 0.1925158 0.20253757 -0.20077358 -0.21474552 0.26715454 0.19643448
0.02913774 0.017243056 0.34716678 0.09961812 -0.12922952 0.009094454 0.34493744 0.105872735
0.018867103 -0.12249588 -0.00088690734 0.22259259 0.12577303 -0.37102288 0.018296251 -0.1940023
-0.15627131 -0.1471018 -0.11285124 -0.16333182 -0.13923988 -0.17415933 -0.10197455 -0.14894176
-0.061796643 -0.19590698 -0.10088702 -0.19587775 -0.06444324 -0.065425925 -0.167309 -0.16858779
-0.15942939 -0.12386282 -0.15285455 -0.11159253 -0.1888785 -0.19149216 -0.0763562 -0.061289694
-0.2926585 0.111227445 0.016486427 -0.17686811 0.059899736 0.19182588 0.09408018 -0.24610232
-0.1974761 0.38086483 -0.13933118 -0.02677941 -0.39185405 0.34170064 0.28613523 -0.3109193
-0.23047511 0.0065395054 0.40177032 0.019820662 -0.18978943 -0.0640889 0.31464225 0.12772824
-0.30599916 -0.16112466

bias f4 [10]
00000000: 6982 69be 3c6b 2bbe b843 f9be 0cf4 be3d
00000010: 057f aabd ed5a 633d 1b1a bdbe 2626 86be
00000020: 7ff8 0ebd 9ad0 b4be
-0.22803654 -0.16740125 -0.48684478 0.09323892 -0.08325008 0.055506635 -0.3693398 -0.2620098
-0.034904953 -0.353154

weight f4 [20, 10, 5, 5]
00000000: 7769 afbc 5850 ed3c 12ef aebc 4d6a 81bd
00000010: e8e8 9bbc 6c1c 01be 998f 55bd 4be4 33bd
00000020: 659f 0bbe ba44 c23b 7442 f5bd 25b9 ccbd
00000030: 3ee8 853d 0301 b4bd 7285 9bbd 1ccd 09be
00000040: 1cf4 86bd 506c 133d 9805 513d 6da9 123d
00000050: 754c 8ebd 4f3c 0fbe 8484 a7bd a298 1ebd
00000060: 000a 843b d692 d83b 26b7 233c 8237 a6bd
00000070: 5915 0abe fe49 6cbe 374b 9d3d 994a 74bc
00000080: dc87 273a ec01 90bc 6388 a0be 3146 0d3c
00000090: 5d06 b23b 4abc 4f3c ad42 84bd a39a 21be
000000a0: c931 5abd 3808 86bd f391 0cbb c32c 903d
000000b0: 6817 a6bd 63a4 97bd 60a5 7dbc c8b1 c53d
000000c0: 8ff4 063e 9547 933d 6486 0c3e 3a31 7e3d
000000d0: eb0b f93d 92fa 103e d48c f33c c41b 3f3b
000000e0: 9b14 36bc b12e bb3d db2f 2e3d c998 64bb
000000f0: 1c55 8abd 29ea a1bd bee3 dd3c 024c 0f3e
00000100: ff9f e43d 7ed6 39be 4872 f1bb a3e8 08be
00000110: 731a c23d d79f 933e d869 65be f1b9 4dbd
00000120: 39cb 21bc 672f 0ebe 4189 823e 7b35 793c
00000130: c339 04bc 3f91 66be 6034 c8bd 253e f83b
00000140: 32e7 debd 7045 71bd 4265 00bd c06b 96bd
00000150: 5389 27bc 51ad 73bd 1b42 53bb a28e 30bd
00000160: 854c 09be 923b 42be 8d1a d1bd 69fc 17be
00000170: 91cc d9bd 4ec4 96bd a725 b4bd 1846 59bd
00000180: 72e0 17be eecc 62be 9d91 87bd 5024 003e
00000190: 8b48 b6bb 44cb 9f3c 83a1 e9bd 034a aa3d
000001a0: 19c4 cb3d d16b c7bb 3103 073e ad83 4d3d
000001b0: 88c3 e83b 45d5 d53d e4f7 cc3d 2aca ca3d
000001c0: 9244 af3d 47b4 e2bd 43ce d3bc a710 133e
000001d0: 6f24 ed3d f744 553e 9c13 abbd 3497 08bd
000001e0: ad9e 983e c29c 003e fd97 f33d 5a7c b93d
000001f0: ea2d c5bd f5d8 62bd c351 c1bd 2807 9dbd
00000200: ff02 553c bb55 7c3c 8acc 893b b98c f4bc
00000210: e9cc 8d3b 248a 543d 9724 46bb 5a0c 203d
00000220: 0723 7c3c 6c93 193e 7621 3b3d 2463 a63d
00000230: ddc2 543d 50be b73c 02c6 d03d 1993 3e3d
00000240: c574 273c 7d98 f53d 8b9e 143b 4e86 f73d
00000250: 543f ce3c cda8 77bd 7e9a 8fbc 5138 b23b
00000260: fc61 ccbb deef dabc 5efd 643e 2c68 79bc
00000270: cfee 133c 477a c3bc 353e ec3d 879f a03d
00000280: 644b 37bc 9e51 1d3d e06e eb3d 6d60 9d3c
00000290: 161f 1f3c 50a0 db3d ca17 263e 256a 123e
000002a0: e119 8ebd fe88 f4bc b181 e03d 22dc 013d
000002b0: 13c3 a33d 37c0 3d3d 4937 193d 4979 53bd
000002c0: 8b6e e3bc 1b9f a9bc 6ec0 c13d 6902 97bc
000002d0: 9947 cfbd 9886 373d 0e91 4f3d 0c31 3d3d
000002e0: af2b ddbd 289d 19be d00f b43d 1bb4 b9bc
000002f0: 7d2e 103d 40c5 5fbd a806 afbd 2235 c93c
00000300: 545c 283c 3bea 69bd b53b 3d3d 3b8e 1cbe
00000310: 6e5a d63d 6665 103e 29c2 9abc 14cf 623c
00000320: a05b 5e3c 13ab 90bd 3950 863b 6804 233c
00000330: 4ea7 013d 7097 2c3d dacb 683b 6432 48bd
00000340: fad1 6cbd f723 4dbd 70b6 8fbb efcf b1bb
00000350: e26a 403c e230 d93b c23b ecbc ba24 e0bc
00000360: d42b 6d3c dd73 e3bc 03a0 333d 280f 653b
00000370: f057 ea3b cf13 41bd 7eac 4cbc e0c5 293d
00000380: 5529 4dbc 8f4d 10be 5051 bbbb 1040 b3bd
00000390: fd0a 70bd e9c0 ccbd 8fa7 c83b d502 b1bb
000003a0: 29a1 6ebd d21e 20bd 9d6d 0bbe 6c8a 9bbd
000003b0: 5499 dfbd e821 f8bd a44e 02be 6532 c6bd
000003c0: 1b0b 9ebd 89f8 32be aa47 f2bd 210b acbd
000003d0: 1569 9bbd bdf4 f6bd 4ce1 85bd 3e39 54bd
000003e0: dcb2 29be 51cf 9a3b 07b0 36bd 65c1 d2bd
000003f0: 0a89 8d3d e12c 713d b0ad 00bc 9956 f6bb
-0.021412594 0.028968975 -0.021354232 -0.063191034 -0.019031957 -0.12608498 -0.0521389 -0.04391889
-0.13635023 0.005928603 -0.119755656 -0.09996251 0.06538437 -0.087892555 -0.07593812 -0.1345715
-0.06589529 0.035991967 0.051030725 0.03580611 -0.06948177 -0.1398785 -0.08179572 -0.03871978
0.0040295124 0.006609301 0.009992396 -0.08116056 -0.13484706 -0.23075101 0.07680362 -0.014910364
0.0006390789 -0.017579041 -0.31354055 0.008622692 0.0054328875 0.012679169 -0.0645803 -0.15781645
-0.053270135 -0.06544536 -0.0021449297 0.070397876 -0.08109933 -0.07404401 -0.015481323 0.0965305
0.13179229 0.071913876 0.13723141 0.062058665 0.12160476 0.14158085 0.029730238 0.0029160837
-0.011113311 0.09139765 0.042526107 -0.0034881106 -0.067545146 -0.07905991 0.027086135 0.13993838
0.11163329 -0.18148229 -0.0073683597 -0.13369994 0.09477701 0.28832886 -0.22403657 -0.050226156
-0.009875112 -0.1388527 0.2549534 0.015210505 -0.008070412 -0.22516344 -0.09775615 0.0075757676
-0.10883941 -0.05890411 -0.031346567 -0.073447704 -0.010225612 -0.05949146 -0.0032235447 -0.043104775
-0.13408096 -0.18968037 -0.10210142 -0.1484238 -0.10634721 -0.07361661 -0.08796244 -0.053045362
-0.14831713 -0.22148487 -0.066195704 0.12513852 -0.005562847 0.019506104 -0.11407759 0.08314898
0.09949512 -0.0060858508 0.13184811 0.050174404 0.0071033873 0.104410686 0.10008219 0.09901841
0.085580006 -0.110695414 -0.02585519 0.14361821 0.11579215 0.20827089 -0.083533496 -0.033347324
0.2980856 0.12559798 0.11894224 0.09056921 -0.09627898 -0.055382688 -0.09439423 -0.076673806
0.013001203 0.015401299 0.004205291 -0.029852258 0.0043274057 0.051889554 -0.0030234212 0.03907428
0.015389211 0.14997643 0.045686208 0.08124378 0.05194365 0.022429615 0.10194017 0.046527002
0.010220711 0.119919755 0.0022677507 0.120861635 0.025176682 -0.060463715 -0.017529722 0.0054388423
-0.0062372666 -0.026725706 0.22362277 -0.01522259 0.009029104 -0.023862017 0.115353025 0.078429274
-0.011187408 0.038407914 0.11495757 0.019211018 0.009712001 0.107239366 0.16220012 0.14298303
-0.0693853 -0.02985048 0.10962237 0.031704076 0.07996192 0.04632589 0.03740624 -0.05162934
-0.027762672 -0.02070575 0.09460531 -0.018433766 -0.10121078 0.044806093 0.050675444 0.046189353
-0.107993476 -0.15001357 0.087920785 -0.022668889 0.035200585 -0.05463147 -0.085461915 0.024561469
0.010275919 -0.057108145 0.04619952 -0.15288632 0.10466467 0.1410118 -0.01889141 0.013843317
0.01357165 -0.0706388 0.0040989188 0.009949781 0.031653695 0.04213661 0.0035521896 -0.04887618
-0.057817437 -0.050083127 -0.004385762 -0.005426399 0.011744233 0.0066281417 -0.028837088 -0.027361263
0.0144757815 -0.027765209 0.04385377 0.003495166 0.0071515962 -0.04713803 -0.012492297 0.041448474
-0.012522061 -0.14092086 -0.0057164803 -0.08752453 -0.05860423 -0.09997732 0.00612349 -0.005401949
-0.058259163 -0.039091893 -0.13616033 -0.07594761 -0.10917917 -0.12115842 -0.12725312 -0.09677581
-0.07716962 -0.17477621 -0.11830075 -0.0840056 -0.07588402 -0.12058399 -0.065371126 -0.051812403
-0.16572136 0.004724421 -0.044601467 -0.10290793 0.06910904 0.05888069 -0.00785391 -0.0075176475

bias f4 [20]
00000000: f17f a3bd 5444 bc3c d99d a4bc df0a 53bd
00000010: 5a8d 5abd 3793 cdbc fd15 6cbd 3749 843c
00000020: 32cc f93c 07ed abbd 8a33 60bd 0fef 85bc
00000030: 762f a0bd caea cfbd 45b6 3a3d f9c0 05bd
00000040: 4eb5 ffbd f273 f8bc e881 79bd edde 76bd
-0.07983387 0.0229818 -0.020094799 -0.05152404 -0.05335746 -0.025094612 -0.057638157 0.016148193
0.030492876 -0.08394819 -0.05473665 -0.016349344 -0.078215525 -0.10152204 0.045583982 -0.032654736
-0.12485753 -0.030328725 -0.060914904 -0.060271192

weight f4 [50, 320]
00000000: 823e 1f3d 3bd2 d8bc 7522 07be 3a43 babd
00000010: 9b5b c73d 5f50 e7bc f597 203d dba6 15be
00000020: e9ca 583e ae9b 8c3d c495 c6bc c309 15bd
00000030: 9448 db3d 711a 47bc 137e 753d f17c a63d
00000040: 5ae5 253a 89dd 95bd d2d9 1fbb 0bc2 80bd
00000050: f531 da3c 2001 acbb 5e2b 823d 997f 64bc
00000060: 0b98 8abd ac0a 3abc e88c 443d 38d5 f03d
00000070: 8a63 4fbd b696 b0bc eca5 a7bd b9d1 933c
00000080: 2206 35bd 10ea 6b3d e696 bbbc a775 bc3d
00000090: 95db 8cbd aa68 f33d 681e 773b 7065 843d
000000a0: 9698 f93c fb79 493d 0e10 14bd 4ddc 05bc
000000b0: d761 8ebd b7f3 06bd f24d b4bc 825b 91bd
000000c0: 1035 afbd e4ad 8d3d fcf1 b73c 1763 50bd
000000d0: 52ca 25be d9a8 24be 86b5 98bd 14b9 193d
000000e0: b7a0 6bbd e833 b5bd 4aba 66bc e0c4 72bd
000000f0: c842 9d3d 9e1c 393d 50af d4bb b254 0a3e
00000100: 333a 43bd 0048 1bbd ce7a c0bc 1ab7 bf3d
00000110: 7450 91bd e4f0 b6bd 5c7d 113d 91a9 9abc
00000120: f424 57bd 64e1 00bd 46ac 893d a175 d0bc
00000130: b0f2 f73d 5407 6fbb 5580 10bd 32c8 793c
00000140: 8789 bb3b f0d4 633b 4593 f5bd 8e78 953d
00000150: bc10 38bd 327b 9e3c bc2b 9abc 0cb7 a43c
00000160: d634 903d 461e fdbc f394 b2bc e3e1 6ebc
00000170: 882d febc 8127 7dbb aa6d aabc cfde 46bd
00000180: 1e0e 563d c9ab 37bd 933b 903d 6c60 2d3d
00000190: 54f6 82bd cb30 29bd 4874 d63d cd9a 123c
000001a0: a4dd 01be 3c9d 08be ed98 6d3d 3302 783c
000001b0: 60f3 f1bc 7977 79bc c763 5c3d 5b8a a53d
000001c0: fb3e e0bd 9797 39be 002a 483c a46c 43bd
000001d0: 7ebb 5bbe 3067 31bd 73ee 1c3d 842c 93bb
000001e0: 8f34 f73d 0e6e 523d a8ad 183c 31ab a9ba
000001f0: 80f8 003e e681 b3bd e9c5 4dbc 6df1 98bc
00000200: 86ab ddbc ea4d b83d ddc9 cbbc f9e5 c13c
00000210: ca2c e9bc 10fe ad3d 769e 9abc f1d9 5e3d
00000220: 2151 77bb 50fc e93d db50 aebc b831 273d
00000230: 793b b2bd 387b cd3d 5eb0 303a ae12 acbc
00000240: fad9 11bc a46f b2bd 8ff4 8b3a 62a8 b33c
00000250: bdd0 5cbd 17f4 5abd 3974 10bd 4ccc 5e3c
00000260: 0083 16be 7e0e babd f2bb 43bd 0c2d 523c
00000270: c4b3 e93d c1ee 0b3d 3a52 c83d b945 8f3c
00000280: 5bad a0bd f404 be3d 5b62 f9bd 83ac 703d
00000290: 2657 1cbd 5b29 553b ca06 81bd 66ad b73d
000002a0: 6474 af3c 8704 81bd a321 ce3d 9191 c13c
000002b0: 3b14 bf3d 59d9 8c3c 4d96 653d c4fb 46be
000002c0: 90b6 50bd 5f78 9f3c b501 6b3c 29ef 5ebd
000002d0: d712 663c 42ca ebbb 25ed 1ebd e052 763c
000002e0: 263e 9abc 8cbb 6bbc edc4 873d 4321 ae3d
000002f0: fd79 7d3d 572d bd3a 4bf5 bb3c db51 883d
00000300: 469e dd3d ef83 b6bc 9ae1 3bbd d338 b73c
00000310: 6cea ec3d 15ee 39bd 92ed 1a3c 5a32 abbd
00000320: 1bd0 05bc c7b4 e6bd ccc9 8fbd f473 9abd
00000330: 5dac 86bc c730 973d dc81 933d 46dd ad3c
00000340: 3c1d 58bd 2fbe b8bd 2da0 0c3c 5108 253d
00000350: e3aa 4fbd 8c1e a6bc 3a8c a53d 0a6a 69bb
00000360: 1b5b 77bc a880 953c c8e5 8b3d f7c2 98bc
00000370: 0a59 033e 59fe 703b a8a3 2fbc 637d a13d
00000380: 3c52 09bd 8fec b5bc ec89 9e3d ec4f e9bd
00000390: f0b1 38bd c534 d53d cc72 9dba cb09 cabd
000003a0: 95f2 763d 12dc ec3d b87d 123d a61d c9bb
000003b0: f8b2 533d 355e 7f3e 5830 54bd 6627 533d
000003c0: a048 abbd 7c74 323c 386a 4a3d 74c0 2cbc
000003d0: 9fec 8cbd bda9 633d cc4e d83a cfc4 a93c
000003e0: 0ca2 56bd 8a63 a03d 1030 943c bcd5 8c3d
000003f0: c81f 61bd f06a 77bc fcc3 4abd a4ff a53d
0.03887797 -0.026467433 -0.13196738 -0.09094854 0.09734269 -0.028236566 0.039207418 -0.14614432
0.21171154 0.06865631 -0.024241336 -0.036386263 0.107072026 -0.0121523 0.059934687 0.081292994
0.00063284265 -0.07317645 -0.0024391306 -0.06287011 0.02663515 -0.0052491575 0.06355928 -0.013946437
-0.06767281 -0.011355083 0.04798594 0.11759418 -0.050632037 -0.02155624 -0.08185944 0.01804434
-0.0441953 0.057596266 -0.022899102 0.09202128 -0.068778194 0.118851975 0.0037707333 0.0646466
0.030468266 0.049188595 -0.036148123 -0.0081702 -0.06952255 -0.03294727 -0.022009823 -0.07097532
-0.08555043 0.06917933 0.022454254 -0.05087575 -0.1619046 -0.16080035 -0.07456498 0.03753002
-0.057526316 -0.08847791 -0.014082501 -0.059269786 0.07678753 0.045193307 -0.0064906254 0.13508871
-0.047662925 -0.03791046 -0.023496058 0.09361096 -0.07095423 -0.08932665 0.035519943 -0.018879684
-0.052525476 -0.03146495 0.06722312 -0.025446715 0.12106836 -0.0036472874 -0.035278637 0.015245484
0.0057231816 0.0034764372 -0.1199098 0.072983846 -0.044937834 0.019345853 -0.018819682 0.020106815
0.07041328 -0.030898225 -0.02179954 -0.014580223 -0.03102757 -0.0038628282 -0.020804245 -0.04855233
0.052259557 -0.04484156 0.07042613 0.042328283 -0.063946396 -0.0413063 0.10471398 0.00894804
-0.12682205 -0.1334123 0.05800717 0.015137243 -0.029534996 -0.015226238 0.053806093 0.0808303
-0.109495126 -0.18124233 0.012217045 -0.04771103 -0.21458241 -0.043311298 0.03831334 -0.0044913907
0.12070572 0.051374488 0.009318747 -0.0012944696 0.12594795 -0.087650105 -0.0125593925 -0.018669808
-0.027059328 0.08999236 -0.02487653 0.02366923 -0.02846374 0.08495724 -0.018874388 0.054407064
-0.0037737566 0.11425078 -0.02127879 0.0408189 -0.0870275 0.10033268 0.0006740148 -0.021005
-0.008902067 -0.087127 0.0010677743 0.021930877 -0.053910006 -0.05345544 -0.03526709 0.013598513
-0.1469841 -0.090847954 -0.04778666 0.012828123 0.11411241 0.03416324 0.097813085 0.017489301
-0.07845565 0.092782885 -0.12176963 0.05875827 -0.03816905 0.003252587 -0.06300123 0.0896862
0.021417804 -0.06299692 0.100650094 0.023628982 0.093300305 0.017193483 0.05605154 -0.19431978
-0.050955355 0.019466577 0.014343669 -0.0544273 0.014042578 -0.007195742 -0.038800377 0.015034407
-0.018828463 -0.014387976 0.066293575 0.08502438 0.061883915 0.0014433068 0.022944113 0.06656238
0.10821204 -0.022279708 -0.045869447 0.022365963 0.1156815 -0.04539307 0.009456055 -0.08359213
-0.008167292 -0.11264949 -0.070209116 -0.075416476 -0.016439611 0.073823504 0.07202503 0.021223675
-0.052762255 -0.0902065 0.008583111 0.040291134 -0.05070008 -0.020278238 0.08083387 -0.0035616183
-0.015097405 0.018249825 0.06830937 -0.018647654 0.12826934 0.0036772697 -0.010720171 0.07885244
-0.03352569 -0.022207526 0.0774115 -0.11392197 -0.04509157 0.104104556 -0.0012012362 -0.09865149
0.060289938 0.115654126 0.035764426 -0.0061375676 0.05168435 0.24938281 -0.051803917 0.051551245
-0.083634615 0.01089203 0.049417704 -0.010543931 -0.068810694 0.055581797 0.0016502975 0.020723728
-0.052400634 0.078314856 0.018089324 0.06876704 -0.05496195 -0.0151011795 -0.04950331 0.081054

bias f4 [50]
00000000: f2d2 6c3e f36b 5a3e e612 c53d bb3f f23d
00000010: ce8f 753d 5950 273d af90 8d3c c8c9 123e
00000020: 4e36 f03d 79c3 c13d 9965 c63d cd88 b73c
00000030: fc72 423e a3c5 0b3e d765 443d 9653 be3c
00000040: 4532 3c3e 39b4 523e 0ec2 7b3d e8cd 163e
00000050: 012d 6d3e 20cd c03d bdad 633e 8421 103e
00000060: e14b 2f3c 9ff0 543e 394d d83d 59ff 253d
00000070: 3bc5 1f3e 4db5 d53d a2ea bf3d f4d2 a43d
00000080: 4520 163d 6e89 9fbc 7ea3 423e 63a3 583d
00000090: e0e0 323e 8f48 1a3e ef80 c43d a921 303e
000000a0: 56a7 583d 860d 463d ac74 1a3e c082 273d
000000b0: 459d 0c3e 0412 223e e4f3 023e bd21 a23d
000000c0: fbb0 5cbc bdc2 6c3e
0.23127344 0.21330242 0.09622745 0.11828562 0.059951596 0.04084811 0.017280905 0.14334786
0.11729108 0.094611116 0.09687347 0.022404099 0.18989176 0.13649611 0.047948685 0.023233216
0.18378551 0.20576562 0.06146436 0.14726985 0.23161699 0.094141245 0.22234245 0.14075285
0.010699243 0.20794915 0.10561604 0.04052672 0.15602581 0.10434971 0.093709245 0.080480486
0.03665187 -0.019474711 0.1900768 0.052890193 0.17468596 0.15066741 0.09594905 0.1720034
0.05289396 0.04835274 0.1508357 0.040896177 0.13731869 0.15827185 0.1278835 0.07916591
-0.01346993 0.23121162

weight f4 [10, 50]
00000000: 443c bebe 0b88 afbe d6af b33c 96ab f9be
00000010: 00c0 b83a c043 863c 6df6 97be 178d 94b9
00000020: e148 8fbb f5fc 0dbb 05ac d7be 6f1b bebe
00000030: af8c c6be 8453 703b 357b 96be 1c5b d33c
00000040: 9fc7 b3be a7da 07bc 2f56 f7ba ea6a cb3c
00000050: 74d6 89be f78c 6abb 5576 a0be c343 b3be
00000060: daa8 8b3c 3258 e9be 5982 7fbe 0920 6bbe
00000070: c444 2c3c 2a72 5b3c 3b87 b2be 6a08 bc3c
00000080: f81c 93be 6515 ee3a 6982 b2be 8ee1 6a3c
00000090: 5724 813a 3430 6fbe 3982 88be e916 91be
000000a0: bc45 e33b adb2 c9be 2477 00bf 4ecb a2be
000000b0: 5962 4539 1a27 a5bb ca10 a5be 5e7f c9be
000000c0: 49b4 553a f322 edbe 373e 77bb 084d ca3b
000000d0: 0e6e 9e3d a806 a63c b3ab 5e3d 8e8c 7cbe
000000e0: e7c9 843c ae91 b9be 4194 cfbe 87ae a0be
000000f0: 2276 34bb ff2d 1d3b 18e2 a8be e81a 9a3c
00000100: 6b10 bfbe e5a5 453b 79a0 d03b f8ab e3be
00000110: e2e9 b1be c046 87be c6e0 adbe ed7e 80be
00000120: 055d 8dbe daa1 3fbc a793 8dbe f1a0 42be
00000130: c421 5cbc d5b3 983b 7419 e2be 00dc 1dbe
00000140: 0c74 0a3b 6505 cebe f026 973c 4ea8 81be
00000150: 4df9 ef3c e523 e7ba a262 e2be 292c 9abe
00000160: 3f6d 963c 2354 b3be f318 65be eedd ccbe
00000170: acf6 603c 6754 413c 354d 2b3c 5bd7 b0be
00000180: e7f4 82be 1560 98be df02 503c 49fc 003c
00000190: 26b9 953c dd8a 2cbc 7f4d d6be a749 9cbe
000001a0: 2a99 04bf f51a 66be d46d 9c3c 06f5 fabe
000001b0: 6132 f13c d339 373d b01f 883c a853 bcbe
000001c0: 6e0a 6dbe fc38 e5bb 4146 073c af4b cebe
000001d0: 71dd 5d3c 4a17 b9be 03a8 193c 0b8d c73b
000001e0: 9bf6 2c3d 1154 a9be e971 1ebc b131 ef3c
000001f0: 6e01 debe 0d40 ba3c 3882 c0be 2928 86be
00000200: 5e94 a03a 1ad9 a3be d53e ee3b 179b 99be
00000210: 833c e2be 5e08 05bf 4b15 b0bc 601e c4be
00000220: 5099 06bf 5bbe 7f3c 6dc6 613c f07e db3c
00000230: edb1 bebe 693f 3b3c 833c 623b 2abe cfbe
00000240: 6b55 ce3b 20c3 fbbe 62ef 283c c7d3 863c
00000250: cfb5 d7be fe9d a73c 2662 ab3c 0d79 d33c
00000260: fe24 dcba cb4c 8dbb 0133 09bf d951 93be
00000270: e24f b6be b666 b9ba d5bb e5be 0ec1 793b
00000280: f0fa 0ebf b6ff 223c 0927 7bbb b251 d1be
00000290: 795c bfbe a086 d8be 5956 1d3c 42c4 063b
000002a0: 8577 a63c 0ce4 b5be 5c30 c93c 71c3 da3c
000002b0: d5c8 7a3c 11c4 96bc 4f61 e5be dc97 de3b
000002c0: 7521 c9be 1dd8 bfbd f1aa 433b daa3 cbbe
000002d0: 7fd5 d9be 12ba 18bc bf50 cdbe 625c e2be
000002e0: 03e2 a43b 096c c4be b824 163a 027f a0b9
000002f0: 01d4 8abe 6c9c 4dbe b7f9 d0be c701 acbe
00000300: 386c 8ebe 2879 95be e2ac acbc 47db 263c
00000310: f4a5 cdbe 5772 c9bc bba3 08bf 0ba8 99bc
00000320: 9d7f 00bf 887a e3be 1775 a5be 7e43 38be
00000330: 7527 8fbe d93d d3ba e4ab a6be 4e61 29be
00000340: e715 83be 037c 073d 83dd a23b a641 853c
00000350: f967 a4be b135 cf3c 069e efbe 0da1 67bc
00000360: a4a1 bf3c c763 c3be 810e b2be 0b06 ab3b
00000370: 5880 e7be 3514 613c 541c 26bd a99d d5bd
00000380: e88d debe 363e 0cbe 192f d2be fa91 2ebe
00000390: 5645 77bd 0806 563c da38 d6be 2b4f 163d
000003a0: b882 d4be 8fe9 1abe 2da3 2f3c 9a17 0abc
000003b0: cc72 33be d136 57bc 7042 903c 93a7 d03c
000003c0: a18f cc3a 10ca fabe 3d42 c53c fb9e d73c
000003d0: 3623 9fba 1cb0 303c 90d4 9e3c 14b9 d8be
000003e0: 295f 1fbd 0260 c6be e0b4 82be c487 9abe
000003f0: e701 f1bb ead7 953c 5f54 633c d67f d4be
-0.37155354 -0.3428348 0.021934431 -0.48763722 0.0014095306 0.016389728 -0.29680195 -0.0002833388
-0.0043727015 -0.0021665667 -0.42123428 -0.37130305 -0.38779208 0.0036670873 -0.29390875 0.02580028
-0.35113236 -0.008291877 -0.0018870289 0.024831254 -0.26921427 -0.0035789588 -0.3134028 -0.35012636
0.017048288 -0.455751 -0.24952067 -0.22961439 0.010514442 0.013393918 -0.34868798 0.02295323
-0.2873304 0.0018164335 -0.3486512 0.014336003 0.0009852749 -0.23358232 -0.26661852 -0.28337792
0.006935803 -0.3939413 -0.50181794 -0.31795734 0.00018824021 -0.0050400617 -0.32239372 -0.39354986
0.000815217 -0.46315727 -0.0037726292 0.0061737336 0.07735835 0.020266846 0.054362964 -0.24662992
0.016209556 -0.36243957 -0.40542796 -0.31383154 -0.0027536233 0.0023983715 -0.32984996 0.018811658
-0.37317213 0.0030158695 0.006366786 -0.4446714 -0.3474875 -0.26421165 -0.3396055 -0.25096837
-0.2761003 -0.011696303 -0.27651712 -0.19006707 -0.013435785 0.0046601095 -0.44160044 -0.15415955
0.0021126298 -0.4023849 0.018451184 -0.2532372 0.02929368 -0.0017634599 -0.44215876 -0.30111817
0.01836264 -0.3502513 -0.22372799 -0.4001307 0.013730686 0.011799908 0.010455419 -0.34539303
-0.2557747 -0.29760805 0.012695997 0.0078726495 0.018276762 -0.010531154 -0.41856 -0.30524942
-0.5179621 -0.22471221 0.019095339 -0.49015063 0.029442968 0.04473288 0.016616672 -0.36782575
-0.2314851 -0.0069953185 0.008256496 -0.40292117 0.013541565 -0.3615058 0.009378436 0.0060898117
0.04222737 -0.3307195 -0.009670713 0.0291985 -0.43360466 0.02273562 -0.3759935 -0.26202515
0.0012251248 -0.32001573 0.0072706738 -0.30001137 -0.44186792 -0.5196589 -0.021494528 -0.38304424
-0.52577686 0.015609349 0.013780219 0.026793927 -0.37245122 0.011428692 0.003452093 -0.4057477
0.0062968037 -0.49172306 0.01031098 0.016458405 -0.42130896 0.020461079 0.020920824 0.025814557
-0.0016795692 -0.004312133 -0.5359345 -0.28773382 -0.3560782 -0.001414499 -0.44869867 0.0038109454
-0.5585165 0.009948662 -0.0038322827 -0.4088264 -0.3737524 -0.4229021 0.009603106 0.0020563756
0.020320663 -0.35525548 0.024559192 0.026704522 0.015306671 -0.018404039 -0.44800803 0.0067930054
-0.39283338 -0.09367392 0.0029856528 -0.39773446 -0.42545697 -0.009321706 -0.40100667 -0.44211107
0.0050318255 -0.38363674 0.00057275174 -0.00030612206 -0.2711487 -0.20079201 -0.40815517 -0.33595106
-0.2781694 -0.29193997 -0.02107853 0.010184116 -0.40165675 -0.024590654 -0.5337483 -0.018756887
-0.5019472 -0.4442942 -0.32315895 -0.17994496 -0.2795979 -0.0016116454 -0.32553017 -0.16541025
-0.25602648 0.03307725 0.004970254 0.016266655 -0.32110575 0.025294157 -0.4680025 -0.014137519
0.023392506 -0.38162062 -0.3477669 0.0052192262 -0.45215106 0.013737728 -0.04055436 -0.10430462
-0.4346764 -0.13695607 -0.41051558 -0.17047873 -0.06036886 0.013062961 -0.4184025 0.036696594
-0.4150598 -0.15128158 0.0107200565 -0.008428479 -0.1752426 -0.013135628 0.017609805 0.02547053
0.001560677 -0.48982286 0.024079436 0.026320925 -0.0012141231 0.010784175 0.019388467 -0.42328703
-0.03890911 -0.38745123 -0.25528622 -0.30181706 -0.007354963 0.018291432 0.013875096 -0.4150378

bias f4 [10]
00000000: 06f0 983d 2089 473c 5cfb a2bd c019 383c
00000010: f858 c7bd 0f64 023e 8d3d 9abd 2472 543d
00000020: 26e9 70bd 585a f5bd
0.07467656 0.012178689 -0.07958099 0.011236608 -0.09733766 0.12733482 -0.07531271 0.051866665
-0.058816098 -0.11980122
