artifact_store/13/08e2ec5fefcd48a0a130dbdbf31b3464/artifacts/model/data/model.pth (torch_old, 92235 bytes, 8 tensors)

weight f4 [10, 1, 5, 5]
-0.1139413 -0.20664231 -0.15346107 -0.009949081 -0.037005354 0.11306559 -0.23098058 0.0684872
-0.16123518 -0.36240852 -0.094512336 0.04633897 -0.27710614 -0.35330188 -0.33952153 0.28341198
0.20566638 0.03639543 -0.23911192 -0.12729023 0.38853195 0.43161437 0.35659486 0.18609843
0.04111741 -0.05770373 -0.24453694 -0.15409864 0.10575355 0.15707232 -0.27575743 -0.34110835
0.1284613 0.21671325 0.2707958 -0.31130672 -0.12929876 -0.08275462 -0.048973463 -0.09657018
-0.089485355 -0.07860504 -0.043567546 -0.047947492 -0.22324166 0.06214906 -0.11159457 0.048807535
-0.1486171 -0.2808353 0.38883004 0.1497236 -0.06407307 0.12566863 -0.3062086 0.30822107
0.09684015 -0.10017243 -0.025988637 -0.36188495 0.12114134 -0.10012356 -0.2538953 -0.20733391
-0.31791028 -0.23044716 -0.28118458 -0.23846069 -0.36660942 -0.19652534 -0.2959386 -0.35784113
-0.3849315 -0.23318474 0.017680878 0.23078752 0.009639546 -0.24548309 -0.27359262 0.31397346
0.27643096 -0.26352665 -0.3650516 0.17436166 0.28560817 -0.07223026 -0.1959524 -0.08621329
0.13735248 -0.022634927 -0.2641287 0.05406866 0.18877979 0.07982552 -0.0070113554 0.16381541
-0.020698478 -0.047942407 0.063485615 -0.02190857 0.13646996 0.021741718 0.17689073 0.1704855
0.11132155 -0.026495844 -0.018919572 0.17724851 0.31200254 0.26952773 -0.3178342 -0.13480482
-0.28464156 0.3173771 0.37215814 -0.23244326 -0.08874297 -0.26280603 -0.03623717 0.18623984
-0.17616317 -0.30959028 -0.29105654 -0.15422292 -0.079655945 -0.24434024 -0.2544529 -0.35654983
0.08536715 0.3617715 -0.34743822 -0.27253455 -0.0912196 0.33651346 0.35015246 -0.2532796
-0.2199046 -0.06531094 0.39092532 0.15040089 0.021041011 -0.0017004927 0.28664586 0.20456909
-0.07637121 -0.0030540475 0.16538353 0.27704704 -0.0035932276 -0.18861265 -0.28974307 -0.37563628
-0.2013428 -0.0945577 0.0673099 -0.15287894 0.044998534 0.25053903 0.05864084 0.11593425
0.46251538 0.5359109 0.36193305 0.04859974 0.09861978 0.30947724 0.09230676 -0.16189678
-0.0367178 -0.27470562 -0.3651926 -0.3724103 -0.35364425 -0.0069631287 -0.09756928 -0.37680683
-0.3671922 0.07934195 -0.03639904 0.22656958 -0.025792813 -0.2670517 -0.09897179 0.122102894
0.13484569 0.21154252 -0.16520004 -0.17371769 -0.11193095 0.04410223 0.33456787 0.26072505
-0.21313936 -0.16919692 0.21235998 0.19715703 0.25462347 0.27016532 0.17134932 0.21435378
-0.22519033 0.07622537 0.10545831 -0.108883746 -0.15668257 -0.007687917 -0.115084946 -0.048292734
-0.14842229 -0.25039384 0.012137172 0.16418724 0.12790066 0.05420541 0.08002631 -0.0061110985
-0.13286756 0.10221924 0.025399344 -0.21046464 -0.21764892 0.042174865 0.07045878 -0.19199033
-0.13785154 0.43954957 0.18019491 -0.23399661 -0.2564923 0.077723525 0.3897165 -0.07494267
-0.0016789832 0.013271419 -0.23909378 0.2213105 0.25163785 0.0989309 -0.14073673 -0.29640368
0.07103315 0.24722841 0.25450012 -0.27029783 -0.36783856 0.12711163 0.23684548 0.19451655
-0.101940535 -0.2600638
00000000: 0e5a e9bd 0b9a 53be e624 1dbe 7801 23bc
00000010: ed92 17bd ef8e e73d 2c86 6cbe 0443 8c3d
00000020: d61a 25be 9c8d b9be af8f c1bd efcd 3d3d
00000030: dbe0 8dbe fce3 b4be c4d5 adbe 601b 913e
00000040: 359a 523e 6013 153d c1d9 74be 5f58 02be
00000050: a9ed c63e 8ffc dc3e 9a93 b63e 9690 3e3e
00000060: bb6a 283d bf5a 6cbd e467 7abe 09cc 1dbe
00000070: 5195 d83d 91d7 203e 1430 8dbe c1a5 aebe
00000080: 5c8b 033e 14ea 5d3e bfa5 8a3e 9863 9fbe
00000090: e566 04be 417b a9bd 6698 48bd 96c6 c5bd
000000a0: 1944 b7bd aefb a0bd e273 32bd 9764 44bd
000000b0: 7699 64be 0390 7e3d b28b e4bd 69ea 473d
000000c0: 152f 18be a5c9 8fbe bb14 c73e 2551 193e
000000d0: be38 83bd 47af 003e 60c7 9cbe 27cf 9d3e
000000e0: 2154 c63d 3427 cdbd 1fe6 d4bc fc48 b9be
000000f0: f318 f83d 950d cdbd 91fe 81be 574f 54be
00000100: 23c5 a2be 57fa 6bbe 6df7 8fbe 0a2f 74be
00000110: 3bb4 bbbe f03d 49be 4485 97be f436 b7be
00000120: be15 c5be fbc7 6ebe 7dd7 903c 9053 6c3e
00000130: 30ef 1d3c eb5f 7bbe 5514 8cbe 21c1 a03e
00000140: 5c88 8d3e f7ec 86be 0be8 babe dd8b 323e
00000150: 3c3b 923e 75ed 93bd bfa7 48be 9890 b0bd
00000160: 21a6 0c3e e26c b9bc e13b 87be 1977 5d3d
00000170: 7d4f 413e 907b a33d 83bf e5bb 3abf 273e
00000180: db8f a9bc 425f 44bd bf04 823d 9a79 b3bc
00000190: c8be 0b3e b01b b23c d822 353e c093 2e3e
000001a0: 8efc e33d d00d d9bc 38fd 9abc a280 353e
000001b0: ccbe 9f3e 8aff 893e 2abb a2be 460a 0abe
000001c0: 8abc 91be 407f a23e 838b be3e 9b05 6ebe
000001d0: e0be b5bd 838e 86be 6d6d 14bd a8b5 3e3e
000001e0: 1e64 34be 9e82 9ebe 5d05 95be 9dec 1dbe
000001f0: a822 a3bd 5434 7abe a747 82be b38d b6be
00000200: f9d4 ae3d 1d3a b93e 6ce3 b1be a689 8bbe
00000210: 57d1 babd 7e4b ac3e 2f47 b33e ddad 81be
00000220: ac2e 61be bec1 85bd 5d27 c83e b102 1a3e
00000230: 335e ac3c 11e3 deba 3fc3 923e 8f7a 513e
00000240: 8268 9cbd 6a26 48bb 4d5a 293e 1cd9 8d3e
00000250: 5b7c 6bbb ad23 41be 3459 94be 6653 c0be
00000260: cf2c 4ebe 78a7 c1bd c6d9 893d 4c8c 1cbe
00000270: 6250 383d a746 803e 6131 703d f06e ed3d
00000280: d1ce ec3e 7531 093f 4a4f b93e 8510 473d
00000290: 2bf9 c93d cd73 9e3e 540b bd3d 45c8 25be
000002a0: 6765 16bd 37a6 8cbe 86fa babe 90ac bebe
000002b0: dc10 b5be f52a e4bb 67d2 c7bd d3ec c0be
000002c0: 9e00 bcbe 087e a23d 2917 15bd db01 683e
000002d0: 734b d3bc 00bb 88be b9b1 cabd 1511 fa3d
000002e0: fd14 0a3e 9a9e 583e 332a 29be 0de3 31be
000002f0: 0e3c e5bd 8aa4 343d 7b4c ab3e c17d 853e
00000300: 3441 5abe f541 2dbe e574 593e 88e3 493e
00000310: 025e 823e 1c53 8a3e 3276 2f3e 8f7f 5b3e
00000320: 4b98 66be 0c1c 9c3d 87fa d73d 71fe debd
00000330: 6571 20be ecea fbbb a8b1 ebbd 9ace 45bd
00000340: 03fc 17be 9f33 80be fdda 463c b320 283e
00000350: 64f8 023e 7e06 5e3d d6e4 a33d 9c3f c8bb
00000360: 6f0e 08be 5258 d13d 4912 d03c 0b84 57be
00000370: 5cdf 5ebe 8dbf 2c3d b14c 903d 1d99 44be
00000380: f428 0dbe a40c e13e 0485 383e cf9c 6fbe
00000390: f552 83be 832d 9f3d ec88 c73e 8b7b 99bd
000003a0: 5411 dcba 5e70 593c 00d5 74be 389f 623e
000003b0: add6 803e 499c ca3d 4a1d 10be 39c2 97be
000003c0: d479 913d 7229 7d3e d74d 823e 7a64 8abe
000003d0: 5655 bcbe 8d29 023e 9f87 723e 592f 473e
000003e0: 33c6 d0bd 1527 85be

bias f4 [10]
-0.03870585 0.15198167 0.2248588 0.034179185 0.1924144 0.1377817 -0.12115244 0.102738865
0.08174465 0.23752624
00000000: 068a 1ebd 15a1 1b3e 6341 663e 79ff 0b3d
00000010: 4808 453e a516 0d3e c51e f8bd c168 d23d
00000020: bd69 a73d 143a 733e

weight f4 [20, 10, 5, 5]
0.00674859 -0.06663839 -0.02443446 0.051130265 0.061500542 0.023677506 -0.016028589 0.027812194
-0.033593394 0.080130026 0.049334057 -0.08800559 0.04732552 -0.042067673 0.019674392 -0.0032285873
0.011009253 -0.011976014 0.029021226 0.12125731 0.14638203 0.077736236 0.07384804 0.088162385
0.068928726 0.06485845 -0.054906797 -0.070541956 -0.028745702 -0.0051625567 -0.038888376 -0.05570275
-0.0899546 0.013076951 -0.07677303 -0.008692461 -0.108861454 -0.058456432 -0.053600896 0.020344974
-0.03773686 -0.015538458 -0.040181827 0.015299469 -0.05233522 -0.03343803 -0.06670539 0.03128685
-0.012106651 -0.027598092 -0.10609519 -0.09151944 -0.03188991 0.0004564695 0.037415892 -0.09952283
-0.018131627 -0.007849403 -0.019190583 0.008652026 -0.06627007 -0.07431647 0.0502555 -0.021315416
0.034531128 0.06562947 -0.025930054 0.0141200395 -0.0015557436 0.0079382025 -0.023 -0.07678744
0.07522622 0.047269203 0.002366897 -0.06239955 -0.06992454 -0.037199214 -0.09117554 -0.059219666
0.0067984033 -0.023964606 0.0151608 -0.09369767 -0.022779858 -0.07618066 0.047727518 -0.037822504
-0.0053757904 0.04181803 -0.025647648 -0.023299005 -0.056704644 0.042577263 0.07350569 -0.017957177
-0.10797881 -0.05610105 -0.03193353 -0.0085214935 -0.014524306 0.0118678715 -0.055637356 -0.04857017
-0.16585338 0.024009965 -0.015452528 0.06444382 -0.08602956 -0.046716467 -0.024865862 0.008177267
0.02683654 -0.12215976 0.03877531 0.041460156 0.12097047 -0.025319943 -0.09705229 0.016315095
0.18688615 0.013921682 0.013662924 0.044628218 0.05045015 0.07378154 -0.0064823907 -0.056021035
-0.16334628 -0.1569765 0.019403491 0.03953256 0.11252987 -0.113385975 -0.1551347 -0.052576497
0.09851034 0.013172658 -0.1465549 -0.033561897 -0.14879745 -0.07192428 -0.05846975 -0.017864224
-0.011409062 -0.2172467 -0.13428679 -0.055078857 0.009224706 0.04965551 0.050507266 0.00017023434
-0.024338618 0.014445209 0.078026466 0.07965419 0.06315682 0.034343995 0.045004614 0.10486681
0.1733554 0.14778797 0.04373137 0.13584045 0.062467232 0.0740684 0.08925331 0.009974141
0.04274951 0.17859775 -0.06709689 0.012052649 0.04778128 0.07745393 0.10482948 0.06327759
0.04874496 0.029636653 0.036011152 0.03019021 -0.011929589 0.07846948 0.070068575 -0.069393255
-0.14542839 0.040850513 0.10298933 -0.06268936 -0.054583453 -0.050982196 0.08654947 0.047100987
0.037998583 -0.09614074 0.013001566 0.06813036 0.13132921 0.09313478 0.031869017 0.15249899
-0.047104854 0.024869202 -0.060010295 -0.03975862 0.036470216 -0.054282945 -0.00075065694 -0.003247434
-0.00094927906 -0.048752297 -0.045916878 0.097086936 -0.030472418 0.015755927 -0.022704042 -0.034609657
0.060508706 0.051469542 0.023511192 -0.023906635 -0.02162579 -0.028642483 -0.008910566 0.035731014
-0.0586125 -0.14044654 0.1137022 0.12493027 0.038187496 -0.022525785 -0.12786289 0.073751144
0.08139339 -0.0063028135 -0.034265403 -0.0786498 -0.018624077 0.0087881675 -0.0059677796 -0.124627985
-0.015331911 -0.07835695 0.048710592 -0.067471914 -0.04320628 -0.08504113 -0.08899709 -0.0369084
-0.03570567 -0.044430993 0.028381908 -0.0067941025 -0.028970512 0.00041256496 0.011318977 0.009143143
00000000: 4723 dd3b b579 88bd c72a c8bc f86d 513d
00000010: fee7 7b3d 54f7 c13c 634e 83bc 66d6 e33c
00000020: 3a99 09bd 361b a43d 8212 4a3d 463c b4bd
00000030: 68d8 413d 274f 2cbd 312c a13c b596 53bb
00000040: 2760 343c 0b37 44bc ecbd ed3c c155 f83d
00000050: 2ce5 153e 2d34 9f3d a43d 973d 7b8e b43d
00000060: 812a 8d3d 82d4 843d f3e5 60bd 4d78 90bd
00000070: 1b7c ebbc aa2a a9bb 6b49 1fbd 9128 64bd
00000080: 1e3a b8bd b540 563c 2e3b 9dbd d36a 0ebc
00000090: c1f2 debd 0370 6fbd 9d8c 5bbd 81aa a63c
000000a0: f791 1abd 0495 7ebc b395 24bd a0aa 7a3c
000000b0: 755d 56bd 51f6 08bd d69c 88bd a426 003d
000000c0: fa5a 46bc 6515 e2bc 6f48 d9bd 8b6e bbbd
000000d0: ff9e 02bd 4d52 ef39 6841 193d a0d2 cbbd
000000e0: c788 94bc c89a 00bc 9235 9dbc 3ac1 0d3c
000000f0: 9ab8 87bd 3c33 98bd b6d8 4d3d ab9d aebc
00000100: 8370 0d3d be68 863d 446b d4bc bd57 673c
00000110: 18ea cbba 3c0f 023c 7f6a bcbc bc42 9dbd
00000120: 3410 9a3d 5a9d 413d f11d 1b3b ac96 7fbd
00000130: 9934 8fbd 345e 18bd 3eba babd 5290 72bd
00000140: 24c5 de3b 6c51 c4bc 0165 783c 90e4 bfbd
00000150: d39c babc 9b04 9cbd ee7d 433d c5eb 1abd
00000160: 6627 b0bb 6249 2b3d 041b d2bc 8edd bebc
00000170: 2143 68bd 7f65 2e3d 278a 963d ee1a 93bc
00000180: ff23 ddbd 37ca 65bd bccc 02bd bc9d 0bbc
00000190: 5bf7 6dbc 7671 423c ffe3 63bd 84f1 46bd
000001a0: 78d5 29be 8cb0 c43c 9a2c 7dbc 1ffb 833d
000001b0: 4430 b0bd c459 3fbd 7eb3 cbbc f2f9 053c
000001c0: 4ed8 db3c e52e fabd dcd2 1e3d 20d2 293d
000001d0: 5ebf f73d c56b cfbc 5ac3 c6bd 3ca7 853c
000001e0: 155f 3f3e c417 643c 75da 5f3c 14cc 363d
000001f0: d1a4 4e3d c71a 973d 3c6a d4bb 5076 65bd
00000200: 3f44 27be 73be 20be 12f4 9e3c e5ec 213d
00000210: 0f76 e63d e836 e8bd a1db 1ebe 745a 57bd
00000220: cabf c93d 22d2 573c 7d12 16be 3378 09bd
00000230: 5c5e 18be 094d 93bd fa7d 6fbd fe57 92bc
00000240: 13ed 3abc eb75 5ebe 7a82 09be 5e9a 61bd
00000250: 3923 173c 9363 4b3d b5e0 4e3d ef80 3239
00000260: c861 c7bc 99ab 6c3c 57cc 9f3d bc21 a33d
00000270: 5d58 813d 4aac 0c3d c256 383d 69c4 d63d
00000280: 1484 313e bb55 173e aa1f 333d c219 0b3e
00000290: a4dd 7f3d 2cb1 973d 70ca b63d 946a 233c
000002a0: 1c1a 2f3d 54e2 363e 186a 89bd 7978 453c
000002b0: 4eb6 433d 2ba0 9e3d d7b0 d63d ae97 813d
000002c0: cca8 473d 91c8 f23c 6e80 133d 7651 f73c
000002d0: 5374 43bc 9bb4 a03d 1d80 8f3d 0d1e 8ebd
000002e0: 2eeb 14be de52 273d 12ec d23d 4763 80bd
000002f0: e692 5fbd b5d2 50bd d940 b13d f7ec 403d
00000300: 67a4 1b3d 70e5 c4bd 8504 553c ee87 8b3d
00000310: 2a7b 063e 73bd be3d 1689 023d b228 1c3e
00000320: 05f1 40bd 7fba cb3c 5bcd 75bd efd9 22bd
00000330: cb61 153d cb57 5ebd bcc7 44ba e7d2 54bb
00000340: 0ad9 78ba 7db0 47bd 5613 3cbd 84d5 c63d
00000350: 4ba1 f9bc 9312 813c d4fd b9bc dbc2 0dbd
00000360: fad7 773d bad1 523d 8b9a c03c d9d7 c3bc
00000370: 9228 b1bc a4a3 eabc 9ffd 11bc af5a 123d
00000380: a913 70bd 38d1 0fbe b3dc e83d 71db ff3d
00000390: 7e6a 1c3d ff87 b8bc 7dee 02be d70a 973d
000003a0: 94b1 a63d d587 cebb e159 0cbd 2513 a1bd
000003b0: 8591 98bc 3ffc 0f3c 5d8d c3bb f53c ffbd
000003c0: b232 7bbc 9c79 a0bd c284 473d b72e 8abd
000003d0: 11f9 30bd 0b2a aebd 1b44 b6bd 432d 17bd
000003e0: 1c40 12bd 46fd 35bd 2d81 e83c 10a1 debb
000003f0: 9153 edbc 884d d839 3b73 393c 1fcd 153c

bias f4 [20]
0.00459872 -0.024774956 0.010142062 -0.02325884 -0.06563287 0.011824132 -0.05257261 -0.044010375
-0.08914297 0.04959763 -0.03554018 0.0364771 -0.04534019 -0.019566007 -0.024743175 -0.023224438
-0.06594777 -0.00014401317 -0.015086672 0.049107905
00000000: dcb0 963b d9f4 cabc e42a 263c 5389 bebc
00000010: 876a 86bd 01ba 413c 6156 57bd 3944 34bd
00000020: 9790 b6bd e226 4b3d 9492 11bd 0369 153d
00000030: a3b6 39bd e448 a0bc 33b2 cabc 2d41 bebc
00000040: a00f 87bd 3e02 17b9 172e 77bc 5f25 493d

weight f4 [50, 320]
-0.100279085 -0.0697894 -0.008190982 0.011682862 -0.060900696 -0.080201454 -0.018802818 -0.024037905
0.040275555 0.023766028 0.011620712 0.015184362 0.10786965 0.022580666 0.02189284 0.03798881
-0.00076136907 0.05320397 0.0015040275 -0.10485736 0.001993537 0.023048477 -2.9546443e-05 -0.070950165
0.05421791 -0.023497742 0.023622809 -0.010778755 -0.05571843 -0.09865252 -0.048163068 0.013640677
0.050917078 -0.009719331 -0.011718192 -0.030694332 0.06153431 -0.07587362 -0.0455891 -0.10821753
-0.04052613 -0.052820913 0.022171197 -0.032409277 -0.14514947 -0.012047403 0.06628588 0.052076787
-0.08851267 -0.10265654 0.008748752 0.107795775 -0.006593508 0.020903684 -0.043263372 0.040159073
0.06815902 0.06593715 0.0065205237 0.038205635 -0.047044992 0.035765704 -0.11592891 -0.122017786
-0.12031469 -0.014372201 0.09255149 -0.04084971 0.011396038 -0.010456862 0.00962975 0.028147113
0.05851218 -0.030531857 -0.0035883263 -0.0051646563 0.009949883 -0.07797591 -0.058755398 -0.040322307
-0.015723063 0.06745159 0.033717833 -0.0027406334 0.007813277 -0.04926983 -0.08775857 -0.012926537
0.005610305 0.0016695639 -0.027161518 -0.048033345 0.021405147 -0.045738876 -0.04253785 0.15368058
-0.02037784 0.0447789 -0.062440418 0.061458696 -0.013796049 -0.010065966 -0.022126665 0.04114468
-0.033737287 0.0054582334 -0.03532558 0.042744365 -0.042897064 -0.011051623 -0.03071126 0.014519971
-0.10141101 -0.08397075 0.028036863 0.013964403 -0.047817513 -0.04623648 0.006470384 -0.022592502
0.0052490616 -0.00649397 -0.035490084 -0.013611651 0.040626526 0.044458464 -0.009424581 0.024826443
-0.048695665 -0.005604129 0.02990231 0.022438765 -0.052250065 -0.03730763 -0.02999622 0.036181632
0.0006718287 -0.008979072 -0.034823447 -0.057895884 0.0065063923 0.024253022 -0.04002452 -0.0045297667
0.04611041 0.03358801 0.023574611 -0.013915079 0.07434946 -0.0408695 0.039161284 -0.0010097501
0.048115343 -0.030075334 -0.060367484 0.035241358 -0.095858715 0.005338789 0.01960418 0.058873296
0.020645669 0.06505661 0.10757134 0.0345436 0.046841726 0.07866534 0.022393374 0.029063268
-0.016821539 -0.0462453 -0.015240719 -0.028563546 -0.04556446 -0.07199099 -0.08198246 0.026322844
0.04573687 -0.046320792 -0.053033337 -0.011261823 0.04102402 0.0068263486 0.054160118 -0.042010825
0.050617836 -0.061214782 0.05595608 -0.0074476567 0.012313934 -0.1184891 0.014115847 0.06688945
0.027796 -0.006660935 -0.010158939 -0.028375398 -0.010550981 -0.01938971 -0.0300215 0.07312266
-0.0643791 -0.108352125 -0.025208915 0.005555827 -0.1154833 0.019289188 0.045228835 -0.008192162
0.0035603836 -0.010404195 -0.03242461 0.04559157 -0.02494237 -0.033313487 0.03676994 0.041085336
0.07289577 0.0703392 0.042199064 -0.030992188 0.052102715 -0.05851314 -0.012311581 -0.07184772
0.009848983 -0.11836255 0.0367272 0.065732025 0.061677832 -0.056761183 0.06964073 0.069422565
0.099192485 0.08055988 0.0012447378 0.039056487 0.08758335 -0.0028426705 0.008058801 -0.14503579
-0.055010166 -0.014408363 0.096040644 -0.08306624 0.005745849 0.01611932 0.051211994 -0.082166836
0.009589394 0.04284219 -0.03161437 -0.04110759 0.014463375 -0.05987039 -0.044284374 -0.06717003
00000000: 1f5f cdbd bfed 8ebd 7833 06bc 7a69 3f3c
00000010: 0273 79bd a940 a4bd 5e08 9abc 24eb c4bc
00000020: fbf7 243d f9b0 c23c cc64 3e3c d5c7 783c
00000030: c3ea dc3d 17fb b83c 9d58 b33c 289a 1b3d
00000040: 9d96 47ba 68ec 593d ca22 c53a 75bf d6bd
00000050: 00a6 023b 29d0 bc3c 81da f7b7 524e 91bd
00000060: 9913 5e3d 567e c0bc 9f84 c13c 6099 30bc
00000070: 0239 64bd 550a cabd a346 45bd 257d 5f3c
00000080: 6d8e 503d d43d 1fbc a9fd 3fbc ae72 fbbc
00000090: 670b 7c3d a163 9bbd a3bb 3abd 27a1 ddbd
000000a0: bafe 25bd be5a 58bd 5fa0 b53c 97bf 04bd
000000b0: 10a2 14be 7862 45bc e4c0 873d 784e 553d
000000c0: 2146 b5bd 983d d2bd ed56 0f3c 08c4 dc3d
000000d0: 5b0e d8bb 343e ab3c ef34 31bd d77d 243d
000000e0: f596 8b3d 0e0a 873d 1eaa d53b 837d 1c3d
000000f0: 40b2 40bd 0f7f 123d 236c edbd 76e4 f9bd
00000100: 8c67 f6bd 6179 6bbc a38b bd3d 0752 27bd
00000110: 73b6 3a3c 4253 2bbc 19c6 1d3c c694 e63c
00000120: 78aa 6f3d f21d fabc 202a 6bbb 473c a9bb
00000130: d604 233c d5b1 9fbd 80a9 70bd 0129 25bd
00000140: a7cd 80bc 0f24 8a3d b61b 0a3d 339c 33bb
00000150: 4203 003c 29cf 49bd c4ba b3bd d3c9 53bc
00000160: a6d6 b73b 45d5 da3a d581 debc 9dbe 44bd
00000170: d959 af3c b058 3bbd 2b3c 2ebd 715e 1d3e
00000180: 6eef a6bc 146a 373d 86c1 7fbd 1dbc 7b3d
00000190: d308 62bc b9eb 24bc fb42 b5bc 5387 283d
000001a0: 1c30 0abd fbda b23b 8eb1 10bd b714 2f3d
000001b0: d5b4 2fbd de11 35bc 2e96 fbbc 2ce5 6d3c
000001c0: 93b0 cfbd dbf8 abbd 90ad e53c f4ca 643c
000001d0: 4cdc 43bd 7762 3dbd 8405 d43b e913 b9bc
000001e0: 5200 ac3b 5ecb d4bb 0d5e 11bd 6703 5fbc
000001f0: 0068 263d 141a 363d 8f69 1abc d360 cb3c
00000200: 1b75 47bd d7a2 b7bb b0f5 f43c 80d1 b73c
00000210: 2a04 56bd e3cf 18bd a2ba f5bc 3133 143d
00000220: a91d 303a f51c 13bc 08a3 0ebd 3c24 6dbd
00000230: 9333 d53b 46ae c63c c0f0 23bd 706e 94bb
00000240: 45de 3c3d 9593 093d 8b1f c13c 12fc 63bc
00000250: 8844 983d c766 27bd 9567 203d 9759 84ba
00000260: 9814 453d 8c60 f6bc e543 77bd 3e59 103d
00000270: 9351 c4bd 02f1 ae3b f298 a03c 2025 713d
00000280: 1b21 a93c 663c 853d 5d4e dc3d 977d 0d3d
00000290: 1cdd 3f3d 4b1b a13d 4f72 b73c 1716 ee3c
000002a0: 53cd 89bc b66b 3dbd 35b4 79bc 19fe e9bc
000002b0: cda1 3abd 0370 93bd 6ce6 a7bd 01a3 d73c
000002c0: 9656 3b3d dfba 3dbd 7c39 59bd 8283 38bc
000002d0: ce08 283d 90af df3b 00d7 5d3d 8b13 2cbd
000002e0: a654 4f3d 5abc 7abd 3432 653d 790b f4bb
000002f0: 62c0 493c 6aaa f2bd 2746 673c 56fd 883d
00000300: 70b4 e33c f943 dabb ae71 26bc 8673 e8bc
00000310: 06de 2cbc 2bd7 9ebc a6ef f5bc 55c1 953d
00000320: 31d9 83bd b8e7 ddbd ed82 cebc a80d b63b
00000330: 8282 ecbd 5c04 9e3c df41 393d 6b38 06bc
00000340: 5355 693b 5b76 2abc abcf 04bd 3abe 3a3d
00000350: f153 ccbc b973 08bd 149c 163d 1949 283d
00000360: 614a 953d 000e 903d edd8 2c3d 54e3 fdbc
00000370: a869 553d 79ab 6fbd 83b6 49bc e624 93bd
00000380: a15d 213c 1168 f2bd 436f 163d 839e 863d
00000390: e5a1 7c3d 6a7e 68bd cd9f 8e3d 6b2d 8e3d
000003a0: 6e25 cb3d 94fc a43d 7826 a33a b2f9 1f3d
000003b0: e65e b33d 194c 3abb 1009 043c 4384 14be
000003c0: 5752 61bd 0e11 6cbc f5b0 c43d a21e aabd
000003d0: ad47 bc3b aa0c 843c abc3 513d 1647 a8bd
000003e0: d51c 1d3c 4b7b 2f3d 127e 01bd 6f60 28bd
000003f0: cbf7 6c3c a73a 75bd 8863 35bd 7190 89bd

bias f4 [50]
0.061970796 0.06394274 0.019410037 0.071083724 0.0032835852 0.15712291 0.021426989 -0.0031235185
0.0021180504 0.07456537 0.077855535 0.037310857 -0.0003387278 0.1234386 0.111283526 0.094188765
0.008224272 -0.011051099 -0.021805296 0.06562679 0.00012464654 0.10058174 0.03220897 0.026286973
0.104958475 0.007389641 -0.0014243316 -0.0059445323 0.10766831 -0.029374251 0.043051153 -0.0033784297
0.099598676 0.06682923 0.02570542 0.058327734 0.024096813 -0.028212292 0.045849405 0.07234965
0.05330653 0.095973045 0.07938948 0.134538 0.012994033 0.050969258 0.055100836 0.048455264
0.012551608 0.05457545
00000000: 17d5 7d3d 69f4 823d cc01 9f3c 5894 913d
00000010: 6b31 573b d4e4 203e a787 af3c f2b3 4cbb
00000020: fdce 0a3b bbb5 983d b972 9f3d 45d3 183d
00000030: 4797 b1b9 60cd fc3d 9ee8 e33d 0ae6 c03d
00000040: 19bf 063c ab0f 35bc 05a1 b2bc 5767 863d
00000050: 8db3 0239 cdfd cd3d 8eed 033d c757 d73c
00000060: 78f4 d63d cd24 f23b a3b0 baba 5aca c2bb
00000070: 3481 dc3d 45a2 f0bc 6856 303d a568 5dbb
00000080: 64fa cb3d c3dd 883d 2c94 d23c 10e9 6e3d
00000090: ae66 c53c 771d e7bc 96cc 3b3d 0e2c 943d
000000a0: f357 5a3d 848d c43d f496 a23d 54c4 093e
000000b0: ede4 543c 24c5 503d 6ab1 613d 0779 463d
000000c0: 42a5 4d3c 828a 5f3d

weight f4 [10, 50]
-0.33674863 -0.020573061 0.007345339 -0.16998503 0.016803715 -0.3522893 -0.059973598 -0.21187143
0.000100997066 -0.25006104 -0.00058359455 0.02875675 -0.03081007 0.014724805 -0.34878486 -0.31137252
-0.0022533431 -0.3335089 0.0024424372 0.019772371 -0.27589083 -0.3415755 -6.920661e-05 0.0039097243
-0.39715472 -0.28850096 -0.18136483 -0.3596885 0.0391866 -0.12703425 -0.32568097 -0.015718568
0.0226393 0.0007625944 0.010538029 -0.2562884 0.021405948 -0.2528664 -0.33871207 -0.284402
0.016584601 -0.32568678 -0.2507557 -0.4507408 0.0059491317 0.023704302 0.009744769 -0.0043453677
0.0015637625 -0.19035426 -0.114452936 0.011235607 -0.2922253 -0.29387394 0.059794065 0.021049652
0.013139485 -0.19676976 -0.17761941 -0.22034587 -0.22680894 -0.17523564 -0.25067952 0.020431725
0.010802756 0.011335637 -0.1981326 0.02284902 -0.09111364 -0.103566825 -0.28431803 0.015422405
-0.30044258 0.00044073074 0.008078532 0.014648514 -0.3307542 -0.16341875 -0.22253323 0.10100981
-0.0021262425 -0.24249609 -0.34710872 -0.25012296 -0.32855582 -0.20650378 0.045253545 -0.24803828
0.05248961 0.014645648 -0.18935893 -0.16003418 0.011576119 0.010795163 -0.2209734 -0.014204255
-0.3268189 -0.18344054 0.020722954 0.011402662 -0.12496539 -0.33051908 -0.38441592 -0.15897687
-0.34461752 -0.011935583 -0.0059282845 0.009050867 -0.29516363 0.032382503 0.04508225 -0.023699483
0.017481476 -0.28581047 -0.03093484 -0.32398635 -0.32539633 -0.09089464 -0.09566887 -0.22575887
-0.23933011 0.012648623 0.061351325 -0.008592555 0.0041936496 0.01784651 0.020563392 0.010054167
-0.22669086 -0.031761277 0.0025238201 0.051475327 -0.38884723 -0.13562806 0.034647483 0.017673573
-0.32824865 0.01611889 0.03121054 -0.31045794 0.05105185 -0.222567 0.05514149 -0.00048659774
-0.13251732 -0.28132442 -0.3724334 -0.2738869 -0.09812085 0.012053817 0.016549053 -0.21087588
0.0073991534 -0.007670999 -0.16162813 0.035085194 -0.30827013 -0.08996879 -0.14342518 -0.19809762
-0.013174467 -0.32849178 -0.18622881 -0.2816241 0.015786007 -0.33906376 -0.3044278 0.007953476
-0.047730483 -0.39407736 0.018457098 0.041700337 -0.2912998 -0.32465166 -0.30035 -0.3613736
0.019950783 -0.37452075 0.028621664 -0.13045296 0.008727169 -0.19129051 0.022724608 -0.013814579
-0.22607605 0.012524201 -0.341412 -0.22593017 -0.21358521 0.0005471447 0.02758934 0.017386112
0.017916491 -0.28860387 -0.012748085 -0.38937166 0.017482087 0.020857647 -0.24290612 0.015005679
-0.10549567 0.009568178 -0.15366793 -0.24333873 -0.21616733 -0.35049134 -0.14507958 -0.38187212
0.032074872 -0.014077119 0.009490542 0.0047987043 -0.19478 -0.25381863 -0.31487057 -0.0010092177
0.028175106 0.012387496 0.03910775 -0.23810855 -0.22291858 -0.35627764 -0.2646694 -0.012224141
0.027044337 -0.1519902 -0.019955505 -0.1744542 -0.03420371 0.1098571 0.021056792 0.046483185
-0.064773776 0.01186925 -0.18830551 0.0150554115 -0.18109775 -0.2880128 -0.12168327 0.002109511
0.0388767 -0.2734532 -0.05191027 -0.22624156 0.004008752 -0.009194991 -0.14254658 0.024825461
0.023923349 -0.13413401 0.006318306 -0.2191403 0.020574482 0.024170345 -0.00021256573 -0.04337448
00000000: 516a acbe d688 a8bc 2bb1 f03b 8e10 2ebe
00000010: f2a7 893c 435f b4be e0a6 75bd d3f4 58be
00000020: 63ce d338 0008 80be 5efc 18ba 4793 eb3c
00000030: 6665 fcbc 4f40 713c ee93 b2be 386c 9fbe
00000040: d3ac 13bb aec1 aabe 4c11 203b abf9 a13c
00000050: 9041 8dbe fce2 aebe 0423 91b8 251d 803b
00000060: dd57 cbbe 66b6 93be b4b7 39be 1729 b8be
00000070: 2182 203d 4415 02be a8bf a6be 3ac4 80bc
00000080: 0e76 b93c d8e8 473a b2a7 2c3c 3c38 83be
00000090: 875b af3c b477 81be ab6b adbe 249d 91be
000000a0: 6edc 873c 6bc0 a6be 0d63 80be 80c7 e6be
000000b0: eff0 c23b 862f c23c 86a8 1f3c 9663 8ebb
000000c0: 2af7 cc3a 3aec 42be 4d66 eabd 8d15 383c
000000d0: 8e9e 95be a576 96be 9fea 743d 5270 ac3c
000000e0: ff46 573c 037e 49be dde1 35be 59a2 61be
000000f0: 9a40 68be f970 33be 1159 80be 6f60 a73c
00000100: 0bfe 303c 1cb9 393c 46e3 4abe de2d bb3c
00000110: ca99 babd d81a d4bd 2292 91be 41ae 7c3c
00000120: 9cd3 99be e111 e739 d25b 043c 5200 703c
00000130: 9d58 a9be 3f57 27be c0df 63be 3bde ce3d
00000140: 6e58 0bbb e550 78be 3cb8 b1be 1e10 80be
00000150: 7838 a8be ba75 53be c85b 393d bffd 7dbe
00000160: 58ff 563d 4df4 6f3c 4fe7 41be 00e0 23be
00000170: c3a9 3d3c 32de 303c da46 62be f7b8 68bc
00000180: cf54 a7be d6d7 3bbe 2fc3 a93c 3bd2 3a3c
00000190: dbed ffbd cc39 a9be 2ad2 c4be d5ca 22be
000001a0: b571 b0be 778d 43bc 0e42 c2bb 164a 143c
000001b0: b01f 97be 84a3 043d 2aa8 383d 6b25 c2bc
000001c0: 5035 8f3c c055 92be 106b fdbc 8ae1 a5be
000001d0: 599a a6be f826 babd 0aee c3bd 552d 67be
000001e0: f412 75be 2c3c 4f3c 874b 7b3d cac7 0cbc
000001f0: e26a 893b d832 923c 8f74 a83c 3cba 243c
00000200: a621 68be 1d18 02bd ad66 253b cbd7 523d
00000210: fc16 c7be 15e2 0abe 85ea 0d3d 2bc8 903c
00000220: 3510 a8be c30b 843c 3fad ff3c 58f4 9ebe
00000230: bf1b 513d 9be8 63be 0bdc 613d 0b1e ffb9
00000240: 9fb2 07be c109 90be 97af bebe e73a 8cbe
00000250: 96f3 c8bd 5f7d 453c e191 873c d9ef 57be
00000260: 9974 f23b 015d fbbb d881 25be 7eb5 0f3d
00000270: 95d5 9dbe 8f41 b8bd 0dde 12be 1ada 4abe
00000280: b8d9 57bc 1330 a8be c4b2 3ebe 0931 90be
00000290: a851 813c c499 adbe f6dd 9bbe 4c4f 023c
000002a0: 0a81 43bd 82c4 c9be 5733 973c f9cd 2a3d
000002b0: 3f25 95be be38 a6be 7ac7 99be f605 b9be
000002c0: d36f a33c 2fc1 bfbe fb77 ea3c 7695 05be
000002d0: 66fc 0e3c a9e1 43be f528 ba3c 8b56 62bc
000002e0: 7b80 67be 4e32 4d3c 8ecd aebe 3d5a 67be
000002f0: 15b6 5abe 426e 0f3a 0a03 e23c 526d 8e3c
00000300: 9bc5 923c e3c3 93be 58dd 50bc b95b c7be
00000310: 9836 8f3c a8dd aa3c 62bc 78be 61da 753c
00000320: 1d0e d8bd d9c3 1c3c 205b 1dbe ca2d 79be
00000330: f85a 5dbe 9a73 b3be be8f 14be be84 c3be
00000340: f160 033d b7a3 66bc 387e 1b3c 733e 9d3b
00000350: 6974 47be 84f4 81be b736 a1be ba47 84ba
00000360: 7bcf e63c edf4 4a3c 732f 203d bad2 73be
00000370: c544 64be 066a b6be bf82 87be c347 48bc
00000380: 168c dd3c 52a3 1bbe ba79 a3bc 1fa4 32be
00000390: 3019 0cbd c2fc e03d 4b7f ac3c 2765 3e3d
000003a0: 1da8 84bd 3e77 423c 29d3 40be f9aa 763c
000003b0: b071 39be 6a76 93be 1435 f9bd b93f 0a3b
000003c0: 2d3d 1f3d 0f02 8cbe dd9f 54bd deab 67be
000003d0: d95b 833b 96a6 16bc bbf7 11be c45e cb3c
000003e0: e6fa c33c 6d5a 09be cb09 cf3b 5166 60be
000003f0: d18b a83c e300 c63c 2ee4 5eb9 70a9 31bd

bias f4 [10]
0.118784025 -0.016197205 -0.130195 -0.006825447 0.12849207 -0.013095066 -0.038412794 -0.08634637
0.065674305 -0.09750316
00000000: 0a45 f33d 00b0 84bc d751 05be 00a8 dfbb
00000010: 6d93 033e b08c 56bc bc56 1dbd 5ed6 b0bd
00000020: 4080 863d bdaf c7bd
