artifact_store/13/3436b7757c6542818ba7d6308c929067/artifacts/model/data/model.pth (torch_old, 92235 bytes, 8 tensors)

weight f4 [10, 1, 5, 5]
0	0xbeb5ee4b	-0.35533366
1	0xbe39448e	-0.18092558
2	0x3d36f565	0.04466762
3	0xbcfa51df	-0.030556617
4	0x3d1084e2	0.035282977
5	0xbcfbbdd8	-0.030730173
6	0x3dc674c6	0.096902415
7	0x3cb203b7	0.021730287
8	0xbe48ea34	-0.19620591
9	0x3e500bb3	0.20316963
10	0x3d27961b	0.040914636
11	0x3d9ca39c	0.076483935
12	0xbcb6a54e	-0.02229562
13	0xbe943ddf	-0.28953454
14	0xbd711790	-0.05886036
15	0xbe9d4645	-0.30717674
16	0x3e171482	0.14753917
17	0xbcf2067a	-0.029544104
18	0xbe33d093	-0.17560034
19	0x3e3c4a61	0.18387748
20	0x3c866dc9	0.016409772
21	0x3e328b7f	0.17436026
22	0x3c97ab91	0.018514426
23	0x3ebc0f1e	0.36730283
24	0x3c9c544c	0.019083165
25	0x3d5f1e1a	0.054472066
26	0xbe26173c	-0.162198
27	0xbd7374b3	-0.059437465
28	0x3dad7e49	0.084713526
29	0x3e657493	0.22407751
30	0xbee3b810	-0.44476366
31	0xbef34d6f	-0.47520015
32	0xbda68649	-0.081310816
33	0x3e4861cf	0.19568561
34	0xbd2430c4	-0.04008557
35	0xbe930c3d	-0.28720275
36	0x3ea46145	0.3210546
37	0x3ec72dbc	0.3890208
38	0xbec40850	-0.38287592
39	0x3e48120c	0.19538134
40	0x3d623060	0.055221915
41	0x3e44b0ad	0.19208021
42	0xbdf07b12	-0.11742224
43	0xbdec3a04	-0.11534503
44	0x3e4f22d1	0.20228125
45	0x3e2f6e56	0.17131934
46	0xbc79d94b	-0.015249561
47	0xbe2bb87b	-0.16769592
48	0xbdac7397	-0.084204845
49	0x3e422da0	0.18962717
50	0xbe6ef9ea	-0.23337522
51	0x3eb66fea	0.3563226
52	0xbe43082d	-0.19046088
53	0x3e0f7722	0.1401029
54	0x3eba4607	0.36381552
55	0x3bfd1619	0.0077235815
56	0x3e60fc83	0.21971326
57	0x3d97cc3a	0.07412
58	0xbd07f21e	-0.033189885
59	0xbe6950f7	-0.22784792
60	0xbe6fcecf	-0.23418735
61	0xbe38c670	-0.18044448
62	0x39bc15a4	0.00035874278
63	0x3cfc2ec2	0.030784015
64	0xbdfa8fb1	-0.12234438
65	0xbe6f37da	-0.2336115
66	0x3da2643b	0.07929274
67	0xbe3e5d0e	-0.18590185
68	0x3e7073e0	0.23481703
69	0xbe6487a3	-0.22317366
70	0xbefada1d	-0.48994532
71	0xbe852efc	-0.2601241
72	0xbe4e4a3e	-0.20145509
73	0xbd409e51	-0.047025982
74	0xbeae9abb	-0.34102425
75	0xbe889b1c	-0.2668084
76	0xbe832494	-0.25613844
77	0xbe51c37d	-0.20484729
78	0xbd1d538a	-0.038409747
79	0xbc02e58d	-0.0079892995
80	0xbe9451e7	-0.28968737
81	0xbe1eaca7	-0.15495549
82	0xbd3193a2	-0.043353684
83	0x3dca4d8e	0.09878074
84	0x3db45279	0.08804793
85	0xbebb938b	-0.36636004
86	0x3cb3882e	0.021915521
87	0xbe0e5e8b	-0.13903253
88	0xbddf1cee	-0.1089419
89	0x3e2775d7	0.16353546
90	0x3e142f6b	0.14471214
91	0xbe185f99	-0.14880218
92	0xbe84e082	-0.25952536
93	0xbea7f642	-0.32805067
94	0xbdfbf1af	-0.12301957
95	0x3e9fd22d	0.3121504
96	0x3d300668	0.04297486
97	0xbe933049	-0.28747776
98	0xbe5fc198	-0.21851194
99	0xbea44e6a	-0.32091075
100	0xbde9e14c	-0.11419925
101	0x3c96798f	0.01836851
102	0x3e201e16	0.15636477
103	0x3e80493b	0.2505587
104	0xbe4a685c	-0.19766372
105	0x3d89ec1b	0.06734487
106	0xbd8cb24d	-0.06869946
107	0xbe3a5acf	-0.18198703
108	0x3dc1a981	0.094561584
109	0x3e8fdd9d	0.28098765
110	0xbd6d4d0e	-0.057934813
111	0x3dce09fb	0.100604974
112	0x3b9db5ba	0.0048129233
113	0x3c2d69f4	0.010584343
114	0x3dae1a3f	0.085011
115	0xbe41a137	-0.18909155
116	0xbe9c7e42	-0.30565077
117	0xbc921e60	-0.01783675
118	0x3e9c85bd	0.30570784
119	0xbc3210c2	-0.010868253
120	0xbd29efcf	-0.041488465
121	0xbe454986	-0.19266328
122	0xbe722f8a	-0.23650947
123	0x3eb536e9	0.35393456
124	0xbd512c5d	-0.0510677
125	0x3e331b20	0.17490816
126	0x3ea09c57	0.31369278
127	0x3e0ad0e4	0.13556248
128	0xbe4f2f8b	-0.2023298
129	0xbe5f7a16	-0.21823916
130	0x3b58d56e	0.0033086198
131	0x3dfb8094	0.12280384
132	0xbe637d2a	-0.22215715
133	0xbdac6155	-0.08417002
134	0xbe3c5c5c	-0.18394607
135	0xbe4b2fd7	-0.19842468
136	0xbea72143	-0.32642564
137	0xbe48cef0	-0.1961019
138	0xbe560e1b	-0.20903818
139	0xbd86ad13	-0.0657598
140	0x3dfe4f54	0.124174744
141	0xbe0e127f	-0.13874243
142	0xbe9498cc	-0.29022825
143	0xbe124f89	-0.14288153
144	0x3d61f851	0.055168454
145	0x3c875147	0.016518248
146	0xbd6ac0ce	-0.05731278
147	0x3d0859ab	0.03328864
148	0x3e1413cf	0.14460681
149	0xbdc6c7f2	-0.09706105
150	0xbcbeeea7	-0.023307158
151	0x3c87281e	0.016498622
152	0x3d7b3790	0.061332285
153	0x3ba95586	0.005167666
154	0x3ee6edcb	0.45103297
155	0xbe651d30	-0.22374415
156	0xbe8e3c44	-0.27780354
157	0xbdd15ab2	-0.10222377
158	0xbe30e0cd	-0.17273255
159	0xbe42f2ac	-0.19037884
160	0xbef80a6a	-0.48445445
161	0xbe6dfc7e	-0.2324085
162	0xbefd13b3	-0.49429092
163	0xbec728ac	-0.38898218
164	0xbeda3fc9	-0.4262679
165	0xbdb8aefd	-0.09017751
166	0xbe284986	-0.16434297
167	0xbe310521	-0.17287113
168	0xbe93f8e8	-0.28900838
169	0xbe6db07f	-0.23211859
170	0x3ef9ae62	0.48765856
171	0x3e4d7329	0.20063461
172	0x3e826426	0.25467032
173	0x3e82f4dc	0.25577438
174	0x3bd42579	0.0064741937
175	0x3ce62a87	0.02809645
176	0xbe810e0a	-0.25206023
177	0xbe3e058b	-0.18556802
178	0xbe7e6c01	-0.24845888
179	0x3d17f4e9	0.0370988
180	0x3dc0dd36	0.09417193
181	0xbd6bb1bd	-0.05754255
182	0xbe77a895	-0.24185403
183	0xbe7c31f6	-0.24628434
184	0x3dacd1a9	0.08438427
185	0xbca73537	-0.020411117
186	0xbe8f07be	-0.27935594
187	0xbd6294b3	-0.055317592
188	0xbcbfd7b5	-0.023418287
189	0xbc1e2125	-0.009651457
190	0xbd470769	-0.04859105
191	0xbe4835ce	-0.19551775
192	0xbdb8f2da	-0.09030695
193	0x3ca639e2	0.020291273
194	0x3d046e9d	0.03233205
195	0xbe58aa6c	-0.21158761
196	0xbe536ac5	-0.20646198
197	0x3c6b5850	0.014364317
198	0xbe4fd6fc	-0.20296854
199	0xbde30f14	-0.1108686
200	0x3dd396ff	0.103315346
201	0xbd5fa386	-0.054599307
202	0xbdb67446	-0.08908896
203	0xbe9f0c13	-0.310639
204	0xbd75d332	-0.060015865
205	0x3e0e118b	0.1387388
206	0xbd9d4aaf	-0.076802604
207	0xbe4a4e19	-0.19756354
208	0xbe9142c1	-0.28371242
209	0x3cc1dc2d	0.023664558
210	0x3c3f900a	0.011692056
211	0xbe75346b	-0.23945777
212	0xbe1fc9a5	-0.15604265
213	0xbe6dea37	-0.23233877
214	0x3ccd035e	0.02502602
215	0x3d29e3ec	0.04147713
216	0xbde22a93	-0.11043277
217	0xbd9e6db5	-0.07735769
218	0xbdb24fd4	-0.08706632
219	0x3dd0f5bc	0.1020312
220	0xbe50a93e	-0.20377061
221	0xbe4ade9c	-0.19811481
222	0x3c8f9a53	0.017529642
223	0x3e645ac9	0.22300257
224	0x3f016191	0.505395
225	0x3e8c700c	0.27429235
226	0xbe38d225	-0.18048914
227	0xbea636e0	-0.3246374
228	0xbc709a06	-0.01468516
229	0xbdc92c81	-0.098229416
230	0x3e27d8ba	0.16391268
231	0x3dcce8b0	0.10005319
232	0xbe1f1f5b	-0.15539305
233	0xbe4c2f47	-0.1993991
234	0xbe606e9b	-0.21917193
235	0x3db65017	0.08901995
236	0x3de04216	0.10950105
237	0xb98487ce	-0.00025278184
238	0xbe94b0e5	-0.2904121
239	0xbde531fa	-0.11191173
240	0xbe1403fe	-0.14454648
241	0x3e91239c	0.2834748
242	0xbe74d66d	-0.23909922
243	0xbdb4a001	-0.08819581
244	0xbdd88677	-0.10572522
245	0xbe53f98d	-0.20700665
246	0x3e0a8959	0.13528956
247	0xbdee025c	-0.11621544
248	0xbe4b8e69	-0.19878544
249	0x3c296c2b	0.010340731

bias f4 [10]
0	0xbf0f44c6	-0.55964315
1	0xbf4ebfe7	-0.8076157
2	0xbf54f5a5	-0.83187324
3	0xbf0988f3	-0.5372459
4	0xbf447d69	-0.7675386
5	0xbf1b9fd1	-0.60790735
6	0xbf669749	-0.9007459
7	0xbe8c4bfc	-0.2740172
8	0xbf5a4a48	-0.85269594
9	0xbf371319	-0.71513516

weight f4 [20, 10, 5, 5]
0	0xbd50631e	-0.050875776
1	0xbe328b9e	-0.17436072
2	0x3ca2b076	0.019859534
3	0xbdb81258	-0.08987874
4	0xbcd74a03	-0.026280409
5	0xbcce1fc3	-0.02516163
6	0xbcff5737	-0.031169517
7	0x3da12b4a	0.07869585
8	0x3dac1aae	0.08403526
9	0x3d55eb24	0.0522262
10	0x3e7f41c2	0.24927428
11	0x3c00702d	0.007839245
12	0xbe32e386	-0.17469606
13	0x3d1ce72e	0.038306408
14	0x3d1c6ec3	0.038191568
15	0x3d979f89	0.07403476
16	0x3d1817b6	0.037131988
17	0xbcbd5964	-0.023113914
18	0xbe09dba8	-0.13462698
19	0xbb77d604	-0.0037816772
20	0x3d87357d	0.06601999
21	0x3dde01d0	0.108401895
22	0xbd2aab02	-0.041666992
23	0xbbcbae5a	-0.0062158527
24	0x3d6fba49	0.058527265
25	0xbd500f9b	-0.050796133
26	0x3da34dd9	0.07973833
27	0xbd911f82	-0.07086088
28	0xbd1d8bda	-0.03846345
29	0xbd0a7f65	-0.0338129
30	0xbd8a00c5	-0.06738428
31	0x3dcc80ae	0.09985481
32	0xbdb64eec	-0.08901772
33	0xbd0c2af1	-0.03422064
34	0xbdc5e893	-0.09663501
35	0x3c0c741d	0.008572605
36	0x3dd4d465	0.103920735
37	0xbd58bca7	-0.052914288
38	0xbe348dd5	-0.1763223
39	0x3d4cbb03	0.049983036
40	0x3e4e9dd2	0.20177391
41	0x3e2fb84e	0.1716015
42	0xbd143da9	-0.036191616
43	0xbe797a75	-0.2436312
44	0x3b40bffb	0.0029411304
45	0x3d2634c3	0.04057766
46	0xbd3801a3	-0.044923436
47	0xbe1e80bb	-0.15478794
48	0x3a1c3626	0.00059589965
49	0xbc95b025	-0.018272469
50	0x3bc469a5	0.005994039
51	0x3dec701d	0.115448214
52	0x3df44994	0.119280964
53	0xbe1fe2c2	-0.15613845
54	0x3dbac6b5	0.091199316
55	0x3d379b60	0.04482591
56	0xbcad3cd4	-0.02114717
57	0x3dbbc549	0.091684885
58	0x3c306188	0.010765441
59	0x3db39ee7	0.087705426
60	0x3d0ce163	0.034394633
61	0x3dbeccf4	0.093164355
62	0xbcead6f7	-0.028666956
63	0xbd092f72	-0.033492513
64	0x3da8b843	0.0823827
65	0xbde6ee08	-0.112758696
66	0xbe2fe117	-0.17175709
67	0x3c6504eb	0.013978223
68	0x3e33271a	0.17495385
69	0x3e9dbc8c	0.30807912
70	0x3e66ec87	0.22551166
71	0xbe05d31a	-0.1306881
72	0x3d730801	0.059333805
73	0xbdd5fa8e	-0.1044818
74	0xbd54e009	-0.05197147
75	0x3b5ad94c	0.003339368
76	0x3b2628d4	0.0025353925
77	0xbdfc4d3b	-0.12319418
78	0xbe58337f	-0.21113394
79	0xbe375d3e	-0.17906663
80	0xbb9a4bc0	-0.004708737
81	0xbd6ea317	-0.058261003
82	0xbdb2c245	-0.0872846
83	0xbcad6650	-0.02116695
84	0x3c980660	0.018557727
85	0xbe52c4d8	-0.20582902
86	0xbde57de1	-0.1120565
87	0xbd58b59d	-0.052907575
88	0xbe1de2d6	-0.15418562
89	0x3c976519	0.018480824
90	0xbe278baf	-0.16361879
91	0xbc8df127	-0.017326904
92	0xbdbbf19c	-0.09176943
93	0xbdf2f06d	-0.11862264
94	0xbda15d90	-0.07879174
95	0xbe229cb9	-0.15880097
96	0xbd5aca18	-0.053415388
97	0xbe3b35cc	-0.1828224
98	0xbe243c38	-0.16038597
99	0xbaf20741	-0.0018465297
100	0xbc894042	-0.016754273
101	0x3db2a3df	0.08722662
102	0x3e4b1ef4	0.19836026
103	0xbd6deb75	-0.058085877
104	0xbdfc6553	-0.123240136
105	0xbe216733	-0.15762024
106	0x3de8d653	0.11369004
107	0x3e46f523	0.1942945
108	0xbd8e35e0	-0.069438696
109	0xbd167b8e	-0.036738925
110	0xbbe990c3	-0.0071278526
111	0xbc522e8d	-0.012828481
112	0x3d3e39b3	0.046441745
113	0xbde3a61d	-0.11115668
114	0xbd74ccd9	-0.05976567
115	0xbda67f76	-0.0812978
116	0xbe6e25b7	-0.23256575
117	0xbe7727c8	-0.24136269
118	0xbd110554	-0.035405472
119	0xbc3ba72d	-0.011453432
120	0xba5ef2ce	-0.00085048086
121	0xbe0b74d2	-0.13618782
122	0xbcde954a	-0.027170796
123	0xbe1dd018	-0.15411413
124	0x3cc4c677	0.024020417
125	0xbd6c12a8	-0.05763498
126	0xbdf31168	-0.11868554
127	0xbd9b7d3d	-0.07592247
128	0xbd2e26ee	-0.042517595
129	0x3e73266b	0.23745124
130	0x3d4f1bf0	0.050563753
131	0xbdc12049	-0.09429986
132	0xbe1ecae9	-0.15507092
133	0xbd7ba112	-0.061432905
134	0x3e94ecf1	0.29087022
135	0x3d962f03	0.073331855
136	0xbd2165b4	-0.039403632
137	0xbdd5ea32	-0.1044506
138	0xbb3b9b83	-0.0028626628
139	0xbc26d164	-0.010181759
140	0x3d446219	0.047945116
141	0xbe21f4c2	-0.15816024
142	0xbd4c0fc0	-0.049819708
143	0xbdcd842d	-0.10034976
144	0x3dca2676	0.09870617
145	0xbdc80d68	-0.09768182
146	0xbd526199	-0.051362608
147	0x3d8ae8a1	0.06782652
148	0xbdf86a7d	-0.12129686
149	0x3d6c70b2	0.057724662
150	0x3d1bddf6	0.038053475
151	0x3cb89d73	0.022536015
152	0xbb5daa1d	-0.003382332
153	0x3d874a4b	0.06605967
154	0x3db8db81	0.09026242
155	0x3dfa6dea	0.12227996
156	0xbc2ac50e	-0.010422958
157	0xbe76a27b	-0.24085419
158	0xbca0bd92	-0.019621644
159	0x3e3a9332	0.18220213
160	0x3e792904	0.24332052
161	0x3de783d8	0.11304444
162	0xbe3d4404	-0.18482977
163	0xbdcec41f	-0.10096001
164	0x3d62703a	0.05528281
165	0x3dea8eb6	0.11453001
166	0xbdd89c5c	-0.10576698
167	0xbe3384a2	-0.17531064
168	0xbdbb7da1	-0.09154821
169	0x3e183bbd	0.14866538
170	0xbdbd3554	-0.09238687
171	0xbe574b6f	-0.2102487
172	0xbe5fbfd6	-0.21850523
173	0xbe4f764e	-0.20259973
174	0xbdcab2dd	-0.09897397
175	0xbd10d26d	-0.035356928
176	0xbb73ddc7	-0.0037211047
177	0xbd36d2f2	-0.044634767
178	0xbdf09d83	-0.11748793
179	0xbd8f342d	-0.069923736
180	0xbd917da6	-0.07104044
181	0x3bee58ac	0.007273754
182	0xbde941ac	-0.11389479
183	0xbc944f9a	-0.018104363
184	0x3d84b2a2	0.06479384
185	0xbd1f1757	-0.038840618
186	0xbda99b0c	-0.08281526
187	0xbdadb4ee	-0.08481775
188	0x3d349b2e	0.044093303
189	0x3b953eca	0.004554604
190	0xbe3b4af0	-0.18290305
191	0xbdeeb789	-0.116561
192	0xbdd073a8	-0.1017831
193	0xbd6e7aa2	-0.05822242
194	0x3cb01d4b	0.021498343
195	0xbe300885	-0.1719075
196	0xbe0bd5b9	-0.13655747
197	0x3d633edf	0.05547988
198	0xbe021540	-0.12703419
199	0xbc20399c	-0.00977936
200	0xbd8d2a13	-0.06892791
201	0xbe413367	-0.18867265
202	0x3d2d1bfe	0.042263024
203	0x3dfded15	0.123987354
204	0xbe29bd3b	-0.16576092
205	0x3e218ecc	0.15777129
206	0x3da47921	0.08030916
207	0xbc8ebdaa	-0.017424423
208	0xbdc59b2f	-0.096487395
209	0xbdc2e560	-0.09516406
210	0x3e0cff30	0.13769221
211	0x3b141839	0.0022597446
212	0xbdca7165	-0.098849095
213	0xbe22d891	-0.15902926
214	0xbe27111f	-0.16315125
215	0xbe26927f	-0.16266821
216	0x3d11c090	0.035584033
217	0xbda234d2	-0.07920231
218	0xbd726c00	-0.059185028
219	0xbd974b83	-0.073874496
220	0x3d1a0d5a	0.03761039
221	0xbe00e04c	-0.12585562
222	0xbd6bf03f	-0.057602163
223	0x3da45703	0.08024409
224	0x3de7613e	0.11297844
225	0xbea832ae	-0.32851166
226	0xbd9202e3	-0.07129457
227	0x3d8c66bb	0.06855532
228	0xbe029fc6	-0.12756261
229	0xbcad0b07	-0.021123422
230	0xbdd764a2	-0.10517241
231	0xbdb83a1c	-0.089954585
232	0xbd5c754b	-0.053822797
233	0x3cfb2975	0.030659417
234	0xbd056911	-0.032570902
235	0xbd81eadc	-0.06343624
236	0xbe28d46e	-0.16487285
237	0x3c852944	0.016255029
238	0x3d720345	0.05908515
239	0x3de960fb	0.11395451
240	0xbd82d8b6	-0.063889906
241	0xbe094ec1	-0.13408948
242	0xbbd11acb	-0.006381368
243	0xbd4ce20f	-0.050020274
244	0x3e0c24b1	0.13685872
245	0x3e3fba89	0.18723501
246	0x3e0bf212	0.13666561
247	0x3d0fc5e6	0.03510084
248	0x3d8d45c1	0.0689807
249	0xbd3612e9	-0.044451628
250	0x3d5fa627	0.054601815
251	0xbd5d9bb2	-0.05410356
252	0xbdb4c85b	-0.08827277
253	0xbd98d50b	-0.0746251
254	0xbdb68b5a	-0.08913298
255	0x3d29cd54	0.04145558

bias f4 [20]
0	0x3d8d3680	0.06895161
1	0x3c7b10a4	0.015323792
2	0xbd88e717	-0.06684702
3	0xbd4f2a27	-0.05057731
4	0x3d9a744f	0.07541715
5	0xbdb3d979	-0.08781714
6	0x3b9a27e5	0.004704463
7	0xbe31306e	-0.1730363
8	0xbd90ea48	-0.070759356
9	0xbd6d6fe6	-0.057968043
10	0xbb5734fd	-0.003283798
11	0xbd834eac	-0.0641149
12	0x3bc9d2fb	0.006159184
13	0x3ab34ab7	0.0013678883
14	0xbd9699d0	-0.07353556
15	0xbe019731	-0.12655331
16	0xbe0bdb4f	-0.13657878
17	0x3cfa1ade	0.03053039
18	0xbe10d942	-0.14145377
19	0xbddf03f2	-0.108894244

weight f4 [50, 320]
0	0xbe2d70ee	-0.1693761
1	0x3e1a32e3	0.15058474
2	0xbd52b37e	-0.05144071
3	0xbe1eb261	-0.15497734
4	0x3cd8cf94	0.026466168
5	0x3d8b43b0	0.0680002
6	0x3c515ad7	0.012778006
7	0xbc9099e9	-0.017651515
8	0xbd1ca844	-0.038246408
9	0x3dba395b	0.09092971
10	0x3d1e3dc5	0.038633127
11	0x3de1b5c7	0.110209994
12	0x3db2b91b	0.08726712
13	0xbd47c2f6	-0.048769914
14	0x3c0e3e00	0.008681774
15	0x3d486df7	0.048932996
16	0x3cc56520	0.024096072
17	0xbe0db274	-0.13837606
18	0xbc79d171	-0.015247689
19	0x3e17a27f	0.14808081
20	0x3c9cf940	0.01916182
21	0x3bf6d8cf	0.00753317
22	0x3bcefefd	0.006317018
23	0xbc9b0d46	-0.018927228
24	0x3db83d7d	0.08996103
25	0x3d18f6ee	0.037344866
26	0x3d0ddd39	0.034634802
27	0xbe04b918	-0.12961233
28	0x3d8f2865	0.069901265
29	0xbd909f18	-0.07061595
30	0xbd46c69a	-0.048529245
31	0xbb22f7d9	-0.0024866967
32	0xbdc49ed2	-0.09600605
33	0x3d5ca6a7	0.05386987
34	0x3da5dbfd	0.080986
35	0x3c84d337	0.016213996
36	0xbc4cf748	-0.012510128
37	0xbdd1021c	-0.102054805
38	0xbd983aa6	-0.07433061
39	0x3b1579c4	0.0022808174
40	0x3d981d58	0.07427472
41	0xbce2c01c	-0.027679496
42	0x3c98479d	0.018588835
43	0xbdb2921e	-0.08719276
44	0xbe0c2a80	-0.13688087
45	0xbd4a1ed6	-0.049345814
46	0xbbf72f7c	-0.0075435024
47	0xbcc9175c	-0.024547271
48	0x3d3fef5b	0.046859127
49	0x3dde60db	0.108583175
50	0x3dee98fb	0.116502725
51	0xbe170448	-0.14747727
52	0xbd5d27e7	-0.053993132
53	0xbd21122c	-0.03932397
54	0x3d3aa544	0.045567766
55	0x3dd1f658	0.102520645
56	0xbd7f41aa	-0.06231848
57	0xbd2759df	-0.040857192
58	0xbe151136	-0.14557347
59	0x3b2ae3f5	0.0026075814
60	0xbd3b59d7	-0.045739975
61	0xbc20eaa7	-0.0098215705
62	0xbdb8cb6e	-0.09023176
63	0xbe051971	-0.12997986
64	0x3dd8d3d6	0.105872795
65	0x3bb2b8da	0.005454165
66	0xbd0bc635	-0.03412457
67	0x3e242c2e	0.16032478
68	0x3df72930	0.12068403
69	0xbe0bcb70	-0.13651824
70	0xbde35197	-0.110995464
71	0xbdad4bb8	-0.08461708
72	0xbc6ab70a	-0.0143258665
73	0xbd0a0aee	-0.03370183
74	0xbce2bb79	-0.027677285
75	0x3daf863e	0.085705265
76	0xbd8805de	-0.06641744
77	0xbd86b607	-0.06577688
78	0xbd95e3c2	-0.07318832
79	0xbd630fc4	-0.055434957
80	0x3d1a3269	0.03764573
81	0xbbe22895	-0.0069018104
82	0x3d4bf29d	0.04979192
83	0x3d518fc0	0.05116248
84	0xbd7b8323	-0.06140436
85	0x3c87644d	0.01652732
86	0xbc9abf02	-0.018889908
87	0x3e28787f	0.16452216
88	0x3dabedcc	0.083949655
89	0xbd7570db	-0.05992208
90	0xbe0a3541	-0.13496877
91	0xbd1fd0f5	-0.039017636
92	0x3d8d3e8c	0.068966955
93	0xbd86e9cf	-0.06587564
94	0xbde86cb3	-0.11348858
95	0xbc61e9a2	-0.013788613
96	0x3d803fb9	0.06262154
97	0xbb91746b	-0.004438927
98	0x3b625ce0	0.003454022
99	0x3d041dbb	0.032254916
100	0x3cfbbbae	0.030729141
101	0x3d094e25	0.03352179
102	0xbb3c634f	-0.0028745716
103	0x3d1793a7	0.037006047
104	0xbc02bd28	-0.007979669
105	0x3c9321f9	0.017960535
106	0x3cfaf2e9	0.030633407
107	0xbc92643f	-0.017870067
108	0xbd891e4a	-0.0669523
109	0x3d4103a0	0.047122598
110	0x3cd360be	0.025802966
111	0xbcab72a5	-0.02092869
112	0xbde01d5f	-0.10943102
113	0xbd921189	-0.07132251
114	0x3d226076	0.039642774
115	0x3b31a60a	0.0027107024
116	0xbda6a2c7	-0.08136516
117	0xbd1d3187	-0.03837731
118	0xbd09087a	-0.03345535
119	0x3e2ef42b	0.1708533
120	0xbd246c64	-0.04014243
121	0x3d776c5b	0.06040607
122	0xbdcd95c7	-0.100383334
123	0x3c4a1884	0.012334947
124	0xbc9b4a81	-0.018956425
125	0x3b3b6ea9	0.0028599894
126	0xbe07cbd5	-0.1326135
127	0xbe8025dc	-0.25028884
128	0xbd61dd53	-0.05514271
129	0x39227086	0.00015491442
130	0x3b9da4f0	0.004810922
131	0xbc89f353	-0.016839659
132	0xbc339bc8	-0.010962434
133	0x3cb7fc0d	0.022459054
134	0x3d0f418f	0.03497463
135	0x3cd7838e	0.026307847
136	0xbb98e7a4	-0.0046662856
137	0x3c5832d7	0.013195715
138	0x3cd2caa4	0.025731392
139	0x3cd0da7c	0.025494806
140	0x39db7330	0.00041856756
141	0xbc3bd957	-0.011465392
142	0x3d869b9b	0.06572648
143	0xbc8b51bc	-0.017006747
144	0x3dbefeca	0.09325941
145	0x3ce97ff0	0.028503388
146	0xbc50c3ae	-0.012741966
147	0xbccfbe14	-0.025359191
148	0xbd51e772	-0.051246114
149	0xbd9011dd	-0.07034657
150	0xbe1af25c	-0.15131515
151	0xbdd16c6d	-0.10225759
152	0x3bf76e20	0.0075509697
153	0x3b3618e7	0.002778584
154	0xbe1c076c	-0.15237206
155	0xbe476fd4	-0.19476253
156	0x3e25f87e	0.16208073
157	0x3d892b1e	0.06697677
158	0xbe385bd7	-0.18003784
159	0xbdf9f2e8	-0.12204534
160	0xbdad9f02	-0.08477594
161	0x3c9dfdfe	0.019286152
162	0xbc1b487d	-0.009477732
163	0xbd22d5c1	-0.039754633
164	0x3c6e9b88	0.014563449
165	0x3defcf25	0.117094316
166	0xbc93c74d	-0.01803937
167	0xbdb08df3	-0.08620825
168	0x3e3de40e	0.18544027
169	0x3d8297b5	0.06376592
170	0x3d5e5158	0.054276794
171	0xbc350745	-0.0110490965
172	0x3c647cb2	0.013945745
173	0xbe29e19a	-0.16589966
174	0xbdd91da1	-0.106013544
175	0x3e5d2828	0.2159735
176	0xbd9ee743	-0.077589534
177	0x3e02075f	0.12698124
178	0xbe0243d1	-0.12721182
179	0xbd41e151	-0.04733402
180	0xbccaf461	-0.024774732
181	0xbb21f770	-0.0024714135
182	0xbdaad32d	-0.0834106
183	0xbd05fb04	-0.03271009
184	0x3dd72a7d	0.10506151
185	0xbd687b0b	-0.056757968
186	0xbd3c46f2	-0.045966096
187	0xbcce9bab	-0.025220713
188	0x3c92d7fa	0.017925251
189	0xbd8cb729	-0.068708725
190	0xbd80eb9f	-0.06294941
191	0x3b82b966	0.0039893864
192	0x3dc4b423	0.09604671
193	0xbd0376c8	-0.0320957
194	0x3c5c89ee	0.013460619
195	0xbdf7faba	-0.12108369
196	0x3de887cf	0.113540284
197	0xbd55de16	-0.05221375
198	0x3d9b90ba	0.07595964
199	0xbd4adeed	-0.049529005
200	0xbdaaa0b3	-0.08331432
201	0xbd55813f	-0.05212521
202	0x3d3379b3	0.043817233
203	0xbb07d995	-0.0020729054
204	0xbce553f1	-0.027994128
205	0x3da47d87	0.08031755
206	0xbd99ed7e	-0.07516001
207	0x3dcb29fe	0.09920119
208	0xbd355d29	-0.044278298
209	0xbd2f73be	-0.04283499
210	0xbc77cd32	-0.015124606
211	0xbd318174	-0.043336347
212	0x3d650102	0.055909164
213	0xbc88a76d	-0.016681397
214	0x3db11d79	0.086481996
215	0xbde153f0	-0.11002338
216	0xbcd2c8c1	-0.025730493
217	0xbd86b095	-0.06576649
218	0x3cf5de0f	0.030013112
219	0xbd8ce864	-0.068802625
220	0xbcb7c0a1	-0.02243072
221	0xbdb6abd6	-0.08919494
222	0x3c8b797c	0.017025702
223	0x3dab4cf4	0.08364287
224	0x3c0d1857	0.00861176
225	0xbb365344	-0.0027820626
226	0xbd3550dc	-0.044266567
227	0x3d393d95	0.045224745
228	0xbd57d48d	-0.05269294
229	0xba872069	-0.0010309342
230	0x3acacee2	0.0015473033
231	0xbc2123d0	-0.0098351985
232	0x3c9e81c4	0.019348986
233	0x3d6252f2	0.055254884
234	0x3cbc0da7	0.022955729
235	0x3d04d091	0.032425467
236	0x3ca87fd2	0.020568762
237	0x3b36194a	0.002778607
238	0x3c004dc1	0.007831038
239	0x3cbf9399	0.02338581
240	0x3d9f4a6e	0.07777868
241	0xbd720c97	-0.059094038
242	0xbdbcd721	-0.0922072
243	0x3dbb5c85	0.09148506
244	0xbd955a9e	-0.072926745
245	0xbde0e733	-0.10981598
246	0xbd04aaf6	-0.032389604
247	0xbdc80fff	-0.09768676
248	0x3e150bb7	0.1455525
249	0x3dbdd2ae	0.092686996
250	0xbd43fc62	-0.047848113
251	0xbda1c9aa	-0.078997925
252	0x3dcfc236	0.10144465
253	0x3e0f8a96	0.1401771
254	0x3d5939d0	0.05303365
255	0xbde5bbab	-0.112174354

bias f4 [50]
0	0x3d50db11	0.050990168
1	0x3d390b58	0.045176834
2	0x3e37921f	0.17926835
3	0x3e45e00f	0.19323753
4	0x3d296c89	0.041363273
5	0x3e162d6c	0.14665765
6	0x3e8a06f0	0.26958418
7	0x3d5c7cec	0.053830072
8	0x3d952fb6	0.07284491
9	0x3d2ae821	0.04172528
10	0x3e4ec357	0.20191704
11	0x3ddeb6ba	0.10874696
12	0x3e059422	0.1304479
13	0x3dfc4208	0.12317282
14	0x3e3092d4	0.1724351
15	0x3e40b916	0.18820605
16	0x3e6b460f	0.22975944
17	0x3e10e3dc	0.14149421
18	0x3e15dfe5	0.1463619
19	0x3e0632fe	0.1310539
20	0x3e5f352e	0.2179763
21	0x3dc7e711	0.09760869
22	0x3e024c4a	0.12724414
23	0xbdd4a23f	-0.103825085
24	0xbd892a18	-0.06697482
25	0x3dc8433d	0.0977845
26	0x3d24dfee	0.04025262
27	0x3dbd147a	0.09232421
28	0x3d49201d	0.04910289
29	0x3e4bb89a	0.19894639
30	0x3e6f6e16	0.23381838
31	0x3dd5d3ba	0.10440774
32	0x3e76ba19	0.24094428
33	0x3dc88bea	0.097923115
34	0x3df184a1	0.11792875
35	0x3eb89900	0.3605423
36	0x3d8b5d30	0.068048835
37	0xba89d8dd	-0.0010516901
38	0xbcbc7318	-0.0230041
39	0x3e1f19ca	0.15537181
40	0xbd5bb8f0	-0.053643167
41	0xbd622f59	-0.055220935
42	0xbd2fb23a	-0.04289458
43	0x3d27a60e	0.040929846
44	0x3d7ec2c0	0.062197447
45	0x3c85d681	0.016337635
46	0x3e7c8a5a	0.24662152
47	0x3ad1c4d1	0.001600409
48	0x3d2c1658	0.042013496
49	0x3df5cf57	0.120024376

weight f4 [10, 50]
0	0xbeac32f0	-0.33632612
1	0x3da66f54	0.08126703
2	0xbe737da7	-0.23778401
3	0xbeae0b68	-0.33993077
4	0x3c22a409	0.009926804
5	0x3c92a52a	0.017901022
6	0xbef9745a	-0.48721582
7	0xbe919e96	-0.28441304
8	0xbe893546	-0.26798457
9	0xbee62363	-0.44948873
10	0xbe9766f3	-0.29570732
11	0xbed15e3f	-0.40892217
12	0xbf0110c3	-0.504162
13	0xbd8d74b3	-0.06907024
14	0x3d4617fa	0.04836271
15	0xbeba1c82	-0.36349875
16	0xbe301a1e	-0.17197463
17	0x3cbc212c	0.022965036
18	0xbda15fe5	-0.078796186
19	0x3d0b0241	0.033937696
20	0xbeff3808	-0.49847436
21	0xbe7d5284	-0.24738508
22	0xbeb3687e	-0.3504066
23	0xbf065baa	-0.5248362
24	0xbf051de8	-0.5199876
25	0x3d1efd25	0.038815636
26	0xbec00a5b	-0.375079
27	0x3d513f8c	0.051085994
28	0xbd2cf85e	-0.04222905
29	0x3d906be1	0.07051826
30	0x3cab6618	0.020922706
31	0xbd66d5ed	-0.05635636
32	0xbedd7a90	-0.4325757
33	0x3da437f1	0.080184825
34	0x3d909abe	0.07060765
35	0xbec476d2	-0.38371903
36	0xbed97e28	-0.42479062
37	0xbec3b7bb	-0.38226113
38	0xbe12aa96	-0.14322886
39	0xbf178876	-0.591926
40	0xbeb2f7bb	-0.34954628
41	0xbdf5bc3a	-0.11998792
42	0xbf0775a4	-0.5291388
43	0x3d58b9dd	0.052911628
44	0x3cc4da06	0.024029743
45	0xbe71d3d4	-0.23615962
46	0x3ca9b2f7	0.02071522
47	0x3d5d0a8f	0.053965148
48	0xbe3f1829	-0.1866156
49	0x3d0e7d7e	0.034787647
50	0xbdba8ba5	-0.09108666
51	0xbad473b5	-0.00162088
52	0xbd54888e	-0.05188804
53	0xbeca889d	-0.39557353
54	0xbe733b74	-0.23753148
55	0xbee82ed2	-0.4534822
56	0xbc21cc06	-0.009875303
57	0xbe813647	-0.25236723
58	0xbe04acc9	-0.12956537
59	0xbd004838	-0.031318873
60	0x3b0410c6	0.00201516
61	0xbee23c63	-0.44186696
62	0x3d8d1397	0.06888502
63	0xbe8df2f0	-0.2772441
64	0xbed9454d	-0.42435685
65	0xbe7bee1e	-0.24602553
66	0xbe891a02	-0.26777655
67	0x3d09d19b	0.03364716
68	0xbeedeb36	-0.46468514
69	0xbecfffbc	-0.40624797
70	0xbd4784e6	-0.048710726
71	0x3dcfddfa	0.101497605
72	0xbe989e3c	-0.29808223
73	0xbe6a3eaa	-0.22875467
74	0xbcb41091	-0.021980556
75	0xbe306fcb	-0.17230146
76	0x3d89e68f	0.06733429
77	0xbdec7342	-0.11545421
78	0xbebe74b6	-0.37198418
79	0xbeab7138	-0.33484817
80	0xbed21357	-0.4103038
81	0xbe4e5249	-0.20148577
82	0x3d669baf	0.056300815
83	0xbdbb295f	-0.0913875
84	0xbe8dd7e3	-0.2770377
85	0x3d6a41eb	0.05719177
86	0x3dd6e426	0.104927346
87	0x3d2d0a6f	0.04224628
88	0xbea57f5c	-0.3232373
89	0x3cb1f556	0.02172343
90	0xbee6f3ba	-0.45107824
91	0xbea3984f	-0.3195214
92	0x3dc3e452	0.09565033
93	0x3e7a957e	0.24471089
94	0xbe5497d2	-0.2076104
95	0x3d9db29f	0.07700085
96	0xbeac3365	-0.3363296
97	0xbe964dec	-0.29356325
98	0xbed87b6c	-0.42281663
99	0x3d907fc6	0.07055621
100	0xbe3f1eee	-0.18664142
101	0xbeb2b465	-0.34903255
102	0xbd80a711	-0.062818654
103	0xbde36dd7	-0.11104935
104	0x3c06bd05	0.008223777
105	0xbed2966b	-0.41130385
106	0x3a910d4d	0.0011066586
107	0xbdc519d2	-0.096240655
108	0xbd4640e0	-0.048401713
109	0xbeb44c6f	-0.35214564
110	0x3c50b8d7	0.012739382
111	0x3d0d460e	0.034490637
112	0xbd12397f	-0.035699364
113	0xbe1711df	-0.14752911
114	0xbcd40287	-0.025880111
115	0x3d315f51	0.04330379
116	0x3d64cd50	0.055859864
117	0xbeed64c5	-0.46365944
118	0xbcbce53c	-0.023058526
119	0xbedf4cae	-0.4361319
120	0xbb962f67	-0.0045832875
121	0x3d3f30ef	0.046677526
122	0xbd41d0df	-0.047318336
123	0x3da9b602	0.08286668
124	0x3d463ba0	0.048396707
125	0xbe48608b	-0.19568078
126	0xbe9f0281	-0.31056598
127	0xbed731c6	-0.42030162
128	0xbe9f4865	-0.3110992
129	0xbe6334b7	-0.22188078
130	0xbeabd3c1	-0.33559993
131	0xbf167ea8	-0.5878701
132	0x3c5bd00f	0.013416304
133	0xbebf84c4	-0.3740598
134	0xbe598538	-0.21242225
135	0x3dc7a0f2	0.09747495
136	0xbe57517a	-0.21027175
137	0x3cd60eb7	0.026130063
138	0x3dea6ba2	0.114463106
139	0xbe110166	-0.1416069
140	0x3d5d5296	0.05403384
141	0xbee30b04	-0.44344342
142	0x3bda031b	0.006653202
143	0xbf0e483f	-0.5557899
144	0x3defb125	0.117037095
145	0xbeb6f451	-0.35733274
146	0xbebdc2ef	-0.37062785
147	0xbe932eb4	-0.2874657
148	0xbee2e370	-0.44314146
149	0xbeef4e4e	-0.4673943
150	0xbe71daf0	-0.23618674
151	0x3a3400c9	0.0006866572
152	0xbe0d6ec3	-0.13811783
153	0xbeca22b3	-0.39479598
154	0xbefe8d21	-0.49717048
155	0x3d060af2	0.032725282
156	0x3dbf2df6	0.09334938
157	0x3d4ce88a	0.050026454
158	0xbde96c11	-0.11397565
159	0xbea8df50	-0.32982874
160	0xbf1617a8	-0.58629847
161	0xbc20b68e	-0.009809149
162	0xbcb44773	-0.022006726
163	0x3cf2c2a9	0.029633837
164	0xbeb133f0	-0.34609938
165	0xbb4a1ecc	-0.003084111
166	0x3daeffef	0.08544909
167	0xbf18577c	-0.5950849
168	0x3cb1a0f4	0.021683194
169	0x3d3014f7	0.042988744
170	0x3dea8979	0.11452002
171	0xbe49992d	-0.19687338
172	0xbee25e02	-0.44212347
173	0xbec2adb4	-0.3802315
174	0xbefed1ae	-0.49769348
175	0x3d8fbf8c	0.070189565
176	0xbcda24a1	-0.026628794
177	0xbecda1aa	-0.40162402
178	0xbcff1748	-0.031139031
179	0xbd35de9d	-0.044401754
180	0xbe79bb76	-0.24387917
181	0xbee10426	-0.43948478
182	0xbec7a651	-0.38994077
183	0xbef155a2	-0.47135645
184	0xbf012f78	-0.50463057
185	0x3e0816c5	0.13289936
186	0x3da4fe44	0.0805631
187	0xbf131d0f	-0.57466215
188	0xbeba3c60	-0.36374187
189	0xbeaa0883	-0.3320962
190	0xbe302023	-0.17199759
191	0xbf14d87b	-0.58142823
192	0xbec5d245	-0.38636985
193	0xbefc473e	-0.49273103
194	0xbe86c364	-0.26320946
195	0xbe801550	-0.2501626
196	0x3d7b7287	0.06138852
197	0x3d05438d	0.032535125
198	0x3c7ae1c8	0.0153126195
199	0xbda17206	-0.07883076
200	0x3e0b5748	0.13607514
201	0xbdf70090	-0.12060654
202	0xbe93f774	-0.2889973
203	0x3d1c28ac	0.038124725
204	0xbed56ec9	-0.41686085
205	0x3d8a7e44	0.067623645
206	0x3d0d59eb	0.03450958
207	0xbcdea5bf	-0.027178643
208	0xbeacf653	-0.3378168
209	0xbdfc4eb4	-0.12319699
210	0xbc8d605f	-0.017257867
211	0x3d9e9f52	0.07745232
212	0xbf1c1314	-0.6096661
213	0xbd099ace	-0.0335949
214	0x3d8d9a01	0.069141395
215	0xbecad7dc	-0.39617813
216	0x3daf4147	0.085573725
217	0x3d71b337	0.059008803
218	0xbeb19ac4	-0.3468839
219	0xbc7074fa	-0.014676327
220	0xbe7b62c4	-0.24549395
221	0xbdaab787	-0.08335786
222	0xbdbd9c25	-0.09258298
223	0xbe829b0b	-0.25508913
224	0xbed6d135	-0.41956487
225	0x3df5a4ac	0.11994299
226	0xbed5f47f	-0.41788098
227	0x3e0e12e0	0.13874388
228	0xbe97960e	-0.2960667
229	0xbcae2479	-0.021257626
230	0xbe4ffb83	-0.20310788
231	0xbe2e7a4f	-0.17038845
232	0x3dd2ab4f	0.10286581
233	0x3c765bf3	0.015036571
234	0xbca72860	-0.020404994
235	0xbf020313	-0.5078594
236	0xbe1398d8	-0.14413774
237	0xbeaa57c4	-0.33270085
238	0xbea90471	-0.330112
239	0xbee13ff3	-0.43994102
240	0xbeab79bf	-0.33491322
241	0xbe7b0c60	-0.2451644
242	0x3da00ea3	0.07815292
243	0xbea22da9	-0.3167546
244	0xbc79cb90	-0.015246287
245	0xbea3dbac	-0.32003534
246	0xbdc938c3	-0.098252796
247	0x3a1eae64	0.0006053208
248	0xbeaf2d5a	-0.34214288
249	0x3d468ff3	0.048477124
250	0x3e1a7eb4	0.15087396
251	0x3d7711fb	0.060319882
252	0xbed52c99	-0.41635588
253	0xbe29fd49	-0.16600527
254	0xbe9937a1	-0.29925254
255	0x3cec4648	0.028842106

bias f4 [10]
0	0x3e027409	0.12739576
1	0xbcdc82f4	-0.026917912
2	0xbe0a6cd8	-0.13518083
3	0x3dc610a4	0.09671143
4	0x3d3a0870	0.045418203
5	0x3db549e0	0.08851981
6	0x3d87164a	0.06596048
7	0x3b57c110	0.003292147
8	0x3de9df26	0.11419515
9	0xbda3f0b5	-0.080048956
