artifact_store/13/4cba1452ed244ea48fd101d9c9034fc1/artifacts/model/data/model.pth (torch_old, 92235 bytes, 8 tensors)

weight f4 [10, 1, 5, 5]
00000000: ea55 51be d485 423e c8bb cdbe e78c 3b3d
00000010: dd89 a03e e2d3 813d 2ab9 9f3e a472 8b3e
00000020: 8f00 90bd aa0d db3c 1c6f ccbe 301f ef3d
00000030: b945 613d cc9d 9e3d 7e78 b4bd 2220 91be
00000040: d82e 68be a044 f2bd fbff 96be b5b2 debd
00000050: 3c3d 81bd b3ef 8dbe 220d 70be 7346 41be
00000060: db2e 89be 52da 64be abc1 f4bd df36 17be
00000070: 5907 40be 2d28 4abe 64c3 3dbe 6af5 51bd
00000080: 9a3f aa3b e970 9dbd c595 3abd 510c 8bbd
00000090: 3459 55bd 41b4 19be eb19 08be 478f debc
000000a0: 9daf 0bbe f8a1 633d 7abe c5bc bfdc 33be
000000b0: 8f5a 2cbc 8e30 01be fe31 31be 6d36 ecbd
000000c0: 29fd 1cbe 4d69 94bd d68c 7d3e 3fdf 353e
000000d0: 2708 983e e7d7 883d df48 02be 83f7 e43c
000000e0: 647c 6a3e 5e4e 60bd cc1c 0fbd 121e bbbd
000000f0: 1b09 b5be fefb 29be 9eb1 00be e65e 8fbe
00000100: c589 67be 07bc 7bbe 43e4 abbe 7ed4 e2be
00000110: 733e afbd b373 8bbd 1aee 9b3c 6130 7fbd
00000120: a0a7 823d d796 a9bd 64c8 15be cc72 b8bd
00000130: ec64 ad3d 090b afbd e01c 3fbe 283d 9cbe
00000140: b476 25be e599 b2bc a645 933e 951c 17be
00000150: f11d 5abe 49d9 6bbe 8e47 7abd 673e b73e
00000160: 6e3a 023e d48c 8fbe 09c2 8fbd 68b6 9ebe
00000170: 27d0 33bc 014f 833e 8748 ed3c fa72 adbd
00000180: 2faa 4fbe e8ca 6fbe 170d 9ebd 5c17 073e
00000190: 5afb 293e 64fb 813d aef4 29be 0665 84be
000001a0: da05 90bd 02a2 bc3d fbb1 44be 6026 7dbe
000001b0: 48a9 fabd 27ae 68bd 8230 fdbd 800d 46be
000001c0: 4aa4 1cbe d37f 17be d6f7 d23d fe28 f8bd
000001d0: 28fb abbd 9719 48be fccd 93bc 2c39 d13d
000001e0: 9c0c a8be ccf4 40be 1306 a4bd b8fe 173d
000001f0: 6eed 463d 8bd1 ec3c 76e1 823d dd9d bdbd
00000200: ef0d c1be 4290 45bd 462a fbbe 8013 0bbf
00000210: 410a a3be 0e98 38be a73b 553d 30e2 32be
00000220: 50d2 523d 8129 273d 06cd 92be a1f0 493e
00000230: 5e88 a0bd 2e71 25be dad0 28be d541 0bbe
00000240: 7217 a63d 0238 673d aff4 ba3e 765e bf3e
00000250: 988b 793c 6623 363e f458 cf3e e0a3 893c
00000260: f8a2 cdbe 93ae e0be d627 763c f88e 913d
00000270: 3740 f3bd 269d b8be b9a1 11bd d67a ebbd
00000280: a183 40be b607 7a3e d0d7 f3bc 96ae 1f3e
00000290: 3125 033e 358c 9b3d a661 f8bd a715 9d3e
000002a0: 189f c6bc 578c 8ebe 4e3f 30be 4539 26be
000002b0: 4183 4c3e f148 a23e 775e 96be fb5f 42be
000002c0: f6d0 01be 1954 f3bd ade0 263d 3d94 543e
000002d0: a8ff 16be cf76 5bbd 5da4 86be 4c52 1cbe
000002e0: 69ff ca3d c1fe 71be 9017 c2bd 286f a9bd
000002f0: d6f1 4abe 6b11 9bbd 813c 983c 12aa a6bd
00000300: b7b4 74be 9464 fdbd 577a 61bc 43d5 803e
00000310: dda5 2e3e 0db4 73bd 93bd 1fbe 2511 8cbe
00000320: 1f4a f33c 87b3 89bd bd60 8abd bf0f a03e
00000330: ee36 753d 0eb0 1dbe af08 80be a0d4 8fbe
00000340: c535 febd b029 7b3e 8889 07bf 70e5 82be
00000350: 5e87 913e 5bc5 35be 7663 503e 41c4 0bbe
00000360: fe25 8e3e 4977 13be 8269 85bd 3cb9 c0bd
00000370: 3794 463d 8753 c33d 5bff 26be 0128 0c3c
00000380: f513 c13c a8f0 0abd f569 103e b0bb 39be
00000390: b247 c0be 96f7 8b3e 6b72 bb3c fbd8 6bbd
000003a0: e4db 033e 08ff 09be 37fa 29be ced4 6e3b
000003b0: 6690 e73c 54a0 23bd de65 8dbe 6bbf ee3d
000003c0: d17a d0be 25ee 803e 90d7 eabc 4180 89be
000003d0: 24b7 3c3e b3eb 07be b49e 193c 69eb f5bd
000003e0: 91dc 4ebe 4cd2 d23e
-0.2044293 0.18996364 -0.40182328 0.04578867 0.3135518 0.063392416 0.31195956 0.272359
-0.070313565 0.026739914 -0.3992852 0.116758704 0.054998133 0.07744941 -0.088120446 -0.28344828
-0.2267412 -0.118294954 -0.29492173 -0.108739294 -0.06310508 -0.27721938 -0.2344251 -0.1887453
-0.2679356 -0.22348908 -0.11951002 -0.14767025 -0.18752803 -0.19741888 -0.18531567 -0.051259436
0.00519557 -0.076875515 -0.045552988 -0.067894585 -0.052087024 -0.15010168 -0.13291137 -0.02716793
-0.1364121 0.055574387 -0.024138678 -0.17564677 -0.010519638 -0.12616178 -0.17304227 -0.115338184
-0.15330948 -0.07246647 0.24760756 0.17760943 0.2969372 0.06681805 -0.1272311 0.027950054
0.22899014 -0.054762237 -0.034939572 -0.09136595 -0.3535851 -0.16600034 -0.12567756 -0.2800209
-0.22611149 -0.24583445 -0.33572587 -0.44302744 -0.08556833 -0.06809177 0.019034434 -0.062301997
0.06379628 -0.082807235 -0.14627224 -0.09006271 0.08466515 -0.08547027 -0.18663359 -0.3051541
-0.16158563 -0.021801898 0.28764075 -0.14756997 -0.21300484 -0.23032106 -0.061103396 0.35789797
0.12717602 -0.2803713 -0.07019431 -0.3099854 -0.01097492 0.25646213 0.028965248 -0.08469196
-0.20279764 -0.23417246 -0.077173404 0.13192505 0.1659979 0.06346777 -0.16597244 -0.25858325
-0.07032366 0.09210588 -0.19208519 -0.2472167 -0.12239319 -0.05680671 -0.12362768 -0.19341087
-0.15297046 -0.14794855 0.10301177 -0.12117194 -0.08397514 -0.19541012 -0.018042557 0.10215983
-0.3282212 -0.18843383 -0.08008971 0.037108153 0.048566274 0.028908512 0.063906595 -0.09258626
-0.37705943 -0.048233278 -0.4905569 -0.5432663 -0.3184376 -0.18026754 0.052058842 -0.17469096
0.0514701 0.040811066 -0.28672045 0.19720699 -0.0783851 -0.16156456 -0.1648592 -0.13599332
0.081099406 0.056449898 0.36514804 0.37376755 0.015231036 0.17786941 0.40497553 0.016801775
-0.40163398 -0.4388319 0.015024146 0.07107347 -0.118774824 -0.36057395 -0.03555462 -0.114980385
-0.18800212 0.24417004 -0.029765993 0.15593943 0.12807156 0.07595102 -0.12128 0.30680582
-0.024245784 -0.27841446 -0.17211649 -0.16232784 0.19971944 0.31696275 -0.29368946 -0.18981926
-0.12677369 -0.11881275 0.04074161 0.20759673 -0.14745963 -0.0535801 -0.26297274 -0.15265769
0.09911997 -0.23632337 -0.094771504 -0.082731545 -0.19818816 -0.075716816 0.018583538 -0.08137907
-0.23897062 -0.123726994 -0.013762078 0.25162706 0.1705546 -0.05949788 -0.1559966 -0.2735683
0.02969843 -0.06723695 -0.067567326 0.31262013 0.05986684 -0.15399191 -0.25006625 -0.28091908
-0.124125995 0.24527621 -0.5294423 -0.25565672 0.2842359 -0.17751066 0.20350441 -0.13649084
0.2776336 -0.14400972 -0.06514265 -0.09410331 0.048481192 0.09537416 -0.16308348 0.00855446
0.023569087 -0.033920914 0.1410292 -0.18138003 -0.375547 0.2733733 0.022881707 -0.057579976
0.1287685 -0.13476193 -0.16599356 0.003644276 0.028267097 -0.039947823 -0.2761678 0.11657604
-0.407187 0.2518169 -0.028667241 -0.26855662 0.18429238 -0.13273506 0.009376217 -0.120077915
-0.20201327 0.4117607

bias f4 [10]
00000000: 028d 43bf b8f9 b4be 7b6e 54bf 147e 34bf
00000010: 07d4 85be 94b6 63bf 78b4 39bf 093a c3be
00000020: 3164 6abf c1e1 33bf
-0.76387036 -0.3534677 -0.8298108 -0.7050488 -0.26138327 -0.8895047 -0.72541 -0.38130215
-0.9155913 -0.7026635

weight f4 [20, 10, 5, 5]
00000000: ff36 f93c 3f92 38bc cc69 9dbd a4b0 2dbd
00000010: 197c 17bd ddfa 203c 6c01 033d a5f0 283c
00000020: 224a a73b 6cfe 933c 1713 c7bd 3061 88bd
00000030: 06c7 973d 7a95 cb3c 545d 1d3e b000 c7bd
00000040: 76e7 90bd f3d2 3a3d 9039 113d 6268 663d
00000050: f094 1dbe 3307 dcbc 4be6 963c bde0 6e3d
00000060: 3d26 6e3e bdd5 683d 23a7 243c 3db7 863d
00000070: c33d edbb c29e ffbc 61de dd3d 10f6 e9bc
00000080: 14d9 8cbd f010 87bd f5ce aabd 51ac e23d
00000090: fb1b e13d 10e1 83bb 22f1 ddbd 2127 88bc
000000a0: b5d1 ac3d 188f f03d 7c96 873d 687b ac3c
000000b0: d7ce c7bd bb75 473d cda8 8b3d 9e3a f73c
000000c0: bb55 8dbd 8c75 12bd a041 b43d fad9 79bd
000000d0: 576f 08be 34ba cabd c3e5 d73a eaf5 033e
000000e0: ca9a 88bd dee2 66be ca9a 04be 7c24 3bbd
000000f0: 57f5 4d3d bf7f f7bd 0b66 f0bd 440d 41be
00000100: 035d 93bd 7aea 3c3d 21d0 83bc 9040 3ebd
00000110: 3001 6abd d10b 07be c8ae 8e3c 335e 8fbd
00000120: b188 57bb 3ee7 15bd 8055 0e3b 3169 c3bd
00000130: 6b3f 833d 5286 fb3d c312 cc3d 1ff1 81bd
00000140: 8a11 2cbd e6cd 09bd dfb9 2c3e 16ec 453e
00000150: 3132 9f3c 49e0 acbd 7636 d6bd 0d7f 913c
00000160: 7d4d 65bc a891 fcbd 9f09 24bd 421b 8bbd
00000170: 0edd 3cbd d9f4 efbd 2c0e 1abe 6caa 8ebc
00000180: bab1 90bd 17a3 58bc f163 d83c d88a fbbc
00000190: 2577 743c 2a5e 98bd 02a4 75bd d774 e4bd
000001a0: a523 6fbc d527 063e 3309 0dbd bb68 55bb
000001b0: 4630 f6bd 3b9a ffbd 2735 7b3d 0465 d13c
000001c0: 78c3 963d 4593 8fbd 1865 10be 858c 823d
000001d0: 307b 213d b618 fa3d cf9b 22bd 8476 babd
000001e0: a639 60bc 0fea 84bc e37e 173d c8f3 fa3b
000001f0: b180 84bd 6a28 31be 7592 19be 3dc9 abbd
00000200: a8c3 0abe 30a8 703d 82cb ebbd 824b 4dbe
00000210: c714 88bd efb8 4cbe 8dd8 e83d c5b6 cb3c
00000220: 1df4 0abe 31fc 21bd 3f02 7abd 9ced 9abd
00000230: 5e81 ab3c 853b 19be b1a2 10be 3da8 b3bd
00000240: 9447 893c f045 9ebd 4fa7 e7bd b257 03be
00000250: 7006 333d c72f 4c3e 69f1 9fbc 31b2 cbbd
00000260: d614 03be 5ade f2bd 3789 7a3e 817d 083d
00000270: 2b19 0cbe 29ae 19be 96d2 a1bd e9a2 b4bd
00000280: 777f 9ebd b7e7 29be 0468 d3bd e089 163c
00000290: e205 a5bd 0401 96bd 2d30 f1bd 89da 00be
000002a0: 4945 a7bd d302 41bd 8907 cb3b 4853 0fbe
000002b0: 3da4 2ebe adb7 8cbd 82fd dcbd 1c90 803c
000002c0: 4610 3bbb 4e8e a23c 7133 1dbd b038 0cbd
000002d0: 19c5 0a3e dd19 003d 46a4 0b3e b7f9 c63c
000002e0: cf50 bd3c 3d51 ce3d 6170 a03d ef87 cc3d
000002f0: 58d1 a13d 98d4 4dbd d954 063e 03a8 4b3d
00000300: 6875 f83d 3933 5d3d 7351 cc3d cc02 cc3c
00000310: ac9a b4bb 43ff 1c3d 7a5a 9a3d c9c8 f0bc
00000320: 59ae 47be 08f1 2abc ca9c 7a3c 1cb3 25be
00000330: 27f5 acbe bfd0 11be 4d35 1dbe dd84 793d
00000340: 302b 0d3c fc04 813d fc77 71be 4213 2bbe
00000350: 3fb2 083c 9cb7 fe3d 0181 023d 963a 2ebe
00000360: dc3a 43be 7d64 0bbe 4b4d 1d3d 0fd6 4c3e
00000370: 03b0 f3bc 742d 48be df3f bbbd 9d12 c5bc
00000380: 1d1e f83c c6fc 2bbe 36df 8bbd 472d 973c
00000390: 8e69 ee3d 351d b7bd c616 14be 242b 14be
000003a0: 03f2 bcbc a497 6bbc ea15 7d3d 09dc 2ebe
000003b0: 1538 23be 7885 10be 1342 6dbd 9a46 0b3d
000003c0: 9d28 fcbd f441 2cbe 472b 2bbe 13bb 9ebc
000003d0: 9115 97bd c4aa 38bd 5202 f7bc 8671 07be
000003e0: c3a3 34be afa9 dbbc f177 973d ce28 983c
000003f0: 1418 a5bc 8a61 1b3d 4ccb de3c 4ff2 913e
0.030421732 -0.011265337 -0.07686195 -0.042404786 -0.036983583 0.0098254355 0.031983778 0.01031128
0.005105273 0.018065654 -0.09720438 -0.06659162 0.074110076 0.02485155 0.15367633 -0.09716928
-0.07075398 0.045611333 0.035455287 0.05625189 -0.15388846 -0.026858902 0.01842036 0.058319796
0.23256774 0.05684446 0.010049614 0.06577919 -0.0072400286 -0.031203631 0.10833431 -0.028559715
-0.06877342 -0.065950274 -0.08340255 0.11068023 0.10991665 -0.0040246323 -0.10837008 -0.01662022
0.08438436 0.11746043 0.066204995 0.021054938 -0.097562484 0.04869626 0.068193056 0.030179318
-0.069011174 -0.035756633 0.088015795 -0.060998894 -0.13323723 -0.09898797 0.0016471673 0.12886778
-0.06670149 -0.2254748 -0.12949672 -0.04568909 0.050282802 -0.120849125 -0.11738213 -0.18852717
-0.07195475 0.04612205 -0.016090455 -0.04644829 -0.05713004 -0.13188101 0.017417327 -0.07000389
-0.003288787 -0.036597483 0.0021718442 -0.09541548 0.064085804 0.12281479 0.09964516 -0.06344818
-0.042008914 -0.033643626 0.16867779 0.19328341 0.019433113 -0.084412165 -0.10459606 0.017760778
-0.013995525 -0.12332469 -0.040048238 -0.067923084 -0.04610925 -0.11716623 -0.15044469 -0.017415248
-0.07065149 -0.013222477 0.026414843 -0.030705854 0.014920984 -0.07439835 -0.059970863 -0.11155098
-0.014595901 0.13101132 -0.0344326 -0.0032563645 -0.12020926 -0.12480589 0.061329987 0.025560863
0.073615015 -0.07010511 -0.14101064 0.06374458 0.03942412 0.122117445 -0.039699372 -0.09104636
-0.013685619 -0.01622489 0.036986243 0.0076584555 -0.064698584 -0.17300573 -0.14997275 -0.083879925
-0.135512 0.058754146 -0.115134254 -0.20048335 -0.06644588 -0.19992422 0.11369429 0.024867425
-0.13569684 -0.03954715 -0.0610373 -0.07564852 0.02093571 -0.14964111 -0.14124562 -0.08772323
0.016757764 -0.07728183 -0.113112085 -0.12826422 0.04370731 0.199401 -0.019524293 -0.09946097
-0.12800917 -0.118588164 0.24466406 0.033322815 -0.13681476 -0.15007843 -0.07901494 -0.08820135
-0.07739156 -0.16592298 -0.10322574 0.009188145 -0.08057763 -0.073244125 -0.11776767 -0.12583365
-0.08167512 -0.047121834 0.0061959666 -0.13996613 -0.1705484 -0.06870971 -0.1079054 0.015693717
-0.0028543635 0.019843247 -0.038379136 -0.03423375 0.1355175 0.031274665 0.13636884 0.024288995
0.023109822 0.10074089 0.078339346 0.09986865 0.07901257 -0.050251573 0.13118304 0.049720775
0.121317685 0.054003928 0.09976473 0.024903677 -0.0055116024 0.038329374 0.07536788 -0.029392617
-0.19500102 -0.010433443 0.0152961705 -0.16181606 -0.33780786 -0.14239787 -0.15352364 0.060917724
0.008616254 0.06299779 -0.23580927 -0.16706565 0.008343278 0.124373645 0.03186131 -0.17014536
-0.19065422 -0.13612552 0.03840379 0.20003532 -0.029747015 -0.19548589 -0.09143042 -0.024056727
0.030287797 -0.16795644 -0.068296835 0.018454207 0.11641227 -0.08941118 -0.14461812 -0.14469582
-0.023064619 -0.014379416 0.061788477 -0.17076124 -0.15939362 -0.14113414 -0.05792434 0.034002878
-0.12312434 -0.16822034 -0.16715728 -0.019376313 -0.0737716 -0.04508473 -0.030152474 -0.132269
-0.17640595 -0.02681431 0.07395924 0.018574145 -0.020153083 0.037934817 0.027196549 0.2850518

bias f4 [20]
00000000: 82dd 543c 1c6b 20be 378d 07bd cc5e 273d
00000010: 66d4 e63d d81f 46be 9c48 073e 222a d0bc
00000020: dfa3 22be 18b5 68be 98bd 33bd 81a1 a7bd
00000030: 2a3c 063e b12d 15be d1d7 913d 1440 f6bc
00000040: 393d e3bd 9c78 ca3d 29af 6fbc 0eb2 0dbd
0.012992265 -0.15665859 -0.033093657 0.04086189 0.112709805 -0.19348085 0.13211292 -0.025410715
-0.15882824 -0.22725332 -0.043881983 -0.08185101 0.13108888 -0.14568211 0.07121242 -0.030059852
-0.11095662 0.09886286 -0.014629164 -0.034593634

weight f4 [50, 320]
00000000: 467a 39be d39c 03be 14ae bcbc 446a e7bd
00000010: 8ab9 15be 54bb 5cbd a7dd 02bd 7b09 43be
00000020: 300a 683c 7bff 383d bdd6 96bd 84ea 3bbe
00000030: 84d5 9a3e e65b 6b3c cadb 1dbe b340 2d3d
00000040: ea01 1a3e 5120 5e3e b7e9 943d eedc 253e
00000050: 6a95 b33d fa30 2cbe 98d0 f63c 2625 43bd
00000060: 21b7 c1bd 3cbc 45bc ee5a abbd d967 a8bd
00000070: 0cf1 0abe 061f 8e3c d911 53bd f43b 72bd
00000080: 2abf e8bc ab8d 933d 1880 46bd e08a 92bd
00000090: e466 693e 63b6 4c3d accc e7bd f3ab cfbd
000000a0: e0ca 113d 495f 49bc 4b49 30be 9fe1 83bd
000000b0: 822b 3a3d 7eef a7bd 65dd 51be 6f10 613c
000000c0: d199 533c 6b88 553d 2378 493e d68c d5ba
000000d0: 7473 bd3a 86a4 b2bd 3ea5 9cbd 1139 d4bc
000000e0: 5a3f c9bc c55d 92bd 7bbd 82bd 34ea cbbd
000000f0: c1e6 0abe c276 a2bd 51dd b73a 3182 c6bd
00000100: 4f1a 9ebc 3680 b03d 4b40 cebd 7607 22be
00000110: a0a1 8bbd bbb0 10be b8ab 1ebd 05c8 9bbd
00000120: 9a15 14be 7fa0 06be 65b4 1cbc bc3f d33b
00000130: ac72 a3bd 7914 bbbd 1834 163e b392 2f3d
00000140: 6194 0a3e 5eac 96bb 71d3 aebd c592 c43d
00000150: fcab 0d3e 5e95 81bd fbb0 86bd 9d34 ef3d
00000160: 8985 8b3d 30c6 e8bd 6b46 383d a8de 9b3d
00000170: 4097 80bd ef27 0fbc e94a 23bd d8d4 85bd
00000180: b91e ccbd 0c9c 2d3e edf0 b03d 37c4 abbb
00000190: c5c4 b0bd 415e 5d3d 878a eebc c958 793d
000001a0: 1bee 02be 3f91 0ebe 945e dd3d 1325 8d3d
000001b0: 08ff ffbd 777a abbd d923 143e 8800 c13d
000001c0: 5080 103b 862b 833d 0dd4 ea3b 4338 d23c
000001d0: 4735 893d 48f5 04bd 1cf0 00be 289d 753c
000001e0: ab62 1d3d 7c38 c3bd 235d fe3b ae25 053d
000001f0: 5e02 08be 0d31 b23d 1ae5 bb3d 05d0 a43c
00000200: c8e7 073e ada7 0d3b f973 d2bc 4be4 573d
00000210: c6b5 f53d 8e3c 47bd aeee e7bd 15e2 023e
00000220: ec94 953d 2131 bdbd 8a79 f2bd 567c 183e
00000230: 59ab 2bbe d11c 7ebd 66ff f9bc f9e5 b2bc
00000240: 2dd6 433d f7e6 ec3d dd75 f63b 45c5 043d
00000250: 07bd a63c 0449 273d 54f4 7f3d 1fe1 27bb
00000260: a21c 02be 17c7 f23c 8685 a5bd e1c0 b6bd
00000270: 949e 86bd fb07 4dbc 8173 3abe bc70 79bd
00000280: 6d68 7abd 55a9 e23c 138d a5bd 85a4 0cbe
00000290: 3489 b3bd 3470 c2bc 5dee debd da0f 1e3e
000002a0: 1ab8 0cbd ff75 2dbe 2cc2 873a d943 033e
000002b0: 1979 17be 9ca2 51bd 233e 353e cdf0 af3d
000002c0: 9795 22be c451 523c 1728 a13d 17f9 6dbd
000002d0: ce0d f63b a52e 0dbd de05 63be d685 88be
000002e0: 267d a13d 669e a8bd 0e2f 18be 9571 7bbd
000002f0: 80ba 5c3e b878 cebb 81fa debd 17a6 023c
00000300: c44f d5bc e6a1 a2bd d6cc febd ce8f e2bd
00000310: 5b21 2d3d 1fe5 14be 58c8 3fbe 7fbe 623d
00000320: ef02 df3c 5932 7cbd 348e 44bb 4267 443d
00000330: bab8 cc3d 6c2b 63bd 0f75 9a3c ef6e 923d
00000340: 80ee b8bb 202f 33bc 4442 133e b3fd 433d
00000350: 145a 25be 6434 3ebc 8858 503d e7e3 eb3d
00000360: 0bc1 cbbd 1f36 c3bd 8b16 0cbd 81de 44bd
00000370: b275 cdbd 6a36 59bd 23c0 1ebb 23bd 8f3c
00000380: 6a79 843d e9a0 283d b7cc 873d b4a3 533e
00000390: dec1 1cbd a6ce 42bd 0ed5 1cbd ae4c 7b3d
000003a0: ddf0 5bb9 e297 8cbd a3c5 81bd d302 c63c
000003b0: 2afb 5cbb add8 debc a452 73bd 2300 31bd
000003c0: 92b5 fdbc 6a03 37bd 6880 2f3a c7c4 893d
000003d0: ce13 d23b 9b2e 5e3d 5e56 653d 1955 1b3c
000003e0: 5392 2e3d 5fa1 493d eab3 ba3c b8b2 aabc
000003f0: 2959 513b fd55 3ebd 9084 d93b fefa 7b3d
-0.1811305 -0.12852792 -0.023032226 -0.112995654 -0.14621559 -0.053889588 -0.031949665 -0.19046585
0.014162585 0.04516552 -0.07365177 -0.1835118 0.30241024 0.014365172 -0.15415874 0.04229803
0.15039793 0.21692015 0.0727114 0.16197559 0.08768733 -0.16815558 0.030128762 -0.04764285
-0.09458757 -0.012068804 -0.08366953 -0.08222932 -0.13568515 0.017348778 -0.051530693 -0.059139207
-0.028411467 0.072047554 -0.048462003 -0.071553946 0.22793156 0.049978625 -0.11318335 -0.101402186
0.035593867 -0.012290784 -0.17215459 -0.06439518 0.04545165 -0.081999764 -0.20494612 0.013736828
0.012915091 0.05213205 0.19674735 -0.0016292583 0.0014453963 -0.087227866 -0.07648705 -0.025906118
-0.024566341 -0.07146791 -0.06383797 -0.0995678 -0.13564588 -0.079328075 0.001402775 -0.09692801
-0.019299654 0.08618204 -0.10070857 -0.15823159 -0.06817937 -0.14129917 -0.038737983 -0.0760651
-0.14461365 -0.13147162 -0.009564494 0.0064468067 -0.07980856 -0.09134764 0.1466831 0.042864513
0.13533165 -0.0045981845 -0.08536423 0.095983066 0.13835138 -0.06327318 -0.06576725 0.11679957
0.06812579 -0.11365926 0.04498903 0.07610828 -0.06278849 -0.008737548 -0.03986636 -0.06534737
-0.099667974 0.16954058 0.08639703 -0.0052418965 -0.08631281 0.054044966 -0.02911879 0.060875688
-0.12786143 -0.13922594 0.10809055 0.06891837 -0.12499815 -0.08372968 0.144668 0.094239295
0.0022049136 0.06404786 0.0071663917 0.025661593 0.06699615 -0.03246048 -0.12591594 0.014991082
0.038424175 -0.09532258 0.0077625676 0.032506637 -0.13282153 0.08700762 0.09174557 0.020118723
0.13272011 0.0021614835 -0.025690066 0.05270795 0.11997561 -0.048641734 -0.113248214 0.12781556
0.07303795 -0.09237886 -0.11839588 0.1489118 -0.16764583 -0.0620392 -0.030517291 -0.021838175
0.047811676 0.115674905 0.0075213746 0.032414693 0.020353807 0.040841118 0.06248887 -0.002561636
-0.12706235 0.029635949 -0.08082108 -0.089235075 -0.06573215 -0.01251411 -0.18208124 -0.060898528
-0.061134744 0.027668634 -0.080835484 -0.13734634 -0.08766404 -0.023735143 -0.10885308 0.15435734
-0.03435526 -0.16939543 0.001035755 0.1281885 -0.14792289 -0.051180467 0.17699485 0.08590851
-0.15877376 0.012836877 0.07868975 -0.05809888 0.00750897 -0.03446831 -0.22170207 -0.2666461
0.07885198 -0.08233337 -0.148617 -0.061387617 0.21555519 -0.006301012 -0.108876236 0.007974169
-0.026039012 -0.07941036 -0.12441413 -0.11062585 0.04226814 -0.14540528 -0.18728769 0.055357452
0.027223079 -0.061571453 -0.0029991986 0.047950037 0.09996171 -0.055461332 0.018854646 0.07150065
-0.005643666 -0.010936528 0.14380747 0.04784937 -0.16147643 -0.011609171 0.05086568 0.11518078
-0.099489294 -0.09531807 -0.034201186 -0.04806376 -0.10032214 -0.05303041 -0.002422341 0.017546242
0.064684704 0.04116908 0.06630843 0.20667917 -0.038270824 -0.047560357 -0.038289122 0.061352424
-0.00020975196 -0.06864907 -0.06336524 0.024171269 -0.0033719041 -0.027202928 -0.059404984 -0.04321302
-0.030970369 -0.04468099 0.0006694854 0.067269854 0.0064110523 0.054243665 0.05599057 0.009480738
0.042620014 0.04922616 0.022790868 -0.020837173 0.0031944013 -0.046468724 0.006638117 0.06151866

bias f4 [50]
00000000: 7b2f 243e 7837 6d3d ce21 273e 5b73 5f3d
00000010: 359a af3d 2a2b 283e 3fda e53d 88b3 e73d
00000020: 86ec 063e d0b9 d03d 67ee 0a3e 41f1 bf3d
00000030: 554c 633e 76e7 0e3e f8f8 d03d 7fad 123d
00000040: e9dc 203e eb94 493e 8174 363e a089 413d
00000050: a297 b53c a5f2 00bd 4cc3 453e 9dad 993d
00000060: 2d84 333e f8d3 64bd f73c c13d 0469 ee3d
00000070: 975c 5d3d 7a53 ce3d f216 2f3d b5b9 7d3c
00000080: 91bd ae3c 39f4 d23d 6799 95bd 087f fd3d
00000090: 329a 8d3d abf6 b7bc c930 f93d 8403 b33d
000000a0: 2eff c5bc f3db c339 f747 f03d 13dd f63d
000000b0: 1d16 2d3e 999a 453d da29 1d3e e3f8 c03b
000000c0: 2335 3e3e 3676 823d
0.16033737 0.057914227 0.16321489 0.05455337 0.085743345 0.16422716 0.11223268 0.1131354
0.13176164 0.10191691 0.13567506 0.093721874 0.22197087 0.13955483 0.10203737 0.03580999
0.1570927 0.19685714 0.1781788 0.04725039 0.02216703 -0.031481404 0.19312781 0.07503817
0.1753089 -0.05586621 0.09435456 0.11641124 0.05404338 0.10074516 0.04274649 0.015486171
0.021330627 0.10300488 -0.0730465 0.12377745 0.06914176 -0.022456488 0.12167508 0.08740905
-0.02416953 0.00037357173 0.11732476 0.12053885 0.16902967 0.04824314 0.15347996 0.0058890446
0.18574958 0.06370203

weight f4 [10, 50]
00000000: befb b9be 75f9 e13d e204 763c d351 8bbe
00000010: 3c7b bc3c 51ca d1be 6766 42bc ffc3 58ba
00000020: 7f0a c83c b0f8 b9be 013b 73be b459 b7bd
00000030: a0c3 b6bd 1067 f5be 2f9f edbe c563 a1be
00000040: e792 11bf 23e8 0dbf 19ea e5be 4b3f b5bd
00000050: 42ba c1be 8dad a1bd 8a55 eabd 58b9 26be
00000060: 7b73 05bf 29b4 d4be 1d49 51bd de2a 44bd
00000070: a00b 233d 4370 0fbf 7c11 9d3b eb4e 0a3c
00000080: fbc6 1c3d e43d 95be afd8 6dbd 798a 3fbe
00000090: 1503 b2be da6f e7be 0450 bfbe 7b36 0d3d
000000a0: 6c39 20bf a8eb 46be 97ee 753d df5e 843d
000000b0: 811b d23d dc1d 083d 823b 14bf ede4 bebe
000000c0: 9573 e8be 820d 8b3d 7f53 e7be f15b 0b3e
000000d0: 079e b2be de27 adbc e734 24be 29e8 61be
000000e0: 6567 01bf c730 cfbe fce4 1ebe 91b4 933c
000000f0: e3e2 15be 9b53 39be 0a26 f2be 1d2c d93d
00000100: e112 91be 883f f0be 5cc2 9cbc 5cf0 893d
00000110: eac0 ddbe 2d1e e6be ae92 28be de50 0ebf
00000120: 2c7d 443d 77fc 093e b752 70be 4d55 853d
00000130: 6ba0 ccbe c986 95be 8965 dabe b269 913c
00000140: df24 a3be 88bf 273d e4bf 1dbe 3cb7 49bd
00000150: eb11 663d a7a5 d9be 2827 85be a537 d23d
00000160: 42a2 553d a4af 80be af0c 043e 2e8d 94bd
00000170: 4565 d6be 85a3 6bbe fbbb 23be 8ef0 5abe
00000180: 081d 4dbc 422d 6abe 8775 c2bd 5839 a93d
00000190: 140f ae3d 63ae cfbe c210 09bc 2758 5ebd
000001a0: 3c7f 35be fc52 d4be 4bfc d6be 8c5b dabe
000001b0: 76f4 d4be be2a 703d 85da 6e3d d895 d4bd
000001c0: cb02 553d 62cf 48bd f6d6 aeba 3ab3 3d3c
000001d0: 2cb9 963c e466 82bd 5472 8d3d 09d6 edbe
000001e0: ac64 be3d 6822 8d3d 66b2 d33c 3965 9bbd
000001f0: 11cf 133d a159 5dbe 4bbb 39be 11f1 d1be
00000200: a4b3 efbe 9326 f9bc dfc0 babe f5f2 eabe
00000210: dd97 cfbe 33ca 91bd 0ce6 d9be 9c68 57be
00000220: 86a5 0bbe 915c bdbe 4641 c3bd b083 fdbe
00000230: 9e5f 883d f720 d73d 22b7 11bf e47b d6be
00000240: 120d e5bc 9266 e6be 213d 2cbe 58ad 4dbd
00000250: 74a0 3c3c fdfb 07bf 1b60 50be fbb1 ebbe
00000260: 465d 153d 177d e6be a0b7 eebe 5540 f33c
00000270: c9db 9b3d 53cf dc3c 7c0c c7be 759a 02bf
00000280: e234 5f3d 40ab d53d 242f a3be e7c1 ca3d
00000290: a918 9f3d 5c01 d9be f9d8 613d c27f b3be
000002a0: b88d a53b 8ecd 15bd cd29 4f3c dece bdbe
000002b0: fc52 17bd da42 30be e381 cabe 7d09 05bf
000002c0: 5307 a0be 56bc 963c 9aba 86bd 1a50 67bd
000002d0: 5d30 5d3b 58cb c8be b187 f3be 49f9 cebd
000002e0: e323 c8be f385 4b3c 17b8 d2be e78f c6be
000002f0: 1f95 a93b 2ee4 acbe e854 1bbf d190 9bbe
00000300: 7874 923d 6b15 02bf 6351 08bf 3dcf 05bf
00000310: 3b9d bdbb 5927 03bf e196 933d 0f46 543d
00000320: e8c8 803d 7834 9dbe 618e 833d 7b5c 0ebf
00000330: a375 23be d535 acbe 8777 79bd cb05 423d
00000340: c8ab d63d 8657 45bd 2c06 543d 2d55 a7be
00000350: 1035 183d f562 293d 8e9a d5be 6965 f2be
00000360: f607 18bf a52b a7be 7f55 43be a276 953d
00000370: 16ff 04bf e421 a8be b88d 7ebe b081 93be
00000380: dfae d53d 2607 2cbe e72f f4bd 6f58 253e
00000390: 4fe7 4fbe e5e5 29bd 0f44 25bd 1d3f 863d
000003a0: 0f34 37bb 6bde 2d3e 562e 11be cab2 91bd
000003b0: 2365 b2be 5e2e b5be 462b f1be c146 a0be
000003c0: 4e95 2a3d d7f2 b93c 7c39 d6be 9137 903d
000003d0: 1489 913d 7493 89bc 5b9a a0be f445 a4be
000003e0: 1aca 0f3d b260 2b3d 947f c9be 76c0 b23b
000003f0: ceb0 5ebe d426 b5be 72fe d8be a58d 9dbe
-0.36324877 0.11033908 0.015015813 -0.27210864 0.023007981 -0.40974668 -0.011865235 -0.0008268952
0.024419067 -0.36322546 -0.23752977 -0.089526564 -0.08924031 -0.47930193 -0.4641051 -0.3152143
-0.5686478 -0.5543234 -0.44905165 -0.08849963 -0.37837416 -0.0789443 -0.114420965 -0.1628164
-0.52129334 -0.415437 -0.051095117 -0.047892444 0.03980601 -0.5603067 0.004793344 0.008441667
0.0382757 -0.2914878 -0.058067974 -0.18705167 -0.34767976 -0.45202523 -0.37365735 0.034475785
-0.6258762 -0.19425833 0.06004199 0.06463408 0.10259152 0.0332316 -0.579033 -0.37284032
-0.45400682 0.06789686 -0.4518089 0.13609292 -0.3488619 -0.021137174 -0.16035806 -0.22061218
-0.5054839 -0.40466902 -0.15517038 0.018030437 -0.14637332 -0.18098299 -0.47294647 0.10604117
-0.28334716 -0.4692347 -0.019135647 0.06735298 -0.43311244 -0.44944897 -0.16462204 -0.55592144
0.047970936 0.13475214 -0.23469053 0.065104105 -0.3996614 -0.29204395 -0.4265559 0.017750595
-0.31864068 0.040954143 -0.15405232 -0.04924701 0.05616943 -0.42509195 -0.26006436 0.102645196
0.052156694 -0.25134003 0.12895463 -0.072534904 -0.41874138 -0.23011597 -0.15989678 -0.21380827
-0.012519129 -0.22868827 -0.09495073 0.082628906 0.0849897 -0.40562734 -0.008365812 -0.054283287
-0.17724317 -0.41469562 -0.4198936 -0.4264797 -0.4159276 0.058634512 0.058313865 -0.10380143
0.052004617 -0.0490259 -0.001333921 0.0115783755 0.018398844 -0.06367281 0.06906572 -0.46452358
0.092965454 0.06891328 0.025841903 -0.07587666 0.036086146 -0.21616222 -0.18137853 -0.41004232
-0.46816742 -0.030413901 -0.36475274 -0.45888487 -0.4054555 -0.071186446 -0.42558324 -0.21035999
-0.13637361 -0.36984685 -0.09533934 -0.49514532 0.066588625 0.105043344 -0.56920063 -0.41891396
-0.027960334 -0.4500013 -0.16820194 -0.05021414 0.011512864 -0.5311888 -0.20349161 -0.46034226
0.036465906 -0.4501731 -0.4662447 0.029693762 0.0761028 0.026954329 -0.38876712 -0.5101693
0.054493792 0.10433054 -0.31871903 0.09900265 0.077683754 -0.4238385 0.055138562 -0.3505841
0.0050522946 -0.036572985 0.012644243 -0.3707189 -0.036944374 -0.17213002 -0.3955222 -0.519676
-0.31255588 0.018400352 -0.0657856 -0.056472875 0.003375075 -0.3921764 -0.47564462 -0.10106141
-0.3908988 0.012422073 -0.41156074 -0.38781664 0.0051752473 -0.33767837 -0.6067643 -0.30383924
0.07151121 -0.5081393 -0.53249186 -0.52269346 -0.0057865656 -0.51231915 0.07206512 0.051824626
0.0628832 -0.30704093 0.06423641 -0.55609864 -0.15962844 -0.3363482 -0.060905006 0.047368806
0.104819834 -0.048179172 0.0517637 -0.3268217 0.03715998 0.04135414 -0.41719478 -0.47342995
-0.5938715 -0.32650486 -0.19075583 0.07298018 -0.5195173 -0.32838356 -0.24858749 -0.2880988
0.10433745 -0.16799602 -0.11923199 0.16147016 -0.20303081 -0.04147901 -0.04034811 0.06555007
-0.0027954613 0.16979377 -0.14177832 -0.071141794 -0.34842786 -0.35386938 -0.47103328 -0.3130398
0.041646294 0.022698803 -0.41840732 0.070418485 0.07106224 -0.016793944 -0.31367764 -0.3208462
0.03510485 0.041840263 -0.39355147 0.005455072 -0.21747133 -0.35381186 -0.42381626 -0.3077213

bias f4 [10]
00000000: aa4a aa3d 27af 073c 380e 523d 0021 06be
00000010: bc79 af3b cebc c83d 2450 8ebd d2fa 0cbe
00000020: bf8d e7bd a4d1 fabd
0.08315022 0.008281506 0.05128309 -0.13098526 0.005355088 0.09801637 -0.06948879 -0.13767555
-0.11306333 -0.12247017
