artifact_store/8/e1e7bece12c3421b84d628f1ad540f19/artifacts/model/data/model.pth (torch_old, 92235 bytes, 8 tensors)

weight f4 [10, 1, 5, 5]
00000000: d3d2 d0bd a1e9 423d eb68 593d 2fc7 d73c
00000010: 3348 303e cb9f e83c 47cc 8cbe f41b bfbe
00000020: 9bc3 c8be 68ee 54be 41e7 853d cfae e73d
00000030: d120 8fbe c92a 1dbe 3b2f 043e f48c 993b
00000040: 4986 8c3e 3a4f bb3e 9107 bfbd 76b4 75be
00000050: b8d8 a6be f9d9 c5bd c5c5 093e 28a5 8f3e
00000060: 1cea 39bd 92a0 623d a532 803e 9b13 3a3e
00000070: 381c 093e a835 fe3d 6bca afbe d532 b1be
00000080: b2b6 33be 985c 603d 7c60 02be 6a20 53be
00000090: ef82 a4be 6fff e9be 6127 e1be d362 f4be
000000a0: 5ff8 a5be c8d2 56be c50e 2cbe 2aa5 9abd
000000b0: bdb5 88be 30f2 a43e e804 8a3e cd59 523e
000000c0: 1f46 a43e 6c54 0d3c a086 2a3e 9024 af3d
000000d0: bd43 333d b715 d9bd a953 f6bd 0ff1 e3ba
000000e0: a28b 6e3e d688 87bd 32c6 88bd 005b 16be
000000f0: 93cb bd3d 9be2 3d3d 745d 30be 0829 31be
00000100: 8aa8 303e 8b3b 8a3c cd41 ad3d cf4a e1be
00000110: 9229 1a3d 6e8c b2bc 6345 463e 03f6 093e
00000120: ce66 043e 948e 013d e8af bb3d 6910 253e
00000130: fd59 57be 1e24 58be 4e26 99be 2e17 bebe
00000140: 1e52 313c e34d 18be 495a 56be e1fd 63be
00000150: ee3f 1dbe 2c78 28be 89f4 29be 53ce 18be
00000160: 4a14 4dbe b29e ab3d 0682 2bbe e655 a0be
00000170: 5bb0 c2bd 5cd0 533d 2089 ec3c 00a5 e2be
00000180: b309 ebbd 9c2a ac3d b523 c3bd 49dc b3bd
00000190: 302a ffbd 3d43 34be 20a9 af3e b23c 493e
000001a0: 4631 18be 28ab 78be 31f6 c3bd 2f23 033e
000001b0: 29d4 36be 660f 24be 311a 8dbe 9a34 e23d
000001c0: 9b20 4b3e 204f 96bd cc42 aebe b5bb 4fbe
000001d0: 95ae 773d 9792 3c3e 8ffe d1bd 4fa8 96be
000001e0: 2ad2 13be 7de8 d93d 0ee7 72bd 4efc 9bbe
000001f0: 4ac2 a2be 5af5 b1bb d3a7 d1be 3d03 1ebd
00000200: 7291 9d3d 7693 783d 86d9 a5be 1841 2ebe
00000210: 0587 f03d 8fe6 53be be2c 003e 58b9 b7be
00000220: 6e5d b5bc b45c b63c 2db1 023d 3510 f23d
00000230: 4fa9 31be a9ef a83e f503 1dbc feb8 113e
00000240: a922 09bb 0a0c c43e f13a d33d 52d0 0abd
00000250: 757f 5e3e 9b28 60be 56d0 14be b124 f7bb
00000260: 84d7 55bd 5645 0d3d 424b 383d 4115 e2be
00000270: 6c22 19be adea cb3e 5967 9cbe b00b 37bd
00000280: 1b4c c8bc 6fd7 98bd e63c 843e 7a5a 5e3e
00000290: 7926 263e 2b75 6dbb f269 d73d d3ef 4abd
000002a0: 2e56 a23e 3532 78be 008f 63be 47e3 c5bd
000002b0: f0a5 e8be 7369 7ebe 34ae 293c 49d7 b8bd
000002c0: c8c8 83be 3cf4 36be ca73 9b3e e45b 293e
000002d0: c3de b1be db30 a6bc 36a1 7fbe df75 93bd
000002e0: 452f 353e 0f4b 08be facf 27be def0 85be
000002f0: 327d b7bd 2ce5 873d fdb6 a83d 106a ff3c
00000300: 86bc 92bd 7fec 68be e97a 0b3e 2993 413c
00000310: 2969 dd3d 4c53 70be 89f1 d8bd 7992 923d
00000320: 576b 60be 7899 dcbd 3b90 343e 43b0 a9bd
00000330: 9e7d 0d3d 471b 793c aed7 d93e fc55 073e
00000340: 3b9a 57be 6ac5 9b3d a014 e33d 839d f63d
00000350: c261 bfbe aaa0 75be a1ec bc3d f199 883d
00000360: 317a cebe 4080 83be 62aa df3d bbe3 ce3d
00000370: 6b3d bcbd 4821 503e 1da7 efbc 868a 873e
00000380: b21a 1abe 4616 ecbb 052a a6be a60e 23be
00000390: 2355 31bc 804e 79be 2199 783e 6db1 a23d
000003a0: 76c2 81be 77a4 32be 3528 b73d e9c7 4a3e
000003b0: ed0c 213e 54e9 86be 5ab6 af3d 83bb 7cbe
000003c0: 1395 95bd 1a8d a23d bcde a2bd 3847 a3bd
000003d0: 914c a4be 0601 93bd 5430 983d 3808 1c3e
000003e0: ab0d ac3d f197 87be
-0.101964615 0.047586087 0.053078573 0.026340095 0.17215042 0.028396508 -0.274996 -0.37326014
-0.39211735 -0.2079407 0.06538249 0.11312639 -0.27954724 -0.15348352 0.12908642 0.0046859924
0.274462 0.36583883 -0.09327615 -0.23994622 -0.32587218 -0.096607156 0.1345435 0.28055692
-0.04538928 0.055328913 0.2503864 0.18171541 0.13389671 0.12412578 -0.3433412 -0.34609094
-0.17550161 0.054775804 -0.12732118 -0.20617834 -0.32131144 -0.45702693 -0.43975356 -0.47731647
-0.32416055 -0.20978844 -0.16802509 -0.07551034 -0.26701155 0.32216024 0.26956868 0.20542069
0.32084748 0.008626085 0.16652918 0.085518956 0.043765772 -0.10599845 -0.12027676 -0.0017390567
0.23295453 -0.06617896 -0.06678428 -0.14683151 0.09267344 0.046358686 -0.1722315 -0.17300808
0.17251793 0.016874095 0.08459816 -0.44002387 0.0376373 -0.021795478 0.19362406 0.13472752
0.12929842 0.031630114 0.09164411 0.16119541 -0.21030422 -0.21107528 -0.29912037 -0.3712706
0.010822801 -0.14873461 -0.20932879 -0.22264816 -0.15356418 -0.16452092 -0.16597189 -0.14922456
-0.20027271 0.08379878 -0.16748819 -0.31315535 -0.095062934 0.05171238 0.02887398 -0.4426651
-0.11476459 0.084065646 -0.09528295 -0.087822504 -0.124592185 -0.17603774 0.3430872 0.1965206
-0.14862546 -0.24284041 -0.09568442 0.1280639 -0.1785437 -0.16021499 -0.27559045 0.11045189
0.19836657 -0.07339311 -0.34035337 -0.20286448 0.06046923 0.18415295 -0.10253631 -0.29425284
-0.1443564 0.10640047 -0.059302382 -0.3046593 -0.31788856 -0.0054308595 -0.40948352 -0.038577307
0.07693757 0.060687505 -0.3239252 -0.17017019 0.11744503 -0.2069342 0.12517068 -0.35883594
-0.022139277 0.022261001 0.03190725 0.118194975 -0.17349742 0.32995346 -0.009583463 0.14230725
-0.00209252 0.38290435 0.103139766 -0.033890076 0.21728308 -0.2189049 -0.14532599 -0.0075422158
-0.052207485 0.034489952 0.044993646 -0.4415684 -0.14954537 0.3982748 -0.30547598 -0.04468888
-0.024450352 -0.07462966 0.25827712 0.21714202 0.16225614 -0.0036233168 0.10518254 -0.04954512
0.31706375 -0.24237902 -0.22222519 -0.0966249 -0.454391 -0.24844913 0.010356475 -0.090254374
-0.2573912 -0.17866606 0.30361778 0.1653896 -0.34740266 -0.020286968 -0.24963841 -0.072002165
0.17693813 -0.13309883 -0.1638793 -0.2616033 -0.08959426 0.06635508 0.08238027 0.031178504
-0.07164864 -0.22746466 0.13621105 0.011814871 0.10811073 -0.23469275 -0.10592944 0.07156844
-0.21915947 -0.10771459 0.17633145 -0.082855724 0.034543626 0.015204257 0.42547363 0.13216394
-0.21054928 0.07606013 0.11087918 0.12041762 -0.3737927 -0.2398707 0.09224821 0.06669987
-0.403276 -0.25683784 0.1092117 0.1010203 -0.09191402 0.20325196 -0.02925449 0.26472872
-0.15049246 -0.0072048036 -0.32453933 -0.15923557 -0.010823521 -0.24346352 0.24277164 0.079439975
-0.25343674 -0.17445551 0.08943216 0.19802822 0.15727587 -0.2634989 0.08579703 -0.24680905
-0.07303824 0.07937069 -0.079526395 -0.07972568 -0.32089666 -0.071779296 0.07431093 0.1523751
0.084010445 -0.2648311

bias f4 [10]
00000000: 7dc2 1dbf 02b7 45bf ce77 98bf 3f52 a9be
00000010: 2cb1 5abf a5c3 7ebf 3685 25bf 7acd 2dbf
00000020: a46f 0cbf d9fd 34bf
-0.6162489 -0.7723237 -1.1911561 -0.3307056 -0.8542659 -0.9951728 -0.6465639 -0.6789166
-0.5485785 -0.7069984

weight f4 [20, 10, 5, 5]
00000000: 49b6 6e3d fed3 0f3d 3a48 3cbd 0743 1fbe
00000010: 9bd0 f73c ef9c 143e ba69 8b3d ec7d 39be
00000020: 3fcb 95be 2f13 bc3c 3fe8 373e 74d5 dc3d
00000030: 91e5 00be f283 40be 13ec bb3c 9eb1 313e
00000040: deab f63d 1c53 03be 1f8c 27be 293a 8bbd
00000050: a3ca 1a3e f279 5fbd 799d 39be ae5b e0bd
00000060: be8e 39bd 4ce0 eb3c a6d4 3f3d 1fbd 99bd
00000070: 9a41 c8bd ee14 d2bd b194 503e be4e 4dbd
00000080: 4e44 b4bb b42f f3bb 43d9 d83c 7c6c 933e
00000090: 8bc7 643d 2d49 eabd 5ab3 31be d13a 60bd
000000a0: d6b9 063e 73bf 693d ba74 41bd cc14 663c
000000b0: 88fe a53e fb7a 473e 4ca9 273e 7399 bf3c
000000c0: 46b0 b2bc 2fd9 f13c f32f 17be 5271 e43d
000000d0: a7d6 debc 4ef6 083e bb98 733e ad80 9cbd
000000e0: 2cb1 783c 1dfa 6e3c 866c 02bd 5f1f b5bb
000000f0: 753c 15be 0e9a 293d b9ff a33d b478 c0bc
00000100: cae6 33be ff9e d2bd 4362 afbd 48f3 33be
00000110: 3833 a23a 0e39 95bd 2ccb cdbc 1ef9 33be
00000120: 2013 71bb b125 5b3c b509 dbbd b9a4 fbbd
00000130: 6d68 4cbe 3b31 15be dae1 3ebe 8575 1abe
00000140: 0a77 04be 8815 47be fab5 26bb 6938 bdbc
00000150: 79a5 38be 59d4 41be 1ab2 8ebe 4124 97be
00000160: 7447 c3bd a3b7 92bd 2056 16be 89d9 36be
00000170: 3dc4 e2bd a4ca 0a3d b2f4 203e 7973 503d
00000180: fe83 b23d dcc2 6b3e f6c1 613e db8a cb3d
00000190: 6932 64bd f53a ddbd 5e83 5cbe 816b 80be
000001a0: 4191 05bd 6f04 edbd c92f d4bd 0ee1 f43b
000001b0: 0d58 62bd 3ac9 b73d 1e4f 09be 3d8d a53d
000001c0: df84 113e 5472 ef3c 94f6 b2bd 4d5c 6bbd
000001d0: e3a1 c83d eb3a fc3d 0802 f53d da55 0fbe
000001e0: 2c2b febc 6e0c e9bd 7dd9 07bd 6bae 623e
000001f0: 6f75 003d a0d7 fb3d fa5d 35be 2a29 fcbd
00000200: 73d0 8a3d 0a01 d6bd 9c6c ac3d b3cf e63c
00000210: 441a 7f3d 3d75 903e 3db6 3e3e 963d adbc
00000220: 8453 0fbe fed2 32be e838 73bc d7a5 f7bd
00000230: f89b 5cbe 66ff a9bd f15e 45be 5392 a3be
00000240: ce32 c6bd 29ed 5cbe 680a 6dbe d5bc f43c
00000250: fe5d 213e 6d6a 083e fd28 a53d ddb3 06bd
00000260: 05c5 0dbe 610f 76bd cc80 873d 6f3b b9bc
00000270: 8e40 653d 763a 063d b961 013d 3aee 5b3e
00000280: 8a06 353e 50f2 523d dd43 eb3d e80a bbbc
00000290: 3ed9 dd3d 44c2 aabd 0c10 833d ff2d a2bd
000002a0: 5f37 cebd d8e1 c9bd b6ee 03be 6f39 0cbe
000002b0: add6 abbe 872b e1bd 6b67 e5bc b053 0c3e
000002c0: 84f5 013e 5f8b 233c 4739 f3bd 6fd2 afbd
000002d0: caa6 e13d 1980 8bbd fa74 803c de2f c1bc
000002e0: 9c40 f23b 5249 e13d d233 ddbc 6303 59be
000002f0: 2a7a 16be 737c d4bd 804d 25be 160a f3bd
00000300: 6ee6 fcbc 108f 76be dcaa 5dbe 5d40 00bb
00000310: 59a0 f0bd 6ff2 a93d d772 3abe 1854 b5bd
00000320: 1d68 8f3d 40ce 69b9 5c4e 853d cd58 c2bc
00000330: a2bd cebd fb3c af3d 99b4 793d 2d2d d4bd
00000340: 0f1f d33b 2799 cc3c 07c9 093d ec27 033c
00000350: 571b 643d e188 a63d f3dc 22be 7f8c d1bd
00000360: 15d8 cabd 12ec 14be e00c 11be b030 7cbd
00000370: 0907 f3bc 2100 2cbd 6e1a 853b 4fd8 d1bd
00000380: 23f1 c0bd a525 d1bd 73e5 393e e97a d23c
00000390: 36f8 91bd 9c60 a03e 234a 51be e606 38bd
000003a0: c213 22bc 3feb ecbd 48be bcbd 6217 9dbd
000003b0: 976f 31bd 413c 21bd f390 10bd 2897 33be
000003c0: 5cd8 50bd c147 7dbc 4961 55bc e7a3 b03c
000003d0: ed99 f53d af25 353e 0bbb 13be 867b 07be
000003e0: 7c42 fbbd 5d02 ccbb a4d4 ca3d 5a97 4f3c
000003f0: db24 203e 0209 8e3d 956b df3a 9d99 423e
0.05827931 0.03511428 -0.045967318 -0.15552913 0.030250838 0.1451299 0.06807275 -0.18114442
-0.29256627 0.022958366 0.17959689 0.107829005 -0.12587573 -0.18800333 0.022939717 0.17352912
0.120445 -0.12824672 -0.16362046 -0.067982025 0.15116362 -0.054559655 -0.18126477 -0.109549865
-0.045302145 0.028793477 0.046833657 -0.07506775 -0.097781375 -0.10257898 0.20369221 -0.050123923
-0.0055013066 -0.007421458 0.026470786 0.28793705 0.05585436 -0.114397384 -0.17353573 -0.05474359
0.13156828 0.057067346 -0.04723046 0.014043044 0.32420754 0.19480507 0.16373175 0.0233886
-0.02181257 0.029522507 -0.14764385 0.11154427 -0.027201964 0.13375208 0.23788731 -0.076417305
0.01517896 0.014585999 -0.031841777 -0.0055274214 -0.14573844 0.041406684 0.080077596 -0.023495056
-0.17568508 -0.10284232 -0.08563664 -0.17573273 0.0012374884 -0.07286273 -0.025121294 -0.175755
-0.003678508 0.013375686 -0.10695211 -0.12287278 -0.1996171 -0.14569561 -0.18640843 -0.15083893
-0.12936035 -0.19441807 -0.0025438056 -0.023098188 -0.18031873 -0.1892866 -0.27870256 -0.29519847
-0.09535113 -0.07163932 -0.14681292 -0.1785642 -0.11072586 0.03388466 0.15718344 0.050891373
0.08716582 0.23023552 0.22046646 0.09938594 -0.055712137 -0.10802261 -0.21534488 -0.2508202
-0.032609228 -0.11573111 -0.10360677 0.0074731177 -0.055259753 0.08973928 -0.13409087 0.0808358
0.14210843 0.02922932 -0.08738437 -0.05746107 0.097965024 0.12315925 0.11963278 -0.13997594
-0.031026445 -0.11379324 -0.033166397 0.22136848 0.031361993 0.122969866 -0.1771163 -0.12312539
0.0677804 -0.10449417 0.08419153 0.02817521 0.06228091 0.28214446 0.18624206 -0.02114753
-0.13996702 -0.174633 -0.0148451105 -0.12092178 -0.21543872 -0.083006665 -0.19274499 -0.31947574
-0.09677659 -0.21574844 -0.23148501 0.029875198 0.15758511 0.13321848 0.080644585 -0.032886375
-0.13844688 -0.06007326 0.06616363 -0.022611348 0.055969767 0.032770596 0.031587336 0.21477595
0.17678276 0.05150062 0.11487553 -0.022832349 0.10832451 -0.083378345 0.06399545 -0.07918929
-0.10069155 -0.098575294 -0.1288403 -0.13693784 -0.33562222 -0.1099463 -0.028003415 0.13703799
0.12691313 0.009981959 -0.11876159 -0.08585059 0.110181406 -0.06811542 0.015680779 -0.023582395
0.007392956 0.11000313 -0.027002249 -0.21192698 -0.1469504 -0.10375299 -0.16142845 -0.11867158
-0.030871596 -0.24078012 -0.21647209 -0.0019569614 -0.11749334 0.08298194 -0.1820787 -0.0885393
0.0700228 -0.00022297446 0.065090865 -0.023723984 -0.10094763 0.08556553 0.060963247 -0.10360179
0.0064429115 0.024975372 0.03363898 0.008005124 0.055690136 0.08131576 -0.15904598 -0.10231876
-0.099044956 -0.14543179 -0.14165068 -0.06156987 -0.02966644 -0.04199231 0.0040619886 -0.10246336
-0.09420993 -0.10212258 0.18153934 0.025693374 -0.071274206 0.31323707 -0.20438437 -0.044928454
-0.009892406 -0.11568307 -0.09215981 -0.076704755 -0.04331931 -0.039364103 -0.035294484 -0.1753813
-0.050987586 -0.015459002 -0.013023683 0.02156253 0.1199225 0.17690156 -0.1442682 -0.13230714
-0.1226854 -0.0062258677 0.09903839 0.012670362 0.15639059 0.06935312 0.0017045612 0.19003911

bias f4 [20]
00000000: b750 483d 6d4b 4abc 6c97 d2bd 2207 f2bc
00000010: 3c34 82bd fdec 7dbd f5b2 083d e043 633d
00000020: 1505 55bd f565 99bd acaf 0dbe 13c2 bfbd
00000030: 55c9 c0bc 280f cebd a2f4 123e 45ff 78bb
00000040: ea6a 753c 09e0 823d d7b9 0dbd d8ca 80bd
0.0489051 -0.0123470845 -0.10282788 -0.029544417 -0.06357619 -0.061993588 0.03337379 0.055484653
-0.0520068 -0.0749015 -0.13836545 -0.093631886 -0.023533503 -0.100614846 0.14351133 -0.003799395
0.014979104 0.063903876 -0.03460106 -0.062886894

weight f4 [50, 320]
00000000: 7a6b 44bd b979 d5bd 4028 3ebe b6fa 2bbd
00000010: dfa5 debd 73af 093d bd54 cfbd f276 aabc
00000020: 55f2 17be 2472 cd3c 0868 3e3d 59cc 2bbd
00000030: 88ee 2dbe 062d febc 4de8 333e 0f00 573e
00000040: 379f 7abd c42e 91bc 63a0 88bd 730b 033c
00000050: cf4d 05be e08c 6dbd 17c8 4b3d 2115 183e
00000060: 1ed5 38bd 17f4 0fbd f1f6 0a3e 6c4b b73d
00000070: f6a2 dd3d 9946 97bd 04be 093e 0987 85bd
00000080: 83dd 62bc 04e5 ba3d 8b48 263d c8e1 9fbd
00000090: f9ba 8a3d ca9e 8d3d 9408 dbbb 673f 9cbd
000000a0: b8f8 863d 5401 ed3b 1b35 f3bd 99f9 4fbd
000000b0: c6c2 0c3e 90dc eb3d 432e d2bc cc29 353e
000000c0: 3192 8d3c 0a2e 0ebd 95c8 82bd 4edc ce3d
000000d0: a32f 49bd 61fb 023d d3e7 c83d 8c4c 173d
000000e0: 1ac5 a6bd 9b36 883c d0e8 bdbb 91ee c7bc
000000f0: 4252 13be a4f0 663c 2c36 88bd 9ad6 b8bd
00000100: 6b2d 833d 8274 843a b0e6 17be aa67 f3bd
00000110: cdaf 953c 7dc2 54bc 520d 663c 2d18 3cbc
00000120: ada8 24be 45a5 1dbb 7a04 1d3d 2554 bdbb
00000130: 941c 4cbe 6c18 95bd 7800 f93d 2319 d73d
00000140: 7952 82bd ef9b 62bd a757 b3bb b0e8 8abd
00000150: bf4d 073c 277b 81bd 147c 86bd 4275 5c3d
00000160: aebc 62bd 7ff2 a1bd a06a f2bc 510b 2a3c
00000170: 928f 0b3d 5377 4f3e a661 4a3d 6fd6 e5bc
00000180: 4b2f 5b3d 8940 81bc 9bc1 25bc 54e4 5d3c
00000190: 18a7 813c 7961 fb3b 034b 9abd feaf e6bd
000001a0: 4b8e 433d c8f6 2ebe a6ed 08bd a747 ffbd
000001b0: ba24 1b3e f0c0 cfbd 28cf 5d3b e92a ebbd
000001c0: 960e c43d 9b34 30bc a9cc 15bd df33 fe3b
000001d0: e9d7 c3bd f7d0 77bd 24ac 41bd 35d4 04bd
000001e0: 2eb4 edbd 2e9d 7b3d 3eae b93d 333e 92bb
000001f0: 3bef 163e e8da 91bc 7b07 4abb ef1b 15bd
00000200: eeaa 82bc d972 c2bd 780e 15be 6db5 8e3d
00000210: 9b52 cebd 8a2b 17bc edf7 2a3d 89fc ab3d
00000220: 17ad 1fbe a13b ae3d 5699 a3bd d2ec 3e3d
00000230: d308 dfbd ce4e 22bd afe9 a9bd 497c 153c
00000240: 30a7 92bc 0aa6 d3bd 9454 c43d 4e9a 373d
00000250: 0a2a 1bbd 9b0f cd3c be1d 583a ec2a f2bd
00000260: a3e2 573d 9019 5c3d 648f 45bd 185a 0dbe
00000270: 990b 2a3e 9c27 12bd 4663 b2bc bc9c 16be
00000280: 6ef1 853d ee34 0c3d 347e 86bd c765 80bd
00000290: 7fbc 44bd ec60 293b 8c88 4abd 8a63 bcbd
000002a0: af50 cabd de93 103d 611e c43d d78b 67bd
000002b0: a989 3e3e 920c 973d 56ed dfbd 71d6 dabc
000002c0: 0bce e73c e017 383d e8ea 883d eba6 17bd
000002d0: c462 e2bc c643 14bd 514b ae3d a4fc 043e
000002e0: e93a d8bd baf6 debc f33b 2dbc 1c27 d73d
000002f0: 1328 383b 569f 323d afd9 2dbc a80e 67bc
00000300: cc0f b23d 94ae d93c 36bb c4bd cab9 b9bc
00000310: f880 4abc b6f6 be3d 4fb4 91bc 996d d8bd
00000320: 7e2b f6bc 2b01 873c e1fc d63c bfdd b4bd
00000330: 1c50 47be d0c6 d9bd b14d 32bd 9586 8a3d
00000340: 530c 3d3d 299b 7f3b 830c 04be 5172 5bbe
00000350: 3ed7 c03b 858d d2bd 7d6f 3ebe 75c8 8ebd
00000360: d4b5 f33c a78e 413d 5840 ce3d 4428 2b3e
00000370: 55b2 e63d e28e 783e b41a bf3c ca7e a63c
00000380: e36d 05bd e93b a83d 105e cc3d d88b dabd
00000390: 30eb 53be 8650 05bd e55c 62bd 43ca c23d
000003a0: fc3b 20bc 62c9 7cbc fa2f ddbd 80c9 ba3d
000003b0: 490a 103e 8f21 42bd 2251 b8bc 9ecf 22be
000003c0: 3df2 f93d b2a6 67bd 3ecf 5fbd 9f6d e23b
000003d0: 5d52 a7bc 55b0 8dbd 6a14 93bd e4e6 dabc
000003e0: 1f53 7cbd 0a29 87bc 0b7a 5cbd 0a2e d0bd
000003f0: 4be5 333e 3bea d2bc 80ae 433c dce4 9ebd
-0.04795406 -0.104236074 -0.18570042 -0.041987143 -0.10871481 0.033614587 -0.101235844 -0.02080867
-0.14838536 0.02507884 0.04648593 -0.041942928 -0.16985524 -0.031027328 0.17569084 0.20996116
-0.061186995 -0.017722495 -0.06671216 0.007998335 -0.13017963 -0.057995677 0.049751367 0.1485181
-0.04512512 -0.03514489 0.13570763 0.089499325 0.10822098 -0.07386512 0.13451391 -0.065198965
-0.013846758 0.091257125 0.040596526 -0.07806736 0.067739435 0.06915052 -0.006684372 -0.076292805
0.06590408 0.0072328243 -0.118753634 -0.050775144 0.13746175 0.11516678 -0.025656825 0.17691725
0.017281624 -0.034711875 -0.06385914 0.101006135 -0.049117696 0.031978015 0.09809842 0.036938235
-0.08143063 0.0166276 -0.0057955757 -0.02440575 -0.14386848 0.014095459 -0.066509575 -0.09025307
0.06405147 0.0010105523 -0.14834094 -0.11885007 0.018272305 -0.012985823 0.014041262 -0.011480373
-0.1607997 -0.0024054807 0.038334347 -0.005777853 -0.19932777 -0.07280049 0.121582925 0.10502841
-0.06363387 -0.05532449 -0.0054730955 -0.06782663 0.008258282 -0.063223176 -0.06566635 0.053822763
-0.05535572 -0.079075806 -0.029591858 0.010378675 0.034072466 0.20260362 0.04940953 -0.028056351
0.0535119 -0.015777843 -0.01011696 0.013543207 0.015826747 0.0076715318 -0.075338386 -0.112640366
0.047743123 -0.17086327 -0.033429764 -0.124648385 0.15150729 -0.10144222 0.0033845399 -0.11482794
0.095730945 -0.01075473 -0.036572132 0.0077576484 -0.09562666 -0.06050202 -0.047283307 -0.03242894
-0.11606632 0.061429195 0.09066437 -0.004462981 0.14739697 -0.017804578 -0.0030827213 -0.036403593
-0.015950646 -0.09494562 -0.145563 0.06968198 -0.100743495 -0.009226689 0.041740347 0.08397777
-0.15593372 0.08507467 -0.07988231 0.04661257 -0.10890355 -0.039625935 -0.08296525 0.00912387
-0.017901987 -0.10334404 0.095864445 0.04482489 -0.03788189 0.025031855 0.0008244178 -0.11824593
0.052706372 0.053735316 -0.04823245 -0.138039 0.16605987 -0.035682306 -0.021775853 -0.14708227
0.0654019 0.034230165 -0.0656704 -0.062694125 -0.048031326 0.0025845123 -0.049446627 -0.09198673
-0.098786704 0.035297267 0.09576107 -0.056529846 0.186072 0.073754445 -0.1093394 -0.026713582
0.028296491 0.044944644 0.0668543 -0.03702442 -0.027634986 -0.036197446 0.08510459 0.12987
-0.10558111 -0.027217258 -0.010573375 0.105055064 0.0028100058 0.043608986 -0.010610982 -0.014102615
0.08694419 0.026572503 -0.0960602 -0.022671599 -0.01235985 0.093244 -0.017786173 -0.10567779
-0.030050036 0.01648005 0.026243629 -0.08831357 -0.19464153 -0.106336236 -0.043531124 0.06763951
0.04615433 0.0039002395 -0.12895398 -0.21430327 0.005885034 -0.10280899 -0.18597217 -0.06971828
0.029749788 0.047255185 0.10070866 0.16714579 0.11264483 0.24273255 0.023328163 0.02032413
-0.0325755 0.08214552 0.099788785 -0.10671204 -0.20695186 -0.032547496 -0.055264372 0.095112346
-0.009779926 -0.015428873 -0.108001664 0.09120464 0.14066423 -0.047395285 -0.022499625 -0.15899512
0.122044064 -0.056555457 -0.054641 0.0069100405 -0.020425016 -0.06918398 -0.07181628 -0.026721425
-0.061602708 -0.016499061 -0.053827327 -0.10165031 0.17567937 -0.025746455 0.0119434595 -0.07758495

bias f4 [50]
00000000: 2b86 813e 59f1 dd3d e3fa 243e 0c06 1c3e
00000010: 4c7f 523e 4f19 083e 87cd de3c 807b 5a3c
00000020: 9706 a13c 16fc ca3c c6ae 473e 3eae af3d
00000030: fd63 873d 9f6d d43d 9cc0 a63c 4127 703d
00000040: 29a9 ef3d d3fd a63d b52a 4b3d 8fb4 923d
00000050: cb49 483c 51df 87bc 024c 013e 2d17 2e3e
00000060: ae4e 7a3e 5e3a 7d3d 6ea4 193e d339 e53c
00000070: 4002 903d 720d b4bd 19cb 023e c339 603e
00000080: 5ab5 073d 230e ee3c e923 423d e338 bfbc
00000090: 9c2a 8f3d b2aa ba3d 0a70 4f3e 39ea 033e
000000a0: 53ac c93d 5e79 cb3d 3f45 da3d 30d5 c83d
000000b0: 6783 463e c961 e83d 88f0 af3d c8dc 983d
000000c0: 5437 8f3e 053c 653d
0.25297675 0.10837049 0.1611133 0.15236682 0.20556372 0.13290904 0.027197612 0.013335109
0.019656463 0.024778407 0.19500265 0.08578156 0.06610868 0.10372471 0.020355515 0.058631185
0.117021866 0.08153882 0.049601275 0.07163345 0.012224625 -0.016585978 0.12626651 0.17001028
0.24444076 0.06182324 0.15004131 0.027981674 0.07031679 -0.08791627 0.12772788 0.21897034
0.033131935 0.029059475 0.047397528 -0.023342555 0.06990549 0.09114589 0.20257583 0.12882318
0.09847321 0.09935258 0.10657739 0.09806287 0.19386064 0.11346776 0.085907996 0.07463986
0.279719 0.055965442

weight f4 [10, 50]
00000000: a4ed a8be 2950 f3be efdf 01bc 95b4 243d
00000010: be7d c0be 3d7a 8ebe fddc 89bd 2ca0 cfbe
00000020: b2d8 703d be6c f4be e17f 17bf 833d c43d
00000030: 1fe7 a1be c204 abbe 2c48 a4be 1ea2 f53d
00000040: 20ac 56bc 39de 7cbe 68f2 8abd 6580 80be
00000050: cab6 de3c b1d9 63bd be4a 7b3d 46d2 4abe
00000060: 877f bf3b 0f21 49bc 266b d9bc 75d1 75be
00000070: eb1f a4be 9ba3 87be f491 8fbe 98ce 5bbd
00000080: 6d39 08bf 55a0 95be 2691 963d a009 c0be
00000090: 31da 433d 00ec cdbe 0c97 ad3d 0eaa cdbe
000000a0: 44ba a1be bcaa 0d3b 2053 5ebe cd10 833d
000000b0: 283d cbbe cde1 eabe 032a fa38 aaeb b7bd
000000c0: 3216 dabe 9235 e5bd d251 42bd eb20 653c
000000d0: a2f2 80be f126 eebe ea81 a9be e251 8dbe
000000e0: bfa3 bbbe b422 213c e75f ba3c ba3b 0cbd
000000f0: 6aeb 853d 5a24 8dbe 4195 0e3e ff3d 45be
00000100: 242c 323d 4804 5cbe e5c7 8cbd df8c 67be
00000110: 94fd bfbe 7e29 03bf 7e87 e5be d2ff 813d
00000120: 786c 963d 3919 a9be e63b 2bbe 2e80 48bb
00000130: e03f afbe 2480 92be b2d0 82bd 35a0 793d
00000140: 3e6a ae3c 83df 80be e75f fbbd f16d a5be
00000150: 6c03 17bf 5503 90be 448b a1be 2ca0 2dbc
00000160: d24f 85be 7860 6c3d cd08 66be 8669 8ebe
00000170: d30d 8abe 1d10 25be d3b7 cb3c c4c0 c7bc
00000180: c585 e5be 3213 bfbe 25dd 95be 48a6 07be
00000190: fc18 f8bd 0044 ed3d 3d13 b8be ad00 dabe
000001a0: dc82 a73d c5fa fd3d 7308 c63d 171f 88be
000001b0: 9209 b9be 252a 8b3d 9c8b 703d 31a0 02bf
000001c0: 88ea 783d 1b56 d33c 62bb b2be f19c f6be
000001d0: b0fe 12bf 0ce7 a8be fa39 8fbe b6b0 a03d
000001e0: 2ae1 b0be d92b afbe 5b83 6dbe d3b9 483d
000001f0: 7ba5 7ebe 7400 47be 328d 693c 6d6c 633d
00000200: e3b1 a1be 4c0b c3be b1a9 00bd 9798 12be
00000210: 4e77 343d 2d75 e5be f776 99be 307c 84be
00000220: 906a 4cbe 6c06 b7bd d2ba e0be d252 743c
00000230: 4bbf f13c 7781 c3b8 7cb7 10be 8c64 f9be
00000240: 8888 30be e39e 69bd 63a5 f6be 02a2 a4be
00000250: 2300 873c 15c8 39be 7e68 00bf 3b3b 9c3d
00000260: d593 6bbe 6c15 edbe 3c19 0a3b e272 9ebe
00000270: 138f e2be 3125 0bbf 8589 aebe 23da 03bf
00000280: 75a3 ad3d 9181 cdbe b7aa 0fbd 3141 06bf
00000290: 48ac 743d 3ea3 c4be 2602 03bf c949 c2bc
000002a0: de78 97be d0e8 50ba 4033 d23c ae1e e0be
000002b0: 7da2 c0be 19d4 083c a56a 36bd 5fbc 55be
000002c0: 26a5 16bd 9c29 bbbe cd95 8cbe 756a 95be
000002d0: 5668 5fbe c100 7b3d 52ae 10bf 1c02 9f3d
000002e0: 08d2 b9bb ad8e 8cbe 6bad fb3c 7a7c c53d
000002f0: 4776 66be 5885 ecbd aeb1 823d 3217 92be
00000300: 8db6 953d 5019 03bf c6a3 f8be 0e41 0bbf
00000310: 10d4 a03c c483 5abe 03e0 8cbe dbb1 61bd
00000320: 8628 c7bd 85ea e8be cbd9 e73d 9296 edbb
00000330: 8f50 96be f6a2 b63d ffbf 98be ad52 dbbe
00000340: 9057 95be c682 0ebf 73a1 94be 23e8 4cbd
00000350: 6a6c 993d c2d4 603d fdd6 673d 7f4a a9be
00000360: a4b9 ffbd f875 b7be f5ac 48be 5174 da3c
00000370: d178 8abd 81f8 14be ae4f 503d ca32 8c3d
00000380: 3f41 993d d497 fdbe 489d f0be 1f36 d5be
00000390: 7b79 6abe 5b82 c63d 39e2 a8be e165 a03d
000003a0: 1bab ddbe 0c41 c1be e395 72bd 7a81 703d
000003b0: 87da fd3b 591d 17bf 32bc 893d d82c 90be
000003c0: 7aa2 83be 064c e4bc 6f4d dd3c e860 82bc
000003d0: 88f5 3abc d7e9 b5be 42d9 8cbe 7646 a53d
000003e0: 584e af3d 85ff 7cbc b3f9 04bf f72f 513d
000003f0: 7a54 f0be 4ee7 c5be 6449 15bd 10f8 8cbe
-0.32993805 -0.47522095 -0.007926925 0.04021128 -0.37595934 -0.27827635 -0.06731603 -0.4055189
0.058800407 -0.47739214 -0.591795 0.09582045 -0.31621644 -0.33402067 -0.32086313 0.11993812
-0.013102561 -0.24694146 -0.067845166 -0.25097957 0.02718677 -0.05562753 0.061350577 -0.19806775
0.00584406 -0.012275948 -0.02654035 -0.24005683 -0.320556 -0.2649201 -0.2804104 -0.05366382
-0.53212625 -0.29223886 0.073519036 -0.37507343 0.047815505 -0.40219116 0.084760755 -0.40168804
-0.31587422 0.0021616658 -0.21711397 0.06399689 -0.39695096 -0.45875397 0.00011928754 -0.08980496
-0.4259506 -0.11191858 -0.04744131 0.013984899 -0.25185114 -0.46514085 -0.3310693 -0.27601534
-0.36648366 0.009834934 0.022750808 -0.034236647 0.06539042 -0.27566797 0.13924123 -0.19261931
0.043499127 -0.21486008 -0.06874064 -0.22612332 -0.37498152 -0.5123519 -0.44829935 0.06347622
0.073449075 -0.33027056 -0.16722068 -0.003059398 -0.3422842 -0.2861339 -0.06387462 0.0609438
0.021290895 -0.25170526 -0.12274151 -0.3231044 -0.58989596 -0.28127542 -0.31551564 -0.01059727
-0.2603746 0.057709187 -0.22464295 -0.27814883 -0.26963672 -0.16119428 0.024867928 -0.02438391
-0.4482862 -0.37319332 -0.29270282 -0.13247025 -0.121141404 0.115852356 -0.35952178 -0.4257864
0.08179256 0.12401346 0.0966958 -0.2658622 -0.36140114 0.06795148 0.058726892 -0.5102568
0.06077054 0.025797894 -0.34908587 -0.48166612 -0.5741987 -0.32988775 -0.2797392 0.07846205
-0.34546787 -0.3421314 -0.2319464 0.04900534 -0.24867813 -0.19433767 0.014254855 0.055523325
-0.3158103 -0.38094556 -0.03141183 -0.14316021 0.04405909 -0.4481596 -0.29973575 -0.25875998
-0.19962525 -0.08936772 -0.43892533 0.014912324 0.02951016 -9.322439e-05 -0.14132494 -0.48709524
-0.17239583 -0.05703629 -0.48173055 -0.32154852 0.016479557 -0.18142731 -0.5015944 0.07628485
-0.23005612 -0.46305406 0.002107217 -0.30947024 -0.44249782 -0.54353625 -0.34089294 -0.51504725
0.084784426 -0.40137914 -0.035074916 -0.52443224 0.059734613 -0.38405794 -0.51175153 -0.023716824
-0.29584402 -0.0007969262 0.025659204 -0.43773407 -0.3762397 0.008351349 -0.044535298 -0.20872639
-0.03677859 -0.36555183 -0.2745804 -0.29182783 -0.21817145 0.061280016 -0.5651599 0.07764074
-0.0056707896 -0.27452603 0.03072234 0.09642883 -0.22506057 -0.11548871 0.06381546 -0.28533322
0.073102094 -0.512105 -0.4856245 -0.5439614 0.01963237 -0.21339327 -0.27514657 -0.055101257
-0.09724526 -0.45491424 0.113208376 -0.0072506154 -0.29358336 0.08917801 -0.2983398 -0.42836514
-0.29168367 -0.55668294 -0.29029426 -0.05002607 0.074913815 0.0548904 0.056601513 -0.33064649
-0.1248658 -0.3583219 -0.19597228 0.026666792 -0.06761325 -0.14547922 0.05085724 0.06845625
0.07483148 -0.49529898 -0.46994996 -0.41642854 -0.22897904 0.09692832 -0.32985094 0.07831932
-0.43294606 -0.3774494 -0.059224974 0.05871723 0.0077469978 -0.59029156 0.067253485 -0.28159213
-0.25709897 -0.027868282 0.027014462 -0.01591535 -0.011411078 -0.35529968 -0.27509505 0.0807008
0.08559865 -0.01544178 -0.5194351 0.051071133 -0.4693945 -0.38653034 -0.036446944 -0.27533007

bias f4 [10]
00000000: 0613 aabd 1ca7 903d 2ae1 453c d08a 9b3d
00000010: 4815 5abd decf fc3d 26de 67bd 40b9 64bd
00000020: a02e a73c 28d9 a93c
-0.0830441 0.070631236 0.012077609 0.07594836 -0.05324295 0.12344335 -0.05660834 -0.05584073
0.020407975 0.020733431
