artifact_store/8/c3f17a10307140fca154a4393671fc1c/artifacts/model/data/model.pth (torch_old, 92235 bytes, 8 tensors)

weight f4 [10, 1, 5, 5]
0	0xbeb4c114	-0.35303557
1	0xbdab8ca8	-0.083764374
2	0x3ee92cef	0.45542094
3	0x3e4e8943	0.20169549
4	0xbe518813	-0.20462064
5	0x3e23a2c2	0.15980056
6	0x3e786a42	0.24259284
7	0xbe974f26	-0.29552573
8	0x3e7469bd	0.23868461
9	0x3da43653	0.08018174
10	0xbc6950a6	-0.0142404195
11	0xbdc089b1	-0.094012626
12	0xbec27994	-0.37983382
13	0xbe5c248a	-0.21498314
14	0x3e1b9cf8	0.15196598
15	0x3e81bb5e	0.25338262
16	0x3e53a01b	0.20666544
17	0x3e8d813b	0.27637658
18	0x3d9c0ebd	0.076199986
19	0x3d71503a	0.0589144
20	0xbec8cc52	-0.39218384
21	0xbee1eed3	-0.4412752
22	0xbb9104c5	-0.0044256174
23	0xbe2e8d01	-0.17045976
24	0xbddc09cc	-0.10744056
25	0xbe9fa7f5	-0.3118283
26	0xbc0091cd	-0.007847262
27	0x3e3c13b3	0.1836689
28	0x3e9a4eda	0.30138284
29	0x3d4bf275	0.049791772
30	0xbd55ac8b	-0.052166503
31	0xbdffaf9f	-0.12484669
32	0xbe2def58	-0.16985834
33	0x3c8c734e	0.017144825
34	0x3ecb8663	0.39750966
35	0xbcaec44e	-0.02133384
36	0xbe6f1dff	-0.23351286
37	0xbd7e0e7a	-0.062025525
38	0xbdf4f5a4	-0.11960915
39	0x3e6f1808	0.23349011
40	0xbe0390b8	-0.12848175
41	0xbe540b8b	-0.20707528
42	0xbea2c70b	-0.31792483
43	0xbe9200d0	-0.28516245
44	0xbcfdd36c	-0.030984603
45	0xbcac487a	-0.021030653
46	0x3e33b8b0	0.17550921
47	0x3e1701c5	0.14746769
48	0xbd970e70	-0.073758006
49	0x3ddab239	0.106785245
50	0x3c3b2952	0.011423426
51	0xbe4fc8d8	-0.2029146
52	0x3c8fe82f	0.017566768
53	0xbd69b1e7	-0.057054427
54	0x3e54baee	0.20774433
55	0xbd8fcdfa	-0.07021709
56	0x3e05f070	0.13080001
57	0xbe6744e2	-0.2258487
58	0x3e266900	0.16250992
59	0x3e1a929d	0.15094991
60	0x3bb678a8	0.0055685826
61	0xbdf4eebc	-0.119595975
62	0xbd810de8	-0.063014805
63	0x3e9211d3	0.28529224
64	0xbe14ed01	-0.14543535
65	0x3d8ea075	0.069641985
66	0xbd1eac10	-0.03873831
67	0x3e9eacee	0.3099131
68	0xbd760dd9	-0.0600718
69	0xbecbd75e	-0.3981275
70	0x3ce4100b	0.027839681
71	0x3b9bbf5f	0.004753038
72	0x3e90be5d	0.28270236
73	0xbe9157e7	-0.28387377
74	0xbe9039b3	-0.2816902
75	0xbe3986c8	-0.18117821
76	0xbed1ff1b	-0.41014943
77	0xbe8542de	-0.26027578
78	0xbc8bec75	-0.017080525
79	0xbdb91c9b	-0.09038659
80	0xbe1156da	-0.14193287
81	0xbe90ab0c	-0.28255498
82	0xbe85a316	-0.26100987
83	0xbe9523ba	-0.2912882
84	0xbeb07281	-0.3446236
85	0x3d106d35	0.035260398
86	0x3dc003bc	0.09375712
87	0x3cf05e51	0.029341849
88	0x3d99ef43	0.07516339
89	0xbe91d76c	-0.28484666
90	0x3d41599f	0.04720461
91	0x3dc72013	0.097229145
92	0x3e3549f5	0.17703994
93	0xbdff3e3a	-0.12463041
94	0x3c85e7ed	0.016345942
95	0x3e8c1d96	0.27366322
96	0x3e3665c8	0.17812264
97	0x3d29e677	0.041479554
98	0xbe1e0ca3	-0.15434508
99	0x3e84c87d	0.2593421
100	0x3e1134ef	0.14180349
101	0xbf16ad12	-0.58857834
102	0xbe97c3b9	-0.29641512
103	0xbe639199	-0.2222351
104	0xbde4a718	-0.11164683
105	0x3e4d6b2e	0.20060417
106	0xbdc802fc	-0.09766194
107	0x3e275ca2	0.1634393
108	0xbe160ce7	-0.1465336
109	0xbe0cd55f	-0.1375327
110	0x3e1ba368	0.15199053
111	0xbe224c0e	-0.15849325
112	0x3d41dfe1	0.04733265
113	0xbe596871	-0.21231247
114	0x3e000743	0.1250277
115	0x3e663c8e	0.22484037
116	0xbe2419bb	-0.1602544
117	0x3da49fbc	0.080382794
118	0xbeb28b3e	-0.34871858
119	0x3e8816cd	0.26579896
120	0x3e2c08b9	0.16800202
121	0xbe6df20d	-0.23236866
122	0xbd86a18b	-0.065737806
123	0xbe6fb1aa	-0.23407617
124	0x3db75dc0	0.08953428
125	0xbebdd772	-0.37078434
126	0x3d445993	0.047936987
127	0xbca53b1e	-0.02016979
128	0x3e112e05	0.14177711
129	0x3e2a4cbc	0.16630834
130	0xbeafe739	-0.34356096
131	0xbe6bfe8e	-0.23046324
132	0xbe11be5f	-0.14232777
133	0xbe0e2aa5	-0.13883455
134	0x3def8f33	0.11697235
135	0x3c4bd3cc	0.012440633
136	0xbeb51748	-0.35369325
137	0xbea5bd1f	-0.3237085
138	0xbdca615e	-0.098818526
139	0xbe14b4fb	-0.14522164
140	0x3e33ac9d	0.17546315
141	0xbd465f49	-0.048430715
142	0xbe4eaa8a	-0.20182243
143	0xbe8dd9c8	-0.27705216
144	0xbd75b583	-0.059987556
145	0x3dbb3cc3	0.09142449
146	0x3e70f5b9	0.23531236
147	0x3c2ef418	0.010678314
148	0xbe3a0046	-0.18164167
149	0xbe9f6ca6	-0.3113758
150	0x3d679e64	0.056547537
151	0xbcdd3058	-0.027000591
152	0xbe7b29e3	-0.24527697
153	0xbef81c74	-0.48459208
154	0xbd4f9ee5	-0.050688643
155	0xbe299e88	-0.16564381
156	0xbe8da973	-0.27668342
157	0xbe9788f3	-0.2959667
158	0xbd3c136e	-0.045916967
159	0x3deb7bc6	0.11498217
160	0xbeda1f92	-0.4260221
161	0xbd84a75a	-0.06477232
162	0xbe643981	-0.22287561
163	0xbd152df1	-0.036420766
164	0xbbf5a70a	-0.0074967192
165	0xbe9962b3	-0.29958114
166	0x3d118366	0.035525702
167	0x3e89ff03	0.2695237
168	0x3e4ecc95	0.2019523
169	0xbcc50e5c	-0.024054699
170	0x3db9b4f7	0.090677194
171	0x3e150df8	0.1455611
172	0x3e1d42f4	0.15357572
173	0x3dc1f11e	0.094698176
174	0xbd9842b6	-0.07434599
175	0x3eb7c2e4	0.35890877
176	0xbbf62d7a	-0.0075127454
177	0x3dd0e053	0.101990364
178	0x3e40c602	0.18825534
179	0x3e80de2f	0.25169513
180	0xbe4e284a	-0.20132557
181	0x3d1b078b	0.03784899
182	0x3d3010d7	0.04298481
183	0xbd2fb6cb	-0.042898934
184	0xbdfc0e08	-0.12307364
185	0xbe37b279	-0.17939176
186	0x3e9f356c	0.31095445
187	0x3d813de0	0.0631063
188	0x3d8f0cd6	0.0698487
189	0xbdf8c6e5	-0.12147311
190	0xbecb6962	-0.39728838
191	0xbe9700c3	-0.2949277
192	0xbeb170ec	-0.34656465
193	0xbea77c5a	-0.3271206
194	0xbeb10403	-0.34573373
195	0xbed328ce	-0.4124207
196	0xbeaa7fc9	-0.33300617
197	0xbea94f52	-0.3306833
198	0xbdffba26	-0.12486677
199	0xbde9b6e9	-0.114118405
200	0xbbc7cbd0	-0.0060972944
201	0xbe2e6b06	-0.17033014
202	0xbe168d8f	-0.14702438
203	0xbd63099f	-0.055429097
204	0xbe3b1fca	-0.18273845
205	0xbd36041b	-0.04443751
206	0x3c8a07d2	0.016849432
207	0xbde9e11e	-0.11419891
208	0xbdb09278	-0.08621687
209	0xbe1cc6fe	-0.15310284
210	0xbe243690	-0.16036439
211	0xbdb37305	-0.087621726
212	0xbdfea17d	-0.12433145
213	0xbcdab0e6	-0.02669568
214	0x3bf9f206	0.0076277284
215	0xbd14887d	-0.036262978
216	0x3c7fb261	0.015606494
217	0xbdb62deb	-0.08895477
218	0xbd0d16e3	-0.034445655
219	0xbe2ad7ff	-0.16683958
220	0xbe15419e	-0.14575812
221	0xbe0f5d42	-0.14000419
222	0xbd848552	-0.06470741
223	0xbe48b6a2	-0.19600919
224	0xbd9dc8cc	-0.077043146
225	0xbe77fc0d	-0.24217243
226	0xbca8280f	-0.020526914
227	0xbda4c3b3	-0.08045139
228	0xbdba81aa	-0.09106763
229	0x3e71b82c	0.23605412
230	0x3e04c897	0.12967144
231	0x3c07b859	0.008283698
232	0x3db6b074	0.089203745
233	0xbe96686c	-0.29376543
234	0x3dcba93b	0.099443875
235	0xbc92a87a	-0.017902602
236	0xbec943f1	-0.39309648
237	0x3db10509	0.086435385
238	0x3dc515d1	0.09623302
239	0xbd986364	-0.07440832
240	0x3dc7286d	0.097245075
241	0x3e2126bc	0.15737432
242	0x3e0d870f	0.13821052
243	0x3efde9b0	0.49592352
244	0xbedf758c	-0.4364437
245	0xbdd00d3e	-0.10158776
246	0xbec9253d	-0.39286223
247	0xbe24d3f2	-0.16096476
248	0x3e1d5177	0.15363108
249	0xbe6f7a2b	-0.23386447

bias f4 [10]
0	0xbf022dc6	-0.50851095
1	0xbf479e90	-0.7797632
2	0xbf76255b	-0.9615075
3	0xbf390660	-0.7227535
4	0xbf386cd4	-0.7204106
5	0xbf0f9840	-0.5609169
6	0xbf51afd4	-0.8190892
7	0xbf70f252	-0.9411975
8	0xbe912be5	-0.283538
9	0xbf22920f	-0.6350412

weight f4 [20, 10, 5, 5]
0	0x3dd57345	0.104223765
1	0x3cf21a1e	0.02955347
2	0x3da206ac	0.07911429
3	0xbcdac8bb	-0.026707044
4	0xbe10ee73	-0.14153461
5	0xbd077da4	-0.033078805
6	0x3bbe507b	0.005807934
7	0x3e4dcb4b	0.20097081
8	0x3d9a5f07	0.07537656
9	0xbd9b8573	-0.07593813
10	0x3d691761	0.05690706
11	0xbda91a5b	-0.0825698
12	0x3bf046fe	0.0073326817
13	0x3d98a102	0.07452585
14	0xbd055880	-0.032555103
15	0xbdb504cd	-0.08838806
16	0xbd7c8a3f	-0.06165528
17	0x3d87374c	0.06602344
18	0x3c56d6f1	0.013112769
19	0x3df20740	0.11817789
20	0x3c78474d	0.015153718
21	0xbde489d1	-0.11159099
22	0xbd89ee5e	-0.06734918
23	0xbd9f1d8f	-0.0776931
24	0x3d1cd359	0.038287494
25	0x3d751568	0.059834868
26	0x3c9b05e5	0.01892371
27	0xbd219ea8	-0.039457947
28	0xbe3d5c1a	-0.18492165
29	0xbe0cf651	-0.13765837
30	0x3c3ba99b	0.011454011
31	0xbc585130	-0.01320295
32	0x3d33be81	0.04388285
33	0x3ca88097	0.020569129
34	0x3c836ddb	0.016043594
35	0xbdb0c321	-0.08630968
36	0xbdb26388	-0.0871039
37	0xbdbbe846	-0.09175162
38	0x3e5e3cf3	0.21702938
39	0x3e1ce4ca	0.15321651
40	0xbdf81a57	-0.12114399
41	0xbb93e969	-0.0045139086
42	0xbba9bd18	-0.0051800124
43	0x3db03593	0.086039685
44	0xbd325ebe	-0.043547384
45	0x3d4956df	0.049155112
46	0xbd319959	-0.043359134
47	0xbdcd9f06	-0.10040097
48	0x3cf2ee2f	0.02965459
49	0x3daaeac0	0.08345556
50	0xbe0d0928	-0.13773024
51	0x3c3d246a	0.011544326
52	0xbd905f74	-0.07049456
53	0x3ddcca98	0.10780829
54	0x3cb1c8c4	0.021702178
55	0xbd8e0061	-0.06933666
56	0x3d123fae	0.03570526
57	0xbe303fa2	-0.17211774
58	0xbdbc1619	-0.09183902
59	0x3d20a6b0	0.039221466
60	0xbdaa8825	-0.08326749
61	0xbd7ee1e2	-0.062227137
62	0xbe342c7a	-0.17595091
63	0xbd8acbf1	-0.0677718
64	0xbd5b3c5b	-0.053524356
65	0xbd7cf438	-0.061756343
66	0xbd5b608e	-0.05355888
67	0xbe030d66	-0.1279808
68	0xbdf4b5ae	-0.11948715
69	0xbdfadb29	-0.12248833
70	0x3c27b80c	0.010236751
71	0x3d77161b	0.060323816
72	0x3e24f697	0.16109692
73	0x3da3b263	0.07993009
74	0x3ddc0410	0.10742962
75	0x3c4f4bda	0.012652362
76	0x3d58301a	0.05278025
77	0x3d55301e	0.05204784
78	0xbdfc5c56	-0.12322299
79	0x3c9981ab	0.018738588
80	0x3c7603da	0.015015567
81	0x3ba07181	0.004896343
82	0x3c3f7495	0.01168551
83	0xbdfe9d2d	-0.12432323
84	0x3dd42861	0.10359264
85	0x3def6de5	0.116908826
86	0xbb311433	-0.0027020096
87	0x3c8ac0cb	0.016937634
88	0xbce979d7	-0.02850048
89	0x3de3c892	0.1112224
90	0x3e1b0e30	0.15142131
91	0xbcf1a6ed	-0.029498542
92	0x3d749f21	0.05972207
93	0x3da3bd41	0.07995082
94	0xbdd6aa3e	-0.1048169
95	0x3ea95735	0.33074346
96	0x3e08ed8d	0.13371868
97	0x3e482d8b	0.19548623
98	0xbdb7bc85	-0.08971504
99	0xbe87e364	-0.26540673
100	0xbd8a5fa4	-0.06756523
101	0xbd82b35c	-0.06381866
102	0xbdf7db4e	-0.12102376
103	0x3d95fd71	0.07323731
104	0x3aab1d17	0.0013054934
105	0xbdb20aad	-0.086934425
106	0xbd68b0eb	-0.056809347
107	0xbdbe6c73	-0.09298029
108	0xbca0ee2f	-0.019644825
109	0x3de986e5	0.11402682
110	0xbdb5c8f6	-0.08876221
111	0xbe218c1d	-0.15776105
112	0xbe125c6f	-0.14293073
113	0xbdf883f8	-0.12134546
114	0xbd52d4b8	-0.051472396
115	0xbd92f1f8	-0.07175058
116	0xbd84f9a5	-0.064929284
117	0xbde155a0	-0.1100266
118	0xbe1232da	-0.14277211
119	0xbe10cff7	-0.14141832
120	0x3cfc8d90	0.030829221
121	0x3e19209f	0.1495385
122	0xbca940c7	-0.020660771
123	0xbd94d28f	-0.07266723
124	0xbe6613e0	-0.22468519
125	0x3d309733	0.043112945
126	0xbd73bd19	-0.05950651
127	0xbcebda29	-0.02879055
128	0x3bb8b7bb	0.0056371368
129	0x3e0f5c19	0.13999976
130	0x3e252320	0.1612668
131	0xbb9d1704	-0.0047940034
132	0x3d59d773	0.053183984
133	0x3d5aba93	0.053400587
134	0x3d653a21	0.05596364
135	0x3d8f11f8	0.06985849
136	0x3be1a42a	0.006886025
137	0x3d9941f6	0.07483284
138	0x3dac9404	0.08426669
139	0x3d19b335	0.03752442
140	0x3db5e0cd	0.08880768
141	0x3db2f455	0.08738009
142	0xbc12582b	-0.008932154
143	0xbc33458c	-0.010941874
144	0xbdeab0b8	-0.11459488
145	0x3db58209	0.08862693
146	0x3dac12fc	0.084020585
147	0x3e0631e5	0.13104971
148	0xbd433ad1	-0.047663514
149	0xbd37f875	-0.04491468
150	0xbdde4c72	-0.108544245
151	0xbd221c47	-0.03957775
152	0xbd2e3b45	-0.042536993
153	0xbdf470cf	-0.11935579
154	0xbdfd356a	-0.123637035
155	0xbdeb54a5	-0.11490754
156	0xbdcc0d91	-0.09963525
157	0xbd8fe709	-0.07026488
158	0xbd838eaf	-0.06423699
159	0xbe2902b4	-0.16504937
160	0x3d4b6cf7	0.049664464
161	0x3d05eb20	0.032694936
162	0x3d04420d	0.032289553
163	0xbd15ecbd	-0.036602724
164	0xbd2898dd	-0.041161407
165	0x3db279a9	0.08714611
166	0xbddf6868	-0.10908586
167	0xbd63966a	-0.055563368
168	0x3dc9630b	0.09833344
169	0x3d8f3699	0.069928356
170	0x3cabe50a	0.020983238
171	0x3db4e6ab	0.08833059
172	0xbcab4129	-0.020905094
173	0xbd02b764	-0.031913176
174	0x3e7a4aa5	0.24442537
175	0x3e4da997	0.20084225
176	0x3e7ee026	0.24890193
177	0xbcd44fc5	-0.025916943
178	0xbe1c8780	-0.15286064
179	0xbd629743	-0.055320036
180	0x3e6255b1	0.22103001
181	0x3e0267c5	0.12734897
182	0x3d1ce019	0.038299654
183	0xbdb81b1f	-0.08989548
184	0xbe03c94b	-0.12869756
185	0x3e14ff74	0.14550573
186	0x3e23e04d	0.16003533
187	0x3df3c81f	0.119034044
188	0xbd3689bb	-0.044564944
189	0xbe06efb9	-0.13177384
190	0x3e01d52c	0.12678975
191	0x3d92002f	0.07128941
192	0x3dde45d1	0.1085316
193	0x3d67942b	0.05653779
194	0xbd3999be	-0.045312636
195	0xbca69e84	-0.020339258
196	0xbc4f07dd	-0.012636152
197	0xbe1c19df	-0.15244244
198	0xbdd75846	-0.10514884
199	0xbe227559	-0.15865077
200	0xbda53bb6	-0.080680296
201	0xbda57ebc	-0.08080813
202	0xbe1edb07	-0.1551324
203	0xbd5943cf	-0.053043183
204	0xbd062ef7	-0.032759633
205	0x3c57199b	0.013128663
206	0xbcee08ce	-0.029056933
207	0xbc7a6a5e	-0.015284149
208	0xbdd645e4	-0.10462549
209	0xbdaa507a	-0.08316131
210	0xbb0452e2	-0.0020191004
211	0x3d5cdd44	0.053921953
212	0x3d015b21	0.031581048
213	0xbdca3d6a	-0.09874995
214	0xbdee3fd3	-0.11633267
215	0xbd7cbc29	-0.06170288
216	0x3b60d6e3	0.003430777
217	0xbcd8e1ee	-0.02647492
218	0xbd1b8562	-0.037969
219	0xbe2bae2f	-0.16765665
220	0xbe114f76	-0.14190468
221	0xbc5adb67	-0.013357974
222	0xbcb716c8	-0.02234973
223	0xbc80e27b	-0.015732994
224	0xbe1f0a86	-0.15531358
225	0x3d962499	0.07331199
226	0x3e1d435f	0.15357731
227	0x3c84818f	0.01617506
228	0x3cd69554	0.026194252
229	0xbb12b8c3	-0.0022387959
230	0xbd70ba5b	-0.058771472
231	0x3d77557d	0.060384262
232	0x3cbf11b4	0.023323871
233	0x3d31b3e9	0.043384466
234	0x3cbe5e7a	0.02323841
235	0xbd623928	-0.05523029
236	0xbd27bbc7	-0.040950563
237	0xbccf2cc0	-0.025289893
238	0xbd0a9677	-0.0338349
239	0xbd75f3e2	-0.060047038
240	0xbcdc30c2	-0.026878718
241	0x3db17bb4	0.086661726
242	0xbcf96179	-0.030441986
243	0xbd3721af	-0.044709858
244	0x3d063af2	0.03277106
245	0x3d77d51f	0.060505982
246	0x3d8041b6	0.06262533
247	0xbd214a05	-0.03937723
248	0xbb6e0e34	-0.0036324384
249	0x3d1c929d	0.03822576
250	0x3d8f0ff8	0.06985468
251	0xbd2eedba	-0.042707182
252	0xbe499475	-0.19685538
253	0xbe5c5549	-0.21516909
254	0xbe154342	-0.14576438
255	0x3da438a1	0.080186136

bias f4 [20]
0	0xbe6acd19	-0.22929801
1	0xbd626fa7	-0.05528226
2	0xbd435442	-0.047687776
3	0xbe181d1d	-0.14854856
4	0xbde93d1d	-0.113886096
5	0xbd8680d4	-0.06567541
6	0xbd2b3b25	-0.04180445
7	0xbcf358a6	-0.029705357
8	0x3da962a6	0.08270769
9	0xbc937edf	-0.018004833
10	0x3d2ef5ff	0.04271507
11	0x3ddfef00	0.109342575
12	0x3d579da5	0.052640576
13	0xbd1f4783	-0.03888656
14	0xbd5ee5e3	-0.054418456
15	0xbd8ee76a	-0.069777325
16	0xbe5ae9de	-0.21378276
17	0xbe1c0e50	-0.15239835
18	0xbe0ce73d	-0.13760085
19	0x3e32f4fd	0.17476268

weight f4 [50, 320]
0	0xbc2352de	-0.009968488
1	0xbcc7b1d3	-0.024376785
2	0xbd9f7e88	-0.07787806
3	0x3e261cad	0.16221876
4	0xbcc37315	-0.023858586
5	0xbde2e8a4	-0.11079529
6	0x3dc91493	0.09818377
7	0x3ddba700	0.10725212
8	0x3bddfe02	0.006774665
9	0xbe01b12b	-0.1266524
10	0x3d7cef7a	0.06175182
11	0xbc182a30	-0.009287402
12	0x3de495ef	0.1116141
13	0x3d960c7a	0.073265985
14	0xbe0387a9	-0.12844719
15	0xbdc1baa1	-0.09459425
16	0xbcfa4f96	-0.030555528
17	0xbcf36d32	-0.029715154
18	0xba9a61a1	-0.0011778363
19	0xbb9ce023	-0.0047874614
20	0xbbb24a50	-0.0054409876
21	0xbd7b8d59	-0.061414097
22	0xba8b44e3	-0.0010625388
23	0xbd87123c	-0.06595275
24	0x3df73e4a	0.120724276
25	0x3c3c4512	0.011491077
26	0xbbf4a6b5	-0.007466162
27	0xbe4159f0	-0.18881965
28	0x3d5f5fc8	0.054534703
29	0xbcd3db2b	-0.025861343
30	0x3e1b5c45	0.15171917
31	0xbd1d21f6	-0.038362466
32	0x3d1a0324	0.03760065
33	0x3dc57ad5	0.09642569
34	0xbe1646ea	-0.14675489
35	0x3d95cd9d	0.07314608
36	0xbd4dec14	-0.05027397
37	0x3a9aec41	0.0011819677
38	0xbd457707	-0.048209216
39	0x3e551da8	0.20812094
40	0xbdaad436	-0.08341257
41	0x3c5627fe	0.013071058
42	0xbda7f8e7	-0.08201771
43	0x3db34af5	0.08754531
44	0xbd85b9ee	-0.06529604
45	0x3e33c9e4	0.17557484
46	0xbdf5c124	-0.11999729
47	0xbe0185bd	-0.12648673
48	0xbd7012ad	-0.05861156
49	0xbc5949c6	-0.013262218
50	0x3d01ea64	0.031717673
51	0xbdffa996	-0.12483518
52	0xbda530c3	-0.08065941
53	0xbdcd682e	-0.10029636
54	0xbc6ddff2	-0.014518725
55	0xbe1afb9c	-0.15135044
56	0x3dad4192	0.08459772
57	0xbccd02d8	-0.02502577
58	0xbc8db3f0	-0.017297715
59	0xbd91b00c	-0.071136564
60	0x3d1fe681	0.039038185
61	0xbda4e25f	-0.08050989
62	0x3b1859c3	0.0023246862
63	0x3d765ed2	0.06014902
64	0x3dbc1aa8	0.09184772
65	0xbd8c9043	-0.06863453
66	0xbd25fac1	-0.04052234
67	0x3bd38480	0.006455004
68	0xb98f7be0	-0.0002736738
69	0x3c09b129	0.008404055
70	0x3c8362da	0.016038347
71	0xbd36aa38	-0.044595927
72	0xbc6598d4	-0.014013488
73	0x3dc9323e	0.09824036
74	0x3def28a4	0.116776735
75	0xbdba5dc7	-0.09099918
76	0xbd8377ac	-0.0641931
77	0xbd9477f3	-0.07249441
78	0x3c91a9e0	0.017781198
79	0xbc81b11f	-0.015831528
80	0x3d6953d4	0.05696471
81	0xbdb739b3	-0.08946552
82	0xbdcff816	-0.101547405
83	0x3ccb6d62	0.024832431
84	0x3d7cb104	0.061692253
85	0x3c86bc58	0.016447231
86	0x3e4ef843	0.20211892
87	0xbe0a231f	-0.1348996
88	0x3d96864e	0.07349835
89	0xbcc33f6d	-0.023833955
90	0x3e572c8c	0.21013087
91	0xbe0303a8	-0.12794363
92	0x3d56c8f2	0.05243773
93	0xbdbe2809	-0.0928498
94	0x3d5c5b80	0.0537982
95	0xbe1fd7f7	-0.15609728
96	0x3d3927c5	0.045203943
97	0x3ce6e69f	0.02818614
98	0xbdbbcbc7	-0.09169727
99	0x3b320c74	0.0027168067
100	0xbda66268	-0.08124238
101	0x3ceba1c7	0.028763665
102	0xbca4678b	-0.020068904
103	0x3d99808e	0.07495223
104	0xbd207e09	-0.039182696
105	0xbd05b11b	-0.032639604
106	0xbd4d4a87	-0.050119903
107	0x3d801851	0.06254638
108	0xbba40706	-0.00500572
109	0x3d6452d5	0.055743057
110	0xbd88cc2a	-0.06679566
111	0x3c872de5	0.016501376
112	0xba93f29d	-0.0011287514
113	0x3d2ed61e	0.042684667
114	0xbd654d7e	-0.055982105
115	0xbd844b78	-0.06459707
116	0x3b310f90	0.0027017333
117	0xbc98aab2	-0.018636081
118	0x3d52d26b	0.0514702
119	0x3d286dd9	0.041120384
120	0x3ce8f386	0.028436434
121	0x3c4a945e	0.012364475
122	0xbd03bdba	-0.03216336
123	0x3cd134ed	0.025537932
124	0xbd385d3d	-0.045010794
125	0xbb48f57a	-0.0030663894
126	0xbcd4c9aa	-0.025975067
127	0xbc5c2856	-0.013437351
128	0xb9219a58	-0.00015411654
129	0xbd832055	-0.06402651
130	0xbcc6611f	-0.024216233
131	0xbda6fc65	-0.08153609
132	0x3be1350e	0.0068727797
133	0xbd82478c	-0.06361303
134	0xbd8703ce	-0.065925226
135	0xbdd82ee1	-0.105558164
136	0xbdbd9fa1	-0.092589624
137	0xbdb5c8cb	-0.08876189
138	0xbd4bd182	-0.04976035
139	0xbc073423	-0.008252176
140	0xbe4c03b7	-0.19923292
141	0xbdae300d	-0.08505259
142	0xbd30b432	-0.043140598
143	0x3c81a303	0.0158248
144	0xbc89c063	-0.01681537
145	0xbd89140b	-0.06693276
146	0xbc93ba71	-0.018033238
147	0xbda932e0	-0.08261657
148	0x3c6f1817	0.014593146
149	0xbc1f39dc	-0.009718385
150	0xbd1354b4	-0.03596945
151	0xbda814ce	-0.08207093
152	0x3c41cf3b	0.011829193
153	0xbe0ec6cf	-0.13943027
154	0xbcc847f6	-0.024448376
155	0x3b116bd7	0.0022189522
156	0xbe016159	-0.12634791
157	0xbe1afccb	-0.15135495
158	0xbcd5cd3f	-0.026098846
159	0xb93d4fd2	-0.0001805418
160	0x3d6600e2	0.056153186
161	0x3d735313	0.059405398
162	0xbd3676f3	-0.044547033
163	0xbd8a99b7	-0.067676
164	0x3cded8d4	0.027203001
165	0x3c35f838	0.011106543
166	0xbcb77dbd	-0.022398824
167	0xbe3a7759	-0.1820959
168	0xbde9d614	-0.11417785
169	0xbdc6098d	-0.096697904
170	0xbd918d84	-0.0710707
171	0x3d8a3938	0.06749195
172	0xbde64738	-0.11244053
173	0xbda7ea9d	-0.08199046
174	0xbdaad69f	-0.08341717
175	0x3d8492d6	0.06473319
176	0xbcd4e57c	-0.025988333
177	0x3bd934a9	0.006628592
178	0x3d340b45	0.04395606
179	0xbe090b86	-0.13383302
180	0x3cc71b83	0.02430511
181	0x3d2b1580	0.04176855
182	0x3d1a6100	0.037690163
183	0xbd6a8562	-0.05725611
184	0xbd8cfc90	-0.0688411
185	0xbc86bf84	-0.016448744
186	0x3e190f7a	0.1494731
187	0xbcaf8c67	-0.021429254
188	0x3da32901	0.07966805
189	0x3dabd75c	0.08390686
190	0x3e046755	0.12930043
191	0x3b342e15	0.0027493287
192	0x3e065aa7	0.13120519
193	0xbd1a2122	-0.037629254
194	0xbcbcd658	-0.023051426
195	0xbddb1a21	-0.10698343
196	0x3d0646bc	0.0327823
197	0xbd53ec7b	-0.051739197
198	0xbd01fd40	-0.03173566
199	0xbdf3447c	-0.11878297
200	0x3aba5fb3	0.0014219194
201	0x3d882970	0.066485286
202	0xbd5558f7	-0.052086797
203	0xbe48a8c9	-0.19595636
204	0xbe61c914	-0.22049361
205	0xbdee74d6	-0.116433784
206	0xbd5f9631	-0.054586593
207	0xbbc4a3d2	-0.006000974
208	0xbd9aa0bc	-0.07550189
209	0xbd5e9a8c	-0.054346606
210	0x3c2e9689	0.010656008
211	0xbd2ac98d	-0.04169612
212	0xbd61fdd1	-0.0551737
213	0xbbae0e33	-0.0053117513
214	0xbdba3816	-0.09092729
215	0xbc5f2b07	-0.013621098
216	0xbcae622f	-0.021287052
217	0xbdd12386	-0.10211854
218	0xbdb3ae66	-0.08773498
219	0x3d98521a	0.07437535
220	0x3e11ac2c	0.14225835
221	0xbb00a618	-0.001963025
222	0xbdf8b93f	-0.12144708
223	0x3e0ec2ec	0.13941544
224	0x3d4568ad	0.04819553
225	0x3bee5f18	0.0072745197
226	0xbdc164c6	-0.09443049
227	0x3d165005	0.036697406
228	0xbc24edf7	-0.010066501
229	0xbaf74421	-0.0018864908
230	0xbd9a28d9	-0.07527322
231	0xbbde1720	-0.006777659
232	0xbd0e4fc7	-0.03474405
233	0x3ce557e2	0.027996007
234	0x3da78fd8	0.08181733
235	0xbcf55d3c	-0.029951684
236	0xbd6ffe73	-0.05859227
237	0x3d523f45	0.05132987
238	0x3d4731ba	0.048631407
239	0xbd8426f4	-0.06452742
240	0x3d224aea	0.039622225
241	0x3c822365	0.015886018
242	0xbc951df0	-0.018202752
243	0x3dc0463f	0.093883984
244	0xbccc038a	-0.024904031
245	0x3c16f851	0.009214477
246	0x3b858a42	0.0040753195
247	0xbd98267c	-0.07429215
248	0xbbb7a2de	-0.005604132
249	0x3d387be1	0.045040015
250	0xbca9960b	-0.020701429
251	0xbe3942dc	-0.18091911
252	0xbe36acad	-0.17839308
253	0x3aad29f5	0.0013211357
254	0xbb79375d	-0.0038027384
255	0xbd8ac523	-0.06775882

bias f4 [50]
0	0x3e058024	0.13037163
1	0x3c906a72	0.017628882
2	0x3e212d0d	0.15739842
3	0x3e104244	0.14087778
4	0x3e22e5f1	0.15908028
5	0x3d82a2a1	0.06378675
6	0x3c4b4777	0.012407175
7	0xbd5563f9	-0.052097294
8	0x3dafb2c7	0.08579021
9	0x3e8c191e	0.27362913
10	0x3dc32b58	0.095297515
11	0x3e84e554	0.25956213
12	0x3d68d066	0.05683937
13	0x3e5fe9ba	0.21866503
14	0x3e2b53dd	0.1673121
15	0x3d536f40	0.05161977
16	0x3ce2eac9	0.027699845
17	0xbc3e88f1	-0.011629329
18	0x3e26d1da	0.1629099
19	0x3dcae2a7	0.09906512
20	0x3daa52d8	0.083165824
21	0x3e63d4d0	0.2224915
22	0xbe211e0b	-0.15734117
23	0x3dac71d8	0.084201515
24	0x3d7b9ae2	0.061427005
25	0x3e4f5581	0.20247461
26	0x3db0bee7	0.08630162
27	0x3e2351e4	0.15949208
28	0x3d7cef45	0.061751623
29	0x3dc7e6cb	0.09760817
30	0x3c28269b	0.0102631105
31	0x3df17b2f	0.117910735
32	0x3e109bdf	0.1412196
33	0x3d73e0d6	0.059540592
34	0x3e9182b3	0.28420028
35	0x3db3b933	0.08775558
36	0x3e22568c	0.15853328
37	0x3b7cf79d	0.0038599737
38	0x3d894018	0.06701678
39	0x3cc03890	0.023464471
40	0x3c8000a3	0.015625304
41	0xbdbe2af9	-0.0928554
42	0xbd87cb18	-0.06630534
43	0x3da43c85	0.08019356
44	0x3d8bed79	0.06832404
45	0x3e00b689	0.12569632
46	0x3e75de7c	0.24010652
47	0x3d548496	0.051884256
48	0x3badcb55	0.00530378
49	0xbcc2da8c	-0.023785852

weight f4 [10, 50]
0	0x3d860bf5	0.065452494
1	0x3c8005a3	0.015627688
2	0xbc148444	-0.009064738
3	0x3d0a7200	0.033800125
4	0xbedb0363	-0.4277602
5	0xbc0d30ba	-0.008617574
6	0xbe5a705c	-0.21331924
7	0xbe135cd9	-0.14390887
8	0x3c98d372	0.018655512
9	0x3ccdc542	0.025118474
10	0xbe898c38	-0.2686479
11	0xbd3c6e26	-0.046003483
12	0xbe186225	-0.14881189
13	0xbea2a919	-0.31769636
14	0xbf08e9e0	-0.53481865
15	0xbf125500	-0.5716095
16	0xbe9d41cc	-0.30714262
17	0xbeae2e2d	-0.34019604
18	0x3b55725c	0.0032569384
19	0xbd1cd226	-0.03828635
20	0xbecb1a81	-0.39668658
21	0xbdfc0847	-0.12306266
22	0xbea52b57	-0.32259628
23	0xbed0399f	-0.4066896
24	0xbe8003ce	-0.25002903
25	0xbed472ec	-0.41493928
26	0xbd2d06de	-0.042242877
27	0xbe74ca50	-0.23905301
28	0x3d2a361a	0.0415555
29	0x3da425b0	0.08015001
30	0xbf1301d0	-0.5742464
31	0xbf0c0f27	-0.5471062
32	0xbec96278	-0.39332938
33	0x3de7252d	0.112863876
34	0xbf2857c1	-0.657589
35	0xbd564659	-0.052313183
36	0xbd33b4df	-0.043873664
37	0x3dabcc0c	0.08388528
38	0xbebd474f	-0.36968467
39	0x3d30a724	0.043128148
40	0xbea3e990	-0.32014132
41	0x3d5e378e	0.0542522
42	0xbe9355fd	-0.2877654
43	0xbcae86fe	-0.021304604
44	0xbe91b9b4	-0.28461993
45	0xbe74c09a	-0.23901597
46	0xbe983cf1	-0.29733995
47	0xbe661f57	-0.22472893
48	0xbbc713e4	-0.006075369
49	0xbef64c15	-0.4810492
50	0xbef3c796	-0.4761321
51	0xbea8d39f	-0.32973954
52	0xbe9ff183	-0.31238946
53	0xbedc8c9b	-0.43076023
54	0x3dc0e79b	0.09419175
55	0xbe722e25	-0.23650415
56	0x3e07f65b	0.13277571
57	0x3d62e483	0.055393707
58	0xbefc084c	-0.4922508
59	0xbbad3d65	-0.00528686
60	0xbdf5c97d	-0.120013215
61	0xbea56263	-0.32301626
62	0x3d5d18bd	0.05397867
63	0xbe8f0bab	-0.2793859
64	0x3d99b818	0.07505816
65	0x3d1fe481	0.039036278
66	0xbe921f00	-0.28539276
67	0x3d67ebd9	0.056621406
68	0xbed5178d	-0.4161953
69	0xbd73a6e7	-0.059485342
70	0xbd3a9383	-0.045550834
71	0xbe945569	-0.28971413
72	0xbe9942c1	-0.29933742
73	0xbe8821a9	-0.2658818
74	0xbec62abf	-0.38704488
75	0xbbc1bf20	-0.0059126765
76	0xbd4a365f	-0.04936826
77	0x3c658a00	0.014009953
78	0x3d282a0c	0.041055724
79	0xbeb990c8	-0.36243272
80	0xbe8ffbfc	-0.28121936
81	0x3d95a8b1	0.07307566
82	0xbe95f260	-0.2928648
83	0xbe595d68	-0.21227038
84	0xbea1bdee	-0.31590217
85	0xbe987f5c	-0.29784667
86	0x3dbbbadf	0.09166502
87	0xbe99d67a	-0.30046445
88	0xbe279f72	-0.16369417
89	0x3d9e002c	0.077148765
90	0x3cab40cb	0.02090492
91	0xbe803e62	-0.25047594
92	0x3d61b089	0.055099998
93	0xbeb766c0	-0.3582058
94	0xbe9628b7	-0.29327938
95	0x3d2d6769	0.042334948
96	0x3d6bfbfb	0.057613354
97	0xbed97251	-0.4247003
98	0xbeb89054	-0.36047614
99	0xbe76d2a1	-0.24103786
100	0xbef4d39d	-0.47817698
101	0xbdf6040d	-0.120124914
102	0xbea16aac	-0.31526697
103	0xbeb22204	-0.34791577
104	0x3d94834a	0.07251604
105	0xbc2f67e7	-0.010705925
106	0xbe670b87	-0.22562991
107	0xbd8c5fd6	-0.06854217
108	0xbedf3243	-0.43593034
109	0xbee23899	-0.44183806
110	0x3cffde92	0.03123406
111	0x3c49d803	0.012319568
112	0xbe7e1ef7	-0.248165
113	0xbe159315	-0.14606889
114	0xbd3e03c5	-0.046390314
115	0x3c9308ec	0.01794859
116	0xbe30f4e4	-0.17280918
117	0xbed4fe39	-0.41600206
118	0xbf0d8414	-0.5527966
119	0xbec111ae	-0.377088
120	0x3d7ada1f	0.061243173
121	0xbd3e5dcd	-0.046476174
122	0xbe970bfd	-0.29501334
123	0x3d0e7ba2	0.034785874
124	0x3d5a3bbe	0.05327963
125	0xbe1f46e6	-0.1555439
126	0xbeda8c85	-0.42685333
127	0x3ccc1416	0.024911921
128	0xbebbd431	-0.36685327
129	0xbf0f3464	-0.55939317
130	0x3d638bea	0.055553354
131	0x3d2eb1cb	0.042650025
132	0x3d896954	0.06709543
133	0xbe5bb36c	-0.21455163
134	0x3d3e9840	0.046531916
135	0xbee56811	-0.4480596
136	0xbdbd90ef	-0.092561595
137	0xbebe5779	-0.3717611
138	0xbea2eb52	-0.3182016
139	0xbec4b5cb	-0.38419947
140	0xbc365e8a	-0.011130938
141	0xbeafacac	-0.34311426
142	0xbed7ecfe	-0.42172998
143	0x3e15f7ef	0.1464536
144	0x3d83e053	0.06439271
145	0xbe056ac7	-0.13029014
146	0x3d408081	0.04699755
147	0xbcd3f299	-0.025872516
148	0xbeffad85	-0.49937072
149	0x3d5636f3	0.052298497
150	0x3d92f652	0.07175888
151	0x3d925bcd	0.07146416
152	0x3dc8836e	0.09790693
153	0xbf031e30	-0.5121794
154	0x3e164c9b	0.1467766
155	0x3d400ff2	0.046890207
156	0xbebb8276	-0.3662297
157	0xbe237068	-0.15960848
158	0xbce3dc86	-0.027815115
159	0xbf058ca2	-0.52167714
160	0xbe414bcf	-0.18876575
161	0xbecf40c8	-0.40479112
162	0x3d2fc0fc	0.042908654
163	0x3d7786e3	0.060431372
164	0x3ccbc279	0.024873005
165	0xbf327eb0	-0.6972456
166	0x3db54595	0.08851162
167	0xbf0253df	-0.5090923
168	0x3d225d37	0.039639678
169	0x3dbea014	0.09307876
170	0x3db7c887	0.089737944
171	0xbd2d6ca1	-0.042339925
172	0xbde4cae4	-0.11171511
173	0xbeedb06a	-0.46423656
174	0xbe72ffeb	-0.23730437
175	0xbe70e93d	-0.23526473
176	0xbed3f9b7	-0.41401455
177	0x3d50535f	0.05086076
178	0xbf077d4b	-0.52925557
179	0xbe5f0124	-0.21777779
180	0xbf112746	-0.5670055
181	0xbe38b59d	-0.1803803
182	0xbee0d555	-0.4391276
183	0xbebe99bb	-0.37226662
184	0x3d522407	0.05130389
185	0x3da33092	0.079682484
186	0xbc7e2fe8	-0.015514351
187	0xbe9d10b3	-0.30676803
188	0x3dae1a3e	0.08501099
189	0xbeb36c33	-0.35043487
190	0xbe7d722c	-0.24750584
191	0xbe402533	-0.1876419
192	0xbeb73fab	-0.35790762
193	0xbe988c80	-0.29794693
194	0x3d3ec5f3	0.046575498
195	0x3d30eb73	0.043193292
196	0xbecc8005	-0.3994142
197	0x3d16581c	0.03670512
198	0xbed2b9b0	-0.41157293
199	0xbf1b3b85	-0.60637695
200	0xbe9b45d3	-0.3032671
201	0xbc998e8c	-0.01874473
202	0xbdc73c8c	-0.09728345
203	0xbe4ad8a5	-0.19809206
204	0xbd662059	-0.056183193
205	0xbdb821fa	-0.089908555
206	0xbeabe9ba	-0.33576757
207	0x3dfe91b7	0.12430137
208	0xbe8780f8	-0.26465583
209	0x3ce99150	0.028511673
210	0x3d2a9d14	0.041653708
211	0xbd832238	-0.06403011
212	0xbedb590e	-0.4284138
213	0xbc65043a	-0.0139780585
214	0xbc41c20e	-0.011826051
215	0x3d2c5b51	0.042079274
216	0xbe4a101f	-0.19732712
217	0xbeb45bc9	-0.35226277
218	0xbe7db100	-0.24774551
219	0xbeed3b2c	-0.46334207
220	0xbdcb4cc2	-0.0992675
221	0x3dade43d	0.084907986
222	0xbe8ef503	-0.27921304
223	0xbea393a5	-0.3194858
224	0xbeced7d4	-0.4039904
225	0xbefc9a21	-0.4933634
226	0xbe2bdfe4	-0.16784626
227	0xbf0d3a4c	-0.5516708
228	0xbd9589dc	-0.07301685
229	0xbefb32e7	-0.49062273
230	0xbea294b5	-0.3175408
231	0xbe782328	-0.24232161
232	0x3e050b80	0.12992668
233	0xbe288ce7	-0.1646
234	0xbe85b84d	-0.26117173
235	0x3de4cd1c	0.11171934
236	0x3d78b6a9	0.060721073
237	0xbb95a3ab	-0.00456663
238	0xbeddc5a0	-0.43314838
239	0x3cae4ec8	0.0212778
240	0xbe733d36	-0.23753819
241	0xbd450a85	-0.048105735
242	0x3b806841	0.003918678
243	0xbec7d7a3	-0.39031705
244	0xbda2a846	-0.07942252
245	0x3cc7278d	0.024310851
246	0xbe995af0	-0.29952192
247	0x3dbfb3a3	0.09360435
248	0x3e1bb0ba	0.15204135
249	0xbed9123d	-0.42396727
250	0x3d53fdec	0.05175583
251	0x3ccd0a2f	0.02502927
252	0xbd856310	-0.06513035
253	0xbea0bd6f	-0.31394526
254	0x3d171294	0.03688295
255	0xbeda55f4	-0.42643702

bias f4 [10]
0	0x3df96962	0.12178303
1	0x3d3c52f4	0.045977548
2	0x3dd8eaac	0.10591635
3	0xbd39325c	-0.045214042
4	0xb9a1912e	-0.0003081648
5	0x3e0a8071	0.13525559
6	0xbd12b0d2	-0.03581316
7	0xbdae17ac	-0.08500609
8	0xbdd376dc	-0.10325405
9	0x3e01e84f	0.12686275
