artifact_store/13/c2e76662e70b455c8908abd0d83ba076/artifacts/model/data/model.pth (torch_old, 92235 bytes, 8 tensors)

weight f4 [10, 1, 5, 5]
00000000: f29b 603e b95a 113d ba44 d7bd 4da9 4cbe
00000010: 3333 8fbe 9d27 993e 362d 3b3e 5dbe 0e39
00000020: b964 4f3d 4673 58be ff0c 123e 05c8 9a3d
00000030: ebc3 c13c 687d e73d db3d 16be 23cd 29be
00000040: 1f63 003e f025 383e 8b43 7abc f0a2 f7bd
00000050: df1f 0bbd 3a58 bb3d d36a 213e 9953 423e
00000060: 752a 203e b3e5 58be a6a3 08bf d58a aebe
00000070: 832e 083d df8c ecbd de50 33be f676 48be
00000080: c205 a43c b7fd 36bd 7e23 3abe 7199 6f3a
00000090: f3ed 5a3d 1492 dc3d 3179 2f3c 15bd cebe
000000a0: d7d0 3dbe 1a8a 9a3e 8cfe 773e 17c4 c9be
000000b0: 031a 9fbe d716 bb3e cd0f 063f 4813 393e
000000c0: fb43 74be fcdb eb3c fb65 d3bd 937b 943e
000000d0: 090f 263f 78d9 473e 5122 89be c2ca a7be
000000e0: d83a b3be 47b4 d53c 2500 833e a01f 023e
000000f0: fce3 7dbe 7a79 f9be ed14 95be 13c0 603e
00000100: 3d3b aa3c a30f 85bc 933f ebbe 4695 36be
00000110: 167e 3bbd fc0f 2fbd af9a 1b3f 52ea 493e
00000120: 8a8c 4abe 236b e2bd 37f0 e83d 5e3f d2be
00000130: 96d8 0ebe 9ce3 86bd 5258 61bd 335c 613e
00000140: 28e4 98be 6af8 a0be 4eb7 91be 5a3c cebd
00000150: 40e7 f03d 1edd 6dbe 7fc6 8bbe a349 acbe
00000160: 2921 b9be 480e 82bd 6f3b 863e ebd6 36be
00000170: 5d54 b2be b09b d0be 1a13 cfbe 0bcd e33e
00000180: f307 663e 84ff c93b f598 6cbe a0aa 06bf
00000190: 03ee 47be d6e8 85be b7ec ae3c 62a3 1c3e
000001a0: aea6 6c3e 72e3 cbbc 7ec1 043e c2ce 2fbd
000001b0: d311 46bc 156e a83e db19 62be 8305 b13d
000001c0: 6210 9bbe 8ccc 35be bfd0 fd3e d25c 48be
000001d0: 8545 a83c a3e8 46be 1cc8 24be 8554 b43e
000001e0: 690c 023e dc6d 023d 5a0b 52be e6be 6a3d
000001f0: d828 bc3c 4d99 823e 3e87 983d e408 20be
00000200: bb7f 65be 114f 00bf 816b 673e 34e0 3e3e
00000210: eadd f6bd 7f3e f3be ff66 6dbe 1858 9c3e
00000220: 7ed8 25be 6a93 00bf 252c b6be cb2a 78bd
00000230: c57b 72bc 45eb e5be b514 00bf a7ae 71bd
00000240: 9e4c 4d3e 3b52 07bf c6e8 14bf 10e2 63bc
00000250: 01c2 203e d71d 3cbd d938 8e3d 44be 92bd
00000260: 7a4d 22be ae31 483e ccaf ba3d eb76 12bb
00000270: de78 8abd 7723 dfbd 4916 993e c003 2abe
00000280: 8222 1b3e e4ac 81be c4f1 12be ab21 943e
00000290: 8d97 e3bd 485d e2bc ee25 5ebe 1e69 10be
000002a0: 8116 fa3e 1184 5fbe f3a5 debe cf2f 4abe
000002b0: af3e f23e bdb6 bc3e 783e 0bbf 576c bb3d
000002c0: 7c2d 0fbe c7cb 85be 45a7 e6bd 25b0 c1be
000002d0: ca34 a1be 0b90 8cbe 85a3 2cbe eba4 003d
000002e0: a658 c8bd fe5f eabe 5d90 84be 01d9 f9bd
000002f0: 7837 31be 97b5 ca3d ffba 4dbd ef14 ed3d
00000300: 15dd 773e 7387 f3bc 03c9 3a3d 3b90 af3e
00000310: 0626 e93e 0f3c 973d a20f c93e 130b 833e
00000320: 05aa 7dbd d66b babe 312b 58be 7c62 3c3e
00000330: 1241 443e 6360 d0be 767a 06bd 4b17 163e
00000340: 90d9 a9bc 5a2f ec3d 022e 2abe 35e9 823e
00000350: 4806 353e 0c0a af3d 97d4 42be e4b4 ac3e
00000360: d838 2e3e 1427 203e 23f1 b7bd 6aa3 85bd
00000370: 7758 993e 5f93 f03c 3c1d febd 3160 863b
00000380: 9667 de3d f752 d13e 5065 9c3b a13a 903e
00000390: 4320 ea3e 5034 37bd 3351 893e 4a9a b9bc
000003a0: 7c88 c9bc 860e f13d 7a3a e5be 7504 bdbe
000003b0: 5d72 80bd f22b 2ebe cdf8 58bd 144f bfbe
000003c0: f19e 43be bcaa 6bbe 53da 70be 1c68 a73d
000003d0: e066 a5be 8650 3fbe 48c4 293e 8985 4c3e
000003e0: 94e7 e53d a177 88be
0.21934488 0.03548691 -0.105111554 -0.19986458 -0.2796875 0.29913035 0.18278965 0.00013613091
0.050633166 -0.21137723 0.1426277 0.07557682 0.023652991 0.11303216 -0.14672033 -0.1658216
0.12537812 0.17983222 -0.015274893 -0.12091625 -0.03396594 0.09147687 0.15763406 0.18977202
0.15641196 -0.21181373 -0.5337471 -0.34090295 0.033247482 -0.115503065 -0.17511317 -0.1957663
0.020022277 -0.044675555 -0.18177602 0.0009139991 0.053449582 0.1077005 0.010710047 -0.40378633
-0.18536697 0.30183488 0.24218196 -0.39407417 -0.31074533 0.36540863 0.5236786 0.18073761
-0.23854057 0.02879142 -0.103221856 0.2900053 0.6486669 0.19516551 -0.26783994 -0.3277188
-0.35005832 0.02608694 0.25586048 0.12707376 -0.24794 -0.48725492 -0.29117528 0.2194827
0.0207802 -0.016242808 -0.4594694 -0.17830381 -0.04577454 -0.042739853 0.60782903 0.19718292
-0.19780174 -0.11055591 0.11373942 -0.4106397 -0.13949808 -0.06586382 -0.05501587 0.22007827
-0.2986157 -0.31439525 -0.28460163 -0.10070105 0.117628574 -0.23228881 -0.27299878 -0.3364993
-0.36158112 -0.0635038 0.2621722 -0.17855422 -0.3482999 -0.4074378 -0.4044426 0.44492373
0.2246397 0.006164493 -0.23105223 -0.52604103 -0.19524388 -0.26154202 0.021353109 0.152967
0.23110458 -0.024888728 0.12964436 -0.04292179 -0.012089211 0.32896486 -0.22080176 0.086436294
-0.30285937 -0.1775381 0.49573323 -0.19566658 0.020540962 -0.19424681 -0.1609196 0.35220733
0.12700047 0.03184305 -0.20512143 0.05731096 0.022968695 0.25507584 0.074476704 -0.15628392
-0.22412007 -0.50120646 0.22599603 0.18640214 -0.120540455 -0.47508618 -0.23183821 0.3053596
-0.16195866 -0.50224936 -0.35580555 -0.060587686 -0.014800017 -0.4490606 -0.50031596 -0.059004452
0.20048758 -0.5285985 -0.58167684 -0.013908878 0.15699007 -0.045926895 0.069444366 -0.071651965
-0.15849867 0.19550201 0.09115562 -0.0022348713 -0.06761335 -0.10895436 0.29899815 -0.16602993
0.15149882 -0.25327218 -0.14350039 0.28931937 -0.111128904 -0.02763237 -0.21694157 -0.14102599
0.48845294 -0.21827723 -0.43485984 -0.197448 0.4731345 0.36858168 -0.54392195 0.091515236
-0.13982195 -0.26132032 -0.11262373 -0.378297 -0.31485587 -0.27453646 -0.16859253 0.031407278
-0.09782533 -0.4577636 -0.2589139 -0.12199593 -0.17306316 0.09897917 -0.05022716 0.115762584
0.2420543 -0.029727673 0.045601856 0.34289727 0.45536822 0.07384502 0.3926974 0.25594386
-0.06192972 -0.36410397 -0.21110226 0.18396944 0.19165447 -0.40698537 -0.03283163 0.14657323
-0.020733625 0.11532469 -0.16619113 0.25568548 0.17678177 0.08546838 -0.19026409 0.3373176
0.17013872 0.15639907 -0.0898154 -0.065253094 0.29950306 0.029367147 -0.1240792 0.0041008224
0.10859601 0.4088361 0.0047728196 0.2816973 0.4572774 -0.044727623 0.26819763 -0.022656579
-0.024601214 0.11770348 -0.44771177 -0.36917463 -0.06271813 -0.17008951 -0.05297165 -0.3736502
-0.191036 -0.23014349 -0.23520784 0.08174154 -0.3230505 -0.18683061 0.16578782 0.19972815
0.11225811 -0.2665377

bias f4 [10]
00000000: 3f8c 5abe 647d aebe 175e 5bbe 67ec 0ebe
00000010: 94de 493d 95ab 1fbe 4291 90be c763 b7be
00000020: cb37 063e b41e b3be
-0.21342562 -0.3408004 -0.21422611 -0.13957368 0.049284533 -0.15592797 -0.28235823 -0.35818312
0.13107221 -0.34984362

weight f4 [20, 10, 5, 5]
00000000: d058 dc3d cf36 bc3d 930f 14bd 939a 30bc
00000010: 9dc9 d83d 66aa 753c 5656 b13d 995c 32be
00000020: 17f9 7fbd ee39 7e3d b30c 2dbd ffa8 203d
00000030: d86a 34bd 7086 89bd 6800 55bd 7812 133c
00000040: 12b6 3b3d a24a bf3d 52cc 3fbc e3af 20bd
00000050: ffe2 0dbe 3854 55bd ed45 273d 39f9 8cbd
00000060: 82e7 06bd 2fa5 1e3d 229e d3bd 794d 0fbe
00000070: fd4c 01be 69d8 bb3d 5d26 eb3b a8d6 edbc
00000080: 955b c0bd 176c 6c3c c663 f83c 40f8 23bd
00000090: 78de 503a 9cad 5f3d cd11 babd ae67 403b
000000a0: 9305 893b 5e16 87bb 7d81 a23d e28f 0c3d
000000b0: 62ce c53d d0b4 50be 0e62 edbd f7e9 d1bd
000000c0: bc96 67ba 9ddb 4cbc b4ef f23c 4624 0e3d
000000d0: 2b74 2b3e f75a 75bd 2a84 dabd dbcb ce3d
000000e0: a054 a63d 9049 583d e5fb 4fbe 77dc 9abb
000000f0: c6c3 c7bd c00f 02bc 2fc9 75bd 6cf7 34be
00000100: e235 f43c 25cd 0abb 35a4 253d c191 98bd
00000110: 2684 36be 8fc3 5fba e363 90bd 9d43 30bd
00000120: 62fe 10be bf30 4dbe 66dc 01bd e0c8 4f3d
00000130: 38d2 213d 94d2 c43d e9d1 adbd b56a 9ebd
00000140: 199b 64bc eb1f c0bd 2949 d1bc c468 19bc
00000150: fd2c 54bd 6542 973c 847a 56be d01f 4bbd
00000160: b335 2d3b 3bd1 a93d a464 2a3d 19d8 ddbd
00000170: b19f 20bd 9598 523d 29f6 fc3d 7b14 0d3b
00000180: c302 d7bd b5ee 6ebd fc14 9abd b430 ee3c
00000190: 2a0e 9a3d c99f d33d ecd7 8e3d 8f49 5cbd
000001a0: 714f 09bd 35eb 073b 0d75 343e d855 50bc
000001b0: 925c 31be fa2f c13d 69d5 d83d 1e24 323e
000001c0: 4c27 a1bc 040c e6bd ba74 ec3c 28ab 613c
000001d0: 8ca2 fb3d e039 993d b9f7 78bd 2574 a63a
000001e0: a2b0 a43d 1a37 513d 74b8 8d3c bb59 193d
000001f0: 7585 6d3d c113 2bbe 7872 60be ea4f a2bc
00000200: a9d1 103c 826d 17bb 26d0 b6bd afdf 10be
00000210: 5a36 023d 26f0 bf3d b1d0 a7ba 941c ebbc
00000220: 0a3f 78bd 5e04 e23d aa03 613d ad8e 3abd
00000230: bbf2 ae3c 471a b6bd 8c5c 333e 0c46 a63c
00000240: cd11 333d 0996 9fbc f2b4 663d e6aa be3d
00000250: 21f5 573e cefd 253e bbeb 07be 8037 bb3a
00000260: a819 b83d 2160 6f3d 1f0a 20be 263b 50bd
00000270: 9ecb dc3d 1eb4 2d3e 94a3 a83d 9b17 e0bc
00000280: fdfe b33d 8b61 893c b90f f33d 5df5 983d
00000290: 91e5 e43b aac0 9f3d 0ae0 983d 0065 893d
000002a0: 78b1 393c 05b8 153e 3ab8 b93d 54a2 a73d
000002b0: 7347 123d afb4 df3d 981d a43d bc85 a73d
000002c0: aba5 753d db04 053c 54ed aebc cfa7 f43d
000002d0: c1ae 903b 86cb b7bc be9c 0f3d 80ae d6bd
000002e0: ce7d ea3d ce36 aa3d 0ff3 4bbd 8951 f33b
000002f0: 92cc 29be be97 35bd 036e 8a3d 22b3 893d
00000300: 1284 5bbd 34ed 30be 174e 693a bcff 3a3d
00000310: 4d5c 8e3d ebfa 3dbe e25e 38be 22a2 a33c
00000320: df3d b3bb fe1b aebd 610b bbbc 2922 bb3b
00000330: a092 6e3d 8a59 a7bd 5b3f 01bd 2e7c 08be
00000340: d3e4 00be e5e1 90bd 69ac a63d 34a5 29bd
00000350: ebdf 0fbe f81e 1cbe 68fa f8bd b98f 973d
00000360: d911 903d 9759 07bd 54b2 1fbe 3a46 5fbe
00000370: a938 3c3d 9037 923d da95 7abc 0907 bebd
00000380: f931 b1bd 5684 0e3d 05fe ecbb ecfc a7bc
00000390: 5a22 5b3d 9f45 b6bb 83cc 6d3d 2650 eb3c
000003a0: 968d 96bc 88ef 76bd 4a98 85bd f067 e8bc
000003b0: 570d b3bd 2574 a1bd 14b1 a2bd a8aa 9c3c
000003c0: ec1f b23d 0df2 d6bb 3af7 18bc 8ae5 cabd
000003d0: 424e ae3c 80c7 7abc e625 5d3c 549f 31bd
000003e0: 32ce acbd d8b0 24bd b7f7 e2bd 65c0 25be
000003f0: d3d4 453d 28ee c83d 18f7 0b3e 4613 27be
0.10759127 0.091901414 -0.036147665 -0.010779041 0.1058533 0.014994239 0.086590454 -0.17418136
-0.06249341 0.062066965 -0.04224844 0.039223667 -0.044047207 -0.06715095 -0.05200234 0.008976571
0.045827933 0.09340407 -0.011706429 -0.03923024 -0.13856123 -0.05208227 0.04083817 -0.06883473
-0.032935627 0.03873175 -0.10332896 -0.13994397 -0.12627025 0.09172136 0.007176204 -0.02903302
-0.09392468 0.0144300675 0.030321013 -0.04003167 0.0007967721 0.054608926 -0.090854265 0.0029358673
0.0041815727 -0.0041225394 0.07934854 0.034316905 0.09658505 -0.20381474 -0.11590968 -0.102497034
-0.0008834412 -0.012503532 0.029655315 0.03470256 0.16743533 -0.059901204 -0.106697395 0.10097476
0.0812161 0.05280453 -0.20310934 -0.0047259885 -0.09754138 -0.007938325 -0.060006317 -0.17672509
0.02981085 -0.0021179405 0.040439803 -0.07449675 -0.17823848 -0.00085359154 -0.07050302 -0.04303323
-0.1415954 -0.20038126 -0.03170433 0.05072868 0.03950712 0.09610477 -0.08487303 -0.077351965
-0.013952994 -0.09381088 -0.02554758 -0.009363357 -0.051800717 0.018464277 -0.20945174 -0.049590886
0.0026429712 0.08291861 0.041599885 -0.10832233 -0.039214794 0.051415045 0.12351639 0.00215271
-0.10498574 -0.058333118 -0.07523534 0.029075958 0.07522233 0.10333211 0.069747776 -0.05378109
-0.033523027 0.002073956 0.17622776 -0.012715779 -0.17320469 0.09432979 0.1058758 0.1739659
-0.019672059 -0.112327605 0.028864253 0.013773717 0.12286863 0.07481742 -0.06078312 0.0012699409
0.080415025 0.05107794 0.017299868 0.03743909 0.057988603 -0.16706754 -0.21918666 -0.019813497
0.008839049 -0.0023106043 -0.0892642 -0.14147829 0.031790115 0.093719766 -0.0012803284 -0.02870015
-0.060606994 0.11035989 0.054935135 -0.045546222 0.021355977 -0.08891731 0.17515773 0.020297073
0.043718148 -0.019480722 0.056324907 0.0930994 0.21089603 0.162101 -0.13273518 0.0014283508
0.089892685 0.058441285 -0.15628861 -0.05083766 0.107810244 0.1696324 0.08234325 -0.027355006
0.087888695 0.016770145 0.11868233 0.07468674 0.0069853743 0.0780042 0.07464607 0.06708717
0.011333816 0.14620979 0.090683416 0.081852585 0.03571267 0.109231345 0.08013457 0.08179805
0.059972446 0.008118833 -0.021353401 0.119460694 0.0044153635 -0.022435915 0.03506159 -0.10482502
0.114497766 0.083112344 -0.049792346 0.007425491 -0.16581944 -0.044334166 0.06759264 0.0672362
-0.05359275 -0.17277986 0.0008899881 0.045654044 0.06951199 -0.18552749 -0.18004945 0.019974772
-0.005470022 -0.08501433 -0.022832574 0.0057108593 0.0582453 -0.08171375 -0.03155456 -0.13328621
-0.1258729 -0.07074336 0.081383534 -0.041417316 -0.14050262 -0.15246189 -0.12157136 0.0740046
0.07034654 -0.033044424 -0.1559537 -0.21804133 0.045952473 0.07139504 -0.015294516 -0.092786856
-0.0865211 0.034794174 -0.00723243 -0.020506345 0.053499557 -0.0055624987 0.058056366 0.028724741
-0.01837806 -0.06028703 -0.065231875 -0.028369874 -0.08742779 -0.07883481 -0.07943931 0.019124344
0.08697495 -0.0065596164 -0.009336287 -0.09907062 0.02127755 -0.015306354 0.013497805 -0.043364838
-0.08437766 -0.040207714 -0.11082404 -0.16186674 0.048298668 0.0981105 0.13668478 -0.16315946

bias f4 [20]
00000000: 758f b93d c4fe 513d d397 593d 947a 603c
00000010: 956d 0abd a7bd f43b ba95 eabc 55bb a5bc
00000020: e05f 37bc dbc0 e03b 2def efbd 843d 16be
00000030: 83a5 bb3d 0403 c5bc 06ef f4bc 9db4 eabd
00000040: 9943 47bd 2f39 39bc 0534 dfbc c71c 10bd
0.090605654 0.051268354 0.053123306 0.0137011 -0.03379591 0.0074688974 -0.028635848 -0.020230928
-0.011192292 0.0068589277 -0.11715541 -0.14671904 0.09162428 -0.02404929 -0.029899132 -0.114602305
-0.04864845 -0.011305138 -0.027246485 -0.035183694

weight f4 [50, 320]
00000000: 4127 893d ffde 03be 76f5 b6bc 1ea2 3fbd
00000010: 856e c2ba f099 a93c 3a3e 7c3d 89a6 82bd
00000020: aedf 8dbd 544b 09bd a1f9 87bd d757 1ebd
00000030: 0540 a4bd 1983 143e b1b1 f03c 48a1 e23d
00000040: f132 62bd 7a43 b93d f15f e5bd 94b8 ae3c
00000050: cc9d 74bd 0966 733d 0d27 2dbd c1e6 803d
00000060: f09d 393c 24b9 d3bc 7797 993d fc5c 0fbc
00000070: a535 823d 5b19 c5bc 7cfd ef39 9332 ddbd
00000080: b092 1bbd be16 1cbe 04c4 4cbd 6e93 58bd
00000090: f1bc 213b 41e4 aebd 0241 373c 3fff 7fbc
000000a0: eef4 093d 4e7b 80bc baaf 53bd bf5b 97bc
000000b0: 4ec5 543d 2be3 8f3c ba24 e93c 9ace f23d
000000c0: 950e b13d 4dbc 24ba 79f1 1abd d6b3 993c
000000d0: 9509 383d de73 9d3d 128c 0b3d ccb9 05bc
000000e0: ac8f 2d3d f3c0 833d 4bf0 e6bd 0d4b 533b
000000f0: 45ae 60bc f3a6 ecbc 23f0 9fbc 31dd 35bd
00000100: f5e5 e7bb f1e3 2d3d f6e1 593d 9d11 123e
00000110: 6b70 85bd 4429 4fbd d572 5a3c b14b 283d
00000120: a892 f6bb 2322 ab3d 6b31 64bc a619 2f3d
00000130: 4405 90bd 2597 b03a 879b 2fbd 6612 443d
00000140: f5c2 f7bb 824d af3d cd8d b5bc a46c d43d
00000150: 02ef b53c c42c 813c f125 3fbd 35aa 3b3d
00000160: 1376 abbd b492 eabd 154c d53c f4cc 88bd
00000170: 6f7b 40be 0f1c 983d bd88 bd3c a5ef bc3d
00000180: 96d6 a53b f3ea 1ebd 8d02 9ebd 7751 5fbc
00000190: 733a 45bc 6688 bfbd 0d53 35bd 5a9d 08bd
000001a0: 88b0 ccbd d1f2 09bc 7b21 47bc ef38 a3bb
000001b0: dcca bfbd 90f8 3ebc f564 d33d 88d3 193e
000001c0: be29 f33d 12dd e6bc eca6 9abc 3a0c 07bd
000001d0: b086 e93d 2cf8 6fbd 3239 b93c cc79 06bc
000001e0: 6b8b 933d 2ce0 a73c f1be aa3c d8db 93bd
000001f0: 9418 f8bb 5f4e 913a cc01 153d df4a 18be
00000200: 6b8d 8dbc 9929 4b3d 61dd b43d 9ec3 0d3e
00000210: bc61 c23c c195 56bd ea8e d23c 3b4f 253d
00000220: 8d22 24be 1cda babc dbd3 133c 0982 fb3c
00000230: 1589 6fbd 66c4 d8bc 48a4 73bd ce42 50bd
00000240: dfda dcbd cffc d4bc dabf 9e3d 8fe8 c73d
00000250: 1231 f9bd 5514 d7bc 4399 73bb 7fb1 8b3b
00000260: ad9e a43d aa64 07bd f198 07bd 663f 9d3d
00000270: 3b26 303d f0ca 73bd 5823 a0bc 43a5 dcbd
00000280: f3e3 56bd 291a ea3c 83ac c8bd 2e69 93bd
00000290: c051 7dbc 8eed b03d 5e74 babd 9467 4bbd
000002a0: d15b ca3c f7a5 103c 795f 253d 6102 753d
000002b0: e4f8 f93d 8762 37bd 8dfd 753c fc74 c43d
000002c0: d9c2 25be a122 543d f995 e33d 264b b13d
000002d0: 23a2 e4ba b08e 993b 409c 803d 2a1b 073d
000002e0: 29a7 63bd b3a6 17bd 54f6 943c f65f 2cbc
000002f0: ebba cfbd e31c f2bd 475c d2bd 13a3 97bd
00000300: 64da 213e 1e87 08bd eb95 b5bc 78e9 043d
00000310: b394 e13d 10ee 74bd 5fee 0a3d 6a88 ebbc
00000320: 939f b7bd 26bc b3bc 8cf6 aebb ba27 c4bd
00000330: 131f 49be 5c83 2b3e 4ab8 d63d 2019 afbc
00000340: f70f 7c3d 02e0 173e 161d db3d 4c7b 703d
00000350: be4b d63c eb35 e7bc 7d7b 41bd d3fc ac3d
00000360: b59d e2ba 5ac9 39bd aef7 83bd 6836 6fbd
00000370: a0ca 72bd 6605 9cbc 06f9 413d 142a 8c3c
00000380: cfe5 90bd ec48 883c ef91 b6bd f855 0e3c
00000390: cb88 08bd 59db e9bd e378 d0bd 6770 183d
000003a0: f2af 713d 99b9 933c 4dd4 ddbb ecab 23bc
000003b0: e979 373d 4dd5 ae3c 71b7 7a3d 7b85 663b
000003c0: f4a1 cabd f2e0 293d 506a 513c 65f1 a73c
000003d0: fd14 dbbd a157 4dbc b1fc 3b3d 39ba 7b3c
000003e0: f014 f23d 4fbd e13c 1e7a 843d d9c2 acbd
000003f0: a5c0 adbb b2ac c7bc 2f80 663d 25c1 34be
0.0669694 -0.12878035 -0.022333842 -0.046785466 -0.0014833963 0.020703286 0.06158278 -0.0637942
-0.06927429 -0.033519104 -0.0663941 -0.03865799 -0.08020023 0.14503135 0.029381605 0.11065918
-0.055224363 0.09046073 -0.1119994 0.021328248 -0.0597208 0.05942348 -0.04227357 0.06294013
0.011329159 -0.025845118 0.07499593 -0.008750197 0.06357888 -0.024059942 0.00045774493 -0.10800662
-0.03798169 -0.1524305 -0.049991623 -0.052874975 0.0024679268 -0.0853963 0.011184933 -0.01562482
0.03368085 -0.015683796 -0.051681258 -0.018476365 0.051945977 0.017564377 0.028459895 0.11855812
0.086453594 -0.00062841625 -0.037827943 0.01876251 0.044931013 0.076881155 0.03406913 -0.008161973
0.042373344 0.064332865 -0.11276301 0.0032240779 -0.013713424 -0.028888201 -0.019523686 -0.044400398
-0.0070769736 0.04245371 0.05319401 0.14264531 -0.06515583 -0.050576463 0.013333042 0.04108781
-0.007524807 0.083561204 -0.013927798 0.04274907 -0.07032254 0.0013472779 -0.04287293 0.04786911
-0.0075610825 0.08559705 -0.022162342 0.10372284 0.022208694 0.015768416 -0.046667043 0.04581662
-0.0837213 -0.11453763 0.026037255 -0.06679717 -0.18797086 0.07427227 0.023136491 0.09225396
0.005060981 -0.038798284 -0.0771533 -0.013630263 -0.012037861 -0.09352188 -0.044268657 -0.033353187
-0.09994608 -0.008419708 -0.012153978 -0.0049811522 -0.09364864 -0.011655942 0.103219904 0.15022099
0.11873196 -0.028181586 -0.018878423 -0.032970645 0.11402643 -0.058586285 0.02261028 -0.00820775
0.07204326 0.020492636 0.020843001 -0.07219666 -0.0075712893 0.0011085978 0.036378667 -0.14872311
-0.017279347 0.049600217 0.08831287 0.13844153 0.023728244 -0.05238891 0.025702912 0.040358763
-0.16028805 -0.02280908 0.009022678 0.030701654 -0.05848034 -0.026460838 -0.059482843 -0.05084496
-0.10783934 -0.025999455 0.077514365 0.09761154 -0.121675625 -0.026254812 -0.0037170209 0.0042631025
0.080380775 -0.033054985 -0.03310484 0.07678108 0.04300521 -0.05951971 -0.019548103 -0.10773709
-0.052463483 0.028576927 -0.09798529 -0.07197796 -0.015461385 0.0863906 -0.091042265 -0.049659327
0.024701985 0.008828632 0.040374253 0.05981672 0.12205675 -0.044771697 0.0150140645 0.095926255
-0.1618761 0.051790837 0.111125894 0.086569116 -0.001744334 0.004686199 0.06279802 0.03298489
-0.05557934 -0.03702421 0.018183865 -0.010520926 -0.10143074 -0.11821916 -0.10271507 -0.07404151
0.15805966 -0.033331983 -0.022166213 0.032449216 0.1101469 -0.059797347 0.033918735 -0.02875157
-0.08965983 -0.021940302 -0.0053394493 -0.0957789 -0.1964076 0.16749328 0.10484369 -0.021374285
0.061538663 0.14831546 0.10698907 0.058711335 0.026159164 -0.028223952 -0.04723691 0.0844666
-0.0017289432 -0.04535804 -0.064437255 -0.058401495 -0.05927527 -0.019045543 0.047356628 0.017109908
-0.070750825 0.016636334 -0.089145534 0.008687489 -0.03333358 -0.1141879 -0.10179307 0.03721657
0.059005685 0.018032836 -0.006769693 -0.00998972 0.044793997 0.021341944 0.0612101 0.0035174775
-0.09894171 0.04147429 0.0127816945 0.020500848 -0.106973626 -0.012533099 0.045895282 0.015364223
0.118204 0.02755609 0.064686045 -0.08435602 -0.005302506 -0.02437434 0.05627459 -0.17651804

bias f4 [50]
00000000: 3675 733e 1727 b13e 4699 753d 7b5a 3c3e
00000010: accc 953d 0342 e33d e0dd 223e 78ac 0c3e
00000020: 755d e73c 3e5c 643e 6ba5 263e 4056 193e
00000030: 47a4 783e d1ec 463e 8f3c 493e d535 5e3e
00000040: 11e7 c03d 6fee 933d 7cae c0bb 5591 033e
00000050: 4ba8 353e 1bc1 323e 93be ee3d 9d56 523e
00000060: e386 073d c96c 6e3c a106 ee3d 28a6 8d3e
00000070: e368 c53d ac04 443e 333d ec3d a2ee 8d3e
00000080: 19d6 663d 35f5 233e a6d9 0abd a3e3 5a3d
00000090: f5f2 043d c809 d53d a6df 1c3e 544a 913e
000000a0: 18b0 2f3d 6baa 133e fc6b fe3d e8e5 263e
000000b0: f278 c23d 0f15 28bc 4279 1b3e 6396 843d
000000c0: 95b8 393d d7e7 4c3e
0.23775181 0.34600136 0.059960626 0.1839389 0.07314429 0.11096575 0.15904951 0.13737667
0.028242806 0.22300813 0.1627404 0.14974308 0.24281417 0.19426276 0.19652008 0.21700223
0.094190724 0.07223212 -0.005880175 0.12848409 0.1773998 0.17456476 0.11657443 0.20540853
0.033087622 0.014552304 0.11622358 0.2766583 0.09639146 0.19142407 0.1153511 0.27721125
0.056356523 0.16011508 -0.033898972 0.053439748 0.032458264 0.10402256 0.1531969 0.2837702
0.042892545 0.14420478 0.1242294 0.1629864 0.09495725 -0.010258927 0.15182975 0.064739965
0.045342047 0.20010315

weight f4 [10, 50]
00000000: 4065 e2be 6830 c1be a26b ce3c e426 bbbe
00000010: 3f5c 12bc 04e4 533c 09c2 f13b df39 e2be
00000020: b196 c03a f78e 483c 6973 3a3c 1df4 c73c
00000030: 147c 903b 653c b1be 53eb f3be 8fdf e0be
00000040: 1b1a f3be 873a 9b3a bcb9 973c a30e cb3b
00000050: 480b 3e3c f24a a0be 1ddd d13b 4791 f1be
00000060: 3365 f4be df05 b1be 985c 4c3c 1116 6abe
00000070: b6ee 74bb 31bc bebe d335 a6be fb13 d8be
00000080: 16a3 cf3b 242d 91be 83c2 a1bd 4678 ba3b
00000090: 38fa 5c3b 3630 323c 405f 90be 9b89 eebe
000000a0: a2bf 0f3c bba2 b53c 10d3 bdbe 74ee 99be
000000b0: 9728 a9be 4b97 afbc d1b6 d2be c631 e8bd
000000c0: abfe 99be 3d1f d6be 02d8 7a3b 8faf 0b3c
000000d0: 84f4 cabe bcb2 133c cb24 91be 7e5f 9a3c
000000e0: 8311 d1be 0d9d 103c b5af bfbe e9b2 93be
000000f0: ec7f 3ebe 10e5 d1bb 5d18 c1bb 00e1 b7bb
00000100: 4769 963b 31df 9f3b 5cc1 f7be 84ac 34bc
00000110: b2b2 acbe 7dca e9be 83f3 d0be 2c4b cebb
00000120: c05e bfbe 93ee 2a3c c87d 2ebe a208 b9be
00000130: f00c 3e3d 9413 833c 6cf6 0f3c 1502 c5be
00000140: 6f61 2abc 2684 35bc a7aa c7be 2148 d13b
00000150: 43e3 b63c f31f 75be d369 c6be 2f65 b2be
00000160: c3ec 5bbb 264e aa3c ba23 cbbe 022e 63be
00000170: cfb2 d8be 0aaa 8e3c 7a10 aebe ddc5 01be
00000180: 231d b4be ae4b 413d 3b90 58be b03e cebe
00000190: 06f2 aabb 676d a039 a608 16bf ed09 19bc
000001a0: ce25 aeba 8717 64be 4bbc 02bf e86a f4ba
000001b0: 26b7 80be 5bcc 49be fde2 d9be c9d7 d0be
000001c0: 1220 ecba bd9c 69be d33e 0a3d 5b64 12bc
000001d0: 30d8 83be 45e2 d2be 2c64 bfbe 2b18 8abe
000001e0: f400 643c 7dd2 e5be c8e6 00bf ed07 a3be
000001f0: f6ee c1be 8394 143c 0f61 e4be 6ce8 be3b
00000200: 6fdb c8be d2fc cf3c b52b d9ba 0264 78bb
00000210: c555 713c 8108 d4be bb0d febe 70d1 babe
00000220: 8900 b3bc d799 b2be c311 423c 75bc 1b3a
00000230: daeb 2a3d db31 edbe ec27 463c 3af3 8fbe
00000240: 9fa6 033c 2500 f33c c708 ecbb 5add b9be
00000250: 08c0 293b 0300 2d3c c64e 443c ba75 003c
00000260: efe3 0d3c 2ea9 da3b 1dd5 bdbe 6ada 8fba
00000270: 5170 b6be 5765 debe ee9e 0f3c a007 103c
00000280: 721f e5be e4fe d0be 7ce6 e0be 2aef c8be
00000290: bc7c 703c b25b 623c 66f0 b2bb 8861 e8be
000002a0: 0171 b63b fafa 2a3c 5a8b be3c fc2a f1be
000002b0: 9e61 ae3b 99de a9be ad36 c9bb a075 dcbe
000002c0: 560d 203c 885b f8be 4dd1 f1be 7b45 343c
000002d0: a77a e3be 4c48 223c 849f b0be 9723 d1be
000002e0: 2980 6abe a7ef b43b 0005 3f3a 01b2 c7be
000002f0: 1797 d23b 0137 a63a 6024 55bc 90d8 c7be
00000300: cf23 033c 6229 cfbe efec 86be 9592 dabe
00000310: 399f 093d 59e8 cdbe adb5 c1be 82e4 9cbe
00000320: 9e76 b2bb 2464 e5be cd01 b0be fa91 d0bb
00000330: 42ab 973c 7d49 d13c ff18 afbe edff ae3c
00000340: 1396 213c e816 9a3c 2f0b 54bc c881 853c
00000350: db00 a03c 4f8a 8abe 9cb7 29be c6fe e0be
00000360: 3ede 11bd fb87 88be 18e6 a73c d0b5 01be
00000370: b07f e63b f904 cc3c 91ae 5dbe 77c4 a8be
00000380: 9cf8 d2be 2d79 f4be cbca d2be 23f8 813b
00000390: 8b9f ee3b 5bb7 e9be d835 d7be 4602 f1bd
000003a0: 212e a9be 2c96 e5be 5d60 9dbe 51f3 9a3c
000003b0: 514c e03c b922 a1bb a44e 073c 5d9e 573c
000003c0: 4db7 5a3c 7dd3 d73b 9036 c5be 8183 983c
000003d0: dd57 863c 185a b7be 1002 debe c017 babe
000003e0: fefb e0be aac3 8c3c c552 a2be bf57 d4be
000003f0: 4d61 c53c 5dd7 093d e3ba 90be 4cbf 7a3c
-0.44217873 -0.37732244 0.025197808 -0.3655311 -0.008933126 0.012932781 0.007377867 -0.44184777
0.0014693347 0.012241117 0.011380055 0.024408394 0.0044093225 -0.3461639 -0.47640476 -0.43920562
-0.47480854 0.0011843004 0.018521182 0.006196813 0.011599369 -0.3130718 0.0064045326 -0.4718115
-0.4773346 -0.34574792 0.012473248 -0.2285998 -0.0037373728 -0.37252954 -0.3246294 -0.42202744
0.00633658 -0.28354752 -0.07898428 0.0056906072 0.0033718478 0.010875752 -0.2819767 -0.4658936
0.008773716 0.022172322 -0.3707509 -0.30064738 -0.3303878 -0.021434447 -0.41155103 -0.113376185
-0.3007711 -0.41820708 0.0038275723 0.008525743 -0.39639676 0.009014782 -0.28348383 0.018844362
-0.40833673 0.008826506 -0.3743874 -0.28847435 -0.18603486 -0.00640548 -0.005892797 -0.005611539
0.0045901868 0.0048789014 -0.4838971 -0.011027459 -0.33730084 -0.456623 -0.40810785 -0.0062955823
-0.37376976 0.010432857 -0.17040169 -0.361394 0.046399057 0.016000547 0.008786779 -0.3847815
-0.010399207 -0.01107887 -0.38997385 0.0063867723 0.022325164 -0.23937969 -0.38752612 -0.34842822
-0.003355787 0.020789217 -0.39675695 -0.2218552 -0.4232392 0.017415065 -0.33996946 -0.12673135
-0.3517848 0.047191314 -0.2114877 -0.40282202 -0.0052168397 0.0003059909 -0.58606946 -0.009340745
-0.0013286413 -0.222746 -0.5106856 -0.0018647583 -0.2513973 -0.19706862 -0.4255599 -0.4078963
-0.0018014929 -0.22813697 0.03375132 -0.008935059 -0.25750875 -0.41188255 -0.37381113 -0.26971564
0.013916243 -0.44887152 -0.50352144 -0.31841984 -0.37877625 0.009068611 -0.446053 0.0058260467
-0.39229915 0.025389109 -0.0016568812 -0.0037901406 0.014729922 -0.41412738 -0.4961985 -0.36487913
-0.021850841 -0.34882995 0.011845055 0.0005940863 0.04172883 -0.463271 0.012094479 -0.28115255
0.008035331 0.029663155 -0.007203195 -0.3630169 0.0025901813 0.010559085 0.011981672 0.007840568
0.008660301 0.006673 -0.37076655 -0.0010975127 -0.35632566 -0.4343669 0.008765919 0.00879088
-0.44750553 -0.40819466 -0.43925846 -0.39244968 0.0146781765 0.013815807 -0.0054607866 -0.4538691
0.0055676703 0.010435814 0.023259807 -0.47103107 0.0053216955 -0.3317764 -0.006140551 -0.4305849
0.009768805 -0.48507333 -0.47229996 0.011002894 -0.44429514 0.009904932 -0.344967 -0.40847465
-0.22900452 0.005521733 0.0007286817 -0.39002994 0.0064267027 0.0012681187 -0.013009161 -0.39032412
0.008004143 -0.4046126 -0.2635264 -0.42689958 0.033599112 -0.4021633 -0.3783392 -0.30643088
-0.005446269 -0.44802964 -0.34376374 -0.006365058 0.01851428 0.025547737 -0.34198758 0.02136227
0.009862441 0.01880975 -0.0129421195 0.016297236 0.019531658 -0.27058646 -0.16573948 -0.43944377
-0.035612337 -0.26666245 0.02049546 -0.12667012 0.0070342645 0.024904715 -0.21648623 -0.3296239
-0.412053 -0.477487 -0.41170344 0.003966348 0.0072822026 -0.45647702 -0.42033267 -0.11768012
-0.33043006 -0.44841135 -0.30737582 0.01891485 0.02738014 -0.0049174693 0.0082584955 0.013160315
0.013349366 0.0065864907 -0.3851819 0.018617393 0.016399318 -0.35810924 -0.4336095 -0.36346245
-0.43942255 0.017183144 -0.31703773 -0.41473195 0.024094248 0.033652652 -0.28267583 0.015304398

bias f4 [10]
00000000: a778 043e de14 a73d 2812 973d c4e0 233d
00000010: 6884 4f3d 7096 1c3c 8841 053d c03f 0e3d
00000020: 5073 2dbc e055 c73c
0.1293665 0.08158277 0.0737651 0.040009275 0.05066338 0.0095573515 0.0325332 0.034728765
-0.010586575 0.02433294
