artifact_store/13/ff0ce20121d54a65bd368c3800381ac7/artifacts/model/data/model.pth (torch_old, 92211 bytes, 8 tensors)

weight f4 [10, 1, 5, 5]
0	0xbc1d0902	-0.009584667
1	0x3e82ad94	0.25523055
2	0xbd98367b	-0.07432266
3	0xbe259b6e	-0.16172573
4	0x3e862990	0.26203585
5	0xbe9e7fc8	-0.30956864
6	0x3ed96f36	0.4246766
7	0xbe7faba0	-0.24967813
8	0xbed573a0	-0.41689777
9	0x3f0248f6	0.5089258
10	0xbe2ae81c	-0.16690105
11	0x3e87d171	0.2652698
12	0x3e487288	0.1957494
13	0xbe863ca4	-0.2621814
14	0x3da98fc7	0.082793765
15	0x3dcd7512	0.10032095
16	0xbe8fb81e	-0.28070158
17	0x3dd26157	0.10272472
18	0x3def9f01	0.117002495
19	0xbc14f8bf	-0.009092509
20	0x3e1952a7	0.14972936
21	0xbe8afbc0	-0.27145195
22	0x3e3db2d2	0.18525246
23	0xbc917f85	-0.017761001
24	0xbda76824	-0.0817416
25	0x3eb0c61a	0.3452614
26	0x3e40f0b2	0.18841818
27	0x3dfb9209	0.12283713
28	0x3e4b59d5	0.19858487
29	0xbe435a8f	-0.19077514
30	0x3e13e276	0.14441857
31	0x3e1c10a8	0.15240729
32	0x3de1504d	0.11001644
33	0xbe44d802	-0.19223025
34	0xbecea591	-0.40360692
35	0xbd347554	-0.044057205
36	0x3db8cb48	0.09023148
37	0xbea5f845	-0.32415977
38	0xbe74a047	-0.23889266
39	0xbee967f6	-0.45587128
40	0xbec581c7	-0.38575575
41	0xbf001465	-0.5003112
42	0xbee05073	-0.43811378
43	0xbebd60ff	-0.36988065
44	0xbce2bff7	-0.027679427
45	0xbee99b0a	-0.45626098
46	0xbe8b2170	-0.27173948
47	0xbe79ca08	-0.24393475
48	0xbc819eb9	-0.015822755
49	0xbd532fe0	-0.05155933
50	0xbeac8ad6	-0.33699673
51	0x3c5f3644	0.013623778
52	0x3eb87709	0.36028317
53	0x3bb98759	0.0056618867
54	0x3dcc6ec2	0.09982063
55	0xbde49295	-0.11160771
56	0xbe371fcb	-0.17883222
57	0xb9ca0ce2	-0.0003853804
58	0x3e2af3d1	0.16694571
59	0x3e209cf3	0.15684871
60	0xbd8e82c5	-0.06958536
61	0x3d1ffb9e	0.03905832
62	0x3cce85f2	0.025210354
63	0x3c88b258	0.016686603
64	0x3e9357de	0.28777975
65	0x3d335169	0.04377881
66	0x3b995346	0.0046791164
67	0x3c4ddd5c	0.012564983
68	0xbb510c0b	-0.0031898047
69	0x3e14c2e8	0.14527476
70	0x3ce8df30	0.028426737
71	0x3d2242bb	0.03961442
72	0x3e6bd810	0.2303164
73	0x3e6c0bf8	0.2305144
74	0xbe1131e2	-0.14179185
75	0x3d92da79	0.071705766
76	0x3e1c8cb8	0.15288055
77	0x3db825d4	0.0899159
78	0xbe42ddb7	-0.1902989
79	0xbe8fb97d	-0.28071204
80	0x3e927a61	0.28608993
81	0xbe2038bf	-0.15646647
82	0x3ec4a61e	0.38407987
83	0xbd582b2c	-0.052775547
84	0xbed54bbe	-0.4165935
85	0xbe0d867b	-0.13820831
86	0xbe1b74ad	-0.15181227
87	0x3ebb9b4f	0.3664193
88	0x3e3d197c	0.18466753
89	0xbea6126e	-0.32435936
90	0xbe05f5d6	-0.1308206
91	0xbe72afa9	-0.23699822
92	0x3e87a90b	0.26496157
93	0x3d90628e	0.07050048
94	0xbe85008d	-0.25976983
95	0x3d1452ea	0.036211886
96	0x3cdac875	0.026706913
97	0x3e848dc0	0.25889397
98	0x3cf9d726	0.030498099
99	0xbdb7a79b	-0.08967515
100	0x3dbac253	0.09119096
101	0x3d204998	0.039132684
102	0x3ed08d4b	0.40732798
103	0x3d53df91	0.05172688
104	0xbe2d96e0	-0.16952085
105	0xbd4371ec	-0.047716066
106	0xbe2967d0	-0.16543508
107	0x3c0aec15	0.008479138
108	0x3edb4d18	0.42832255
109	0xbe416b59	-0.18888606
110	0xbdcd3023	-0.10018947
111	0xbe2876e3	-0.16451602
112	0xbe3511bc	-0.17682546
113	0x3ee7d874	0.45282328
114	0x3d772705	0.060339946
115	0xbebf75f6	-0.37394685
116	0xbe23b26e	-0.15986034
117	0xbe818256	-0.2529475
118	0x3e282d6d	0.16423579
119	0x3edc7130	0.43055105
120	0xbe16d488	-0.14729512
121	0xbe65e8de	-0.22452113
122	0xbea51ee5	-0.32250133
123	0xbe9e3193	-0.30897197
124	0x3e86515d	0.2623395
125	0x3e8f03bc	0.27932537
126	0xbe0ff875	-0.14059623
127	0xbf207e58	-0.62692785
128	0xbe4371fc	-0.1908645
129	0x3e099fa7	0.13439809
130	0xbe29a0f2	-0.16565302
131	0xbee7371a	-0.45159227
132	0xbde1ac80	-0.1101923
133	0x3e701380	0.23444939
134	0x3e07f455	0.13276799
135	0xbec22390	-0.37917757
136	0xbe34c4d0	-0.17653203
137	0x3df88aae	0.12135826
138	0x3e5e183f	0.21688937
139	0x3c565b02	0.013083221
140	0xbefd66eb	-0.49492583
141	0x3e1f9a29	0.15586151
142	0x3eaf844e	0.34280628
143	0x3d8172b6	0.063207075
144	0xbd326ba5	-0.04355969
145	0x3d9a8882	0.07545568
146	0x3ef5b46f	0.47989222
147	0x3e2f0c69	0.17094578
148	0x3d8ef986	0.069811866
149	0xbd643f97	-0.055724707
150	0x3c7cc697	0.015428207
151	0xbb99c08e	-0.0046921438
152	0x3ccf9c80	0.02534318
153	0x3d9b11fd	0.0757179
154	0xbe46205a	-0.19348279
155	0xbe368aa2	-0.17826322
156	0x3dd75599	0.10514373
157	0x3d94d9d5	0.07268111
158	0xbcd42d84	-0.02590061
159	0xbe9a7a53	-0.3017145
160	0xbcc09153	-0.023506796
161	0x3ed8435a	0.42238885
162	0xbdf03549	-0.11728913
163	0xbed2ccfa	-0.4117201
164	0xbdf2ed02	-0.11861612
165	0x3e99124e	0.29896778
166	0x3e7fbe11	0.24974848
167	0xbe633cd5	-0.22191174
168	0xbe716257	-0.2357267
169	0xbd790a73	-0.06080098
170	0x3f044004	0.5166018
171	0xbe00fd8a	-0.12596717
172	0xbe9d452d	-0.3071684
173	0x3bf82ec2	0.0075739333
174	0x3e57877f	0.21047781
175	0x3e87d335	0.26528326
176	0xbe9a1473	-0.30093727
177	0xbe5b495b	-0.21414702
178	0xbd95e42a	-0.073189095
179	0xbde9e27a	-0.1142015
180	0x3e9da399	0.30788878
181	0xbe9c0afa	-0.30477124
182	0xbe838094	-0.25684035
183	0xbe4e8c4d	-0.20170708
184	0xbc8e007b	-0.017334213
185	0x3e4957e4	0.19662434
186	0xbe75e53f	-0.24013232
187	0xbe1d6ed0	-0.15374303
188	0xbea22d95	-0.316754
189	0x3bb6ef06	0.005582693
190	0x3eb4ab7b	0.3528708
191	0xbe9be8e4	-0.3045112
192	0xbe5249b1	-0.20535924
193	0xbe618e85	-0.22027023
194	0x3cac068d	0.020999217
195	0x3e6d871c	0.23196071
196	0xbeb892b2	-0.3604942
197	0xbe717519	-0.23579825
198	0xbe6923db	-0.22767584
199	0xbd85cbda	-0.06533022
200	0xbf07bcb2	-0.530223
201	0xbeb75c03	-0.35812387
202	0xbeaba29d	-0.33522502
203	0xbdbc8e49	-0.09206826
204	0x3d375e25	0.044767518
205	0xbe8adf8e	-0.27123684
206	0xbe82cd30	-0.2554717
207	0xbe6e6a05	-0.2328263
208	0xbe6303c1	-0.22169401
209	0x3d6c548c	0.057697818
210	0xbe8033e0	-0.25039577
211	0xbe5a89de	-0.21341655
212	0xbe3fdb8c	-0.18736094
213	0xbe9b894a	-0.3037818
214	0x3cbdda1a	0.023175288
215	0xbe13536f	-0.14387296
216	0xbe38612c	-0.18005818
217	0xbe6c18cb	-0.23056333
218	0xbe78c643	-0.24294381
219	0xbd2d9ede	-0.042387836
220	0x3d07bbc6	0.03313806
221	0xbe662bc1	-0.22477628
222	0xbea26965	-0.31721035
223	0xbe8a04e2	-0.2695685
224	0xbea93165	-0.33045498
225	0xbe0c3085	-0.13690384
226	0x3e92b7aa	0.2865575
227	0x3e717d49	0.23582949
228	0x3e7f38ea	0.24924055
229	0x3e490b5f	0.19633244
230	0xbe59c08e	-0.2126486
231	0xbecda463	-0.4016448
232	0xbdce9df9	-0.10088725
233	0xbe427638	-0.1899041
234	0xbe1eeb6a	-0.15519491
235	0xbdbd2e61	-0.09237362
236	0xbefa97be	-0.48943895
237	0xbec000fa	-0.37500745
238	0xbce61be9	-0.02808948
239	0xbe00d260	-0.12580252
240	0x3cc2579d	0.023723418
241	0xbecd80c3	-0.401373
242	0xbed4d771	-0.4157062
243	0xbe0e8e4a	-0.13921466
244	0xbeb6fd8e	-0.35740322
245	0x3f2d0dc2	0.6759912
246	0x3f4494fe	0.76789844
247	0x3e542573	0.2071741
248	0x3e4b48d6	0.19852003
249	0x3e91fab2	0.28511578

bias f4 [10]
0	0x3dbb4716	0.09144418
1	0xbe819bfc	-0.2531432
2	0xbe6b625b	-0.22986738
3	0xbdc9c0be	-0.09851216
4	0xbe8cb88f	-0.27484557
5	0xbe829354	-0.25503027
6	0xbe36eb1d	-0.17863126
7	0xbe42a71b	-0.19009058
8	0x3c8ca109	0.017166631
9	0xbe004bec	-0.12528962

weight f4 [20, 10, 5, 5]
0	0xbc80c225	-0.015717575
1	0xbca9cd7b	-0.020727864
2	0xbca3c65e	-0.01999205
3	0xbcee1d2e	-0.029066648
4	0xbdb387e1	-0.08766151
5	0xbd6a88e5	-0.05725946
6	0xbd05a55c	-0.032628402
7	0xbd7329c5	-0.059366006
8	0xbcb88cbe	-0.022528049
9	0xbd8d9cf1	-0.069147
10	0xbdb0605e	-0.086121306
11	0xbe052755	-0.13003285
12	0xbd8c4d6a	-0.06850703
13	0xbe17f65a	-0.1484007
14	0x3d9f01de	0.07764028
15	0xbddfad90	-0.10921776
16	0xbd8762eb	-0.06610664
17	0xbe2106d8	-0.15725267
18	0xbcb3fbc0	-0.02197063
19	0x3d279bc5	0.040920038
20	0xbd9ce70a	-0.07661255
21	0xbc9e9d92	-0.019362245
22	0xbd80d030	-0.062897086
23	0xbc6431cf	-0.013927891
24	0x3d3f1d5d	0.046658862
25	0xbd3f9896	-0.046776377
26	0x3d1d3574	0.038381055
27	0x3d2495e9	0.040182028
28	0x3baf5a34	0.005351329
29	0xbd6fcdb1	-0.058545772
30	0xbd910564	-0.07081106
31	0xbc536f1f	-0.012904911
32	0x3d9fedf0	0.07809055
33	0xbc692f0f	-0.014232411
34	0xbdbec01d	-0.093139865
35	0xbcfe87c6	-0.031070601
36	0xbcfbfb96	-0.030759614
37	0xbd827a85	-0.06371025
38	0x3dbc9acd	0.092092134
39	0xbdec2e94	-0.115323216
40	0xbd2507ee	-0.040290765
41	0xbcb72546	-0.02235664
42	0xbd27f197	-0.041001882
43	0xbba9f20c	-0.005186325
44	0xbd6bdc5a	-0.05758319
45	0xbcdc10a4	-0.026863404
46	0xbd215f3c	-0.039397463
47	0xbdb77a11	-0.08958829
48	0xbdce09d2	-0.10060467
49	0x3dd82697	0.105542354
50	0xbdd88a92	-0.10573305
51	0xbd98174b	-0.07426318
52	0xbc1cdc24	-0.00957397
53	0xbd0558f6	-0.032555543
54	0xbe279b75	-0.16367896
55	0xbdcb0291	-0.09912599
56	0x3d4c969e	0.049948327
57	0xbbc0a68a	-0.005879228
58	0x3dd80341	0.10547496
59	0x3b9a7ccf	0.0047145854
60	0xbd72b475	-0.05925413
61	0x3d002ea8	0.031294495
62	0x3da744d4	0.08167425
63	0x3d266201	0.040620808
64	0x3d95cc32	0.07314338
65	0xbd9b17d9	-0.07572908
66	0x3d3c590f	0.04598337
67	0xbcb22034	-0.021743871
68	0x3caeb4fa	0.02132653
69	0x3bc4ab9e	0.0060019037
70	0xbd316342	-0.04330755
71	0xbd33fb76	-0.043940984
72	0x3d372e82	0.044722088
73	0x3d9554f6	0.07291596
74	0x3da22c3a	0.07918592
75	0xbdf90c38	-0.12160534
76	0xbd97fe63	-0.07421567
77	0x3be0751a	0.006849897
78	0xbd434e58	-0.047682136
79	0xbe49a1a6	-0.1969057
80	0xbc6fa112	-0.0146258045
81	0xbdd04140	-0.101686954
82	0xbcf06de6	-0.029349279
83	0xbe139929	-0.14413895
84	0xbda5e8a9	-0.08101017
85	0xbd99bdc4	-0.07506898
86	0xbe1c4282	-0.15259746
87	0xbe39318e	-0.1808531
88	0xbe266faa	-0.16253534
89	0x3cb595ad	0.022166098
90	0x3b2ce511	0.0026381651
91	0xbe1c61da	-0.15271702
92	0xbe1d5f5f	-0.15368412
93	0xbe121e4c	-0.1426937
94	0xbb8eaedb	-0.0043543405
95	0xbd82d14b	-0.06387576
96	0xbda1676c	-0.07881054
97	0xbe011e48	-0.12609208
98	0xbdeeb0f1	-0.11654843
99	0xbe1f9783	-0.15585141
100	0x3e06edec	0.13176697
101	0x3cf9cd2f	0.030493347
102	0x3ce93f36	0.028472524
103	0x3d5139e0	0.051080585
104	0xbe5aa5c0	-0.21352291
105	0x3d101a17	0.03518113
106	0x3c9a6d6c	0.018851005
107	0xbb9eda1e	-0.004847779
108	0xbc81b704	-0.015834339
109	0x3e0580fb	0.13037483
110	0x3c266bf9	0.010157579
111	0x3d8874cb	0.066629015
112	0xbcd5bf9e	-0.026092347
113	0x3b2bc97a	0.0026212619
114	0xbd251619	-0.040304277
115	0x3db4c1b3	0.08826008
116	0x3d1c2e8c	0.038130328
117	0x3e0b3ab7	0.13596617
118	0x3d11a630	0.03555888
119	0x3d4006e6	0.04688158
120	0xbcde45b3	-0.027132845
121	0x3d472138	0.048615664
122	0x3daeead9	0.085408874
123	0xba97b19f	-0.0011573321
124	0x3cf82e2c	0.030295454
125	0xbdaa80cb	-0.083253466
126	0x3d96a482	0.07355596
127	0x3d8bbd10	0.0682317
128	0x3d6caecf	0.057783898
129	0x3dfd004c	0.12353572
130	0xbd6fb811	-0.05852515
131	0x3d2e4fa7	0.04255643
132	0x3bf8713b	0.0075818575
133	0x3db2ae3c	0.08724639
134	0x3d377130	0.04478568
135	0xbdb057fe	-0.08610533
136	0xbc69aa1e	-0.0142617505
137	0x3d1aeee4	0.03782548
138	0x3b30fea8	0.0027007256
139	0x3e0a1e1f	0.13488053
140	0xbd8c650e	-0.06855212
141	0xbdb7ff29	-0.08984215
142	0xbcbd6139	-0.023117648
143	0xbd8adbe4	-0.06780222
144	0x3e294f51	0.16534163
145	0x3ce75341	0.02823794
146	0xbd8633f7	-0.0655288
147	0xbcc32d90	-0.023825437
148	0x3d4aa036	0.049469195
149	0x3e1ea89a	0.15494004
150	0x3c1bc436	0.00950723
151	0xbbfaf58a	-0.007658665
152	0x3d703b5c	0.05865036
153	0x3e467ae4	0.19382817
154	0x3d4f0d97	0.05055007
155	0xbbd67f2c	-0.006545922
156	0xbd35c414	-0.044376448
157	0x3cca2ceb	0.024679622
158	0xbc0cace9	-0.008586147
159	0x3de3d48e	0.11124526
160	0xbd007d8f	-0.031369742
161	0xbc51233a	-0.012764746
162	0xbdff0c67	-0.124535374
163	0xbd97ae2f	-0.0740627
164	0x3e028877	0.1274737
165	0xbd2f7263	-0.042833697
166	0xbd58a7c7	-0.05289438
167	0xbd22d5d4	-0.039754704
168	0xbe3b3db4	-0.18285257
169	0xbccfdf8f	-0.025375156
170	0xbe248396	-0.16065821
171	0xbd3e23cb	-0.046420854
172	0xbd7f7bbe	-0.06237387
173	0xbe1a4539	-0.15065469
174	0xbe193f48	-0.14965546
175	0x3e61283c	0.21988004
176	0x3ccbafed	0.024864161
177	0xbd3dceba	-0.046339728
178	0x3cf1791d	0.029476697
179	0x3d9278c6	0.07151942
180	0x3d7dda34	0.061975673
181	0x3d5027cf	0.050819214
182	0x3d5fe213	0.05465896
183	0x3d29b03a	0.04142783
184	0xbb9a3e6a	-0.0047071474
185	0x3d12ec65	0.035869975
186	0xbd06665a	-0.032812454
187	0xbdb10a56	-0.086445495
188	0x3bcde854	0.006283799
189	0xbd0eae2e	-0.03483408
190	0xbd379f78	-0.044829816
191	0xbb1ad04e	-0.0023622694
192	0x3c1dd2ff	0.009632825
193	0x3d3d9b7b	0.046290856
194	0xbd22925c	-0.03969036
195	0x3d627a7f	0.055292603
196	0x3cd7ee5c	0.026358776
197	0xbcd872df	-0.026421962
198	0xbdb4d03a	-0.088287786
199	0xbd0ae17f	-0.033906456
200	0x3dbb9f24	0.09161213
201	0x3d142632	0.03616924
202	0xbd0235fe	-0.031789772
203	0xbcd82b0b	-0.026387712
204	0x3d4838e7	0.04888239
205	0x3d365788	0.04451707
206	0x3d55dcbd	0.052212466
207	0x3c3b6af5	0.011439075
208	0x3db57973	0.08861055
209	0xbd6c2c47	-0.057659414
210	0x3db9e653	0.09077134
211	0x3d99b6e5	0.075055875
212	0x3c807781	0.015681984
213	0x3dce8beb	0.10085281
214	0xbda8ebec	-0.082481235
215	0x3d6dcd61	0.058057193
216	0x3d892758	0.06696957
217	0x3d3911c4	0.04518296
218	0x3c085344	0.008320633
219	0xbe5e6e5a	-0.21721783
220	0x3d7c93c4	0.061664358
221	0x3db43157	0.08798473
222	0x3d056f17	0.032576647
223	0xbdeee2a3	-0.11664321
224	0xbdc9dcc1	-0.098565586
225	0xbda96456	-0.08271091
226	0xbcd31d05	-0.025770674
227	0x3d1031d0	0.035203755
228	0xbcbc579c	-0.022990994
229	0x3d749063	0.05970801
230	0xbe50042d	-0.20314093
231	0x3bcad088	0.0061894096
232	0x3cf5021d	0.029908234
233	0x3d78c2f6	0.060732804
234	0x3d6ce64d	0.05783682
235	0xbda119f1	-0.07866276
236	0xbd19e30c	-0.037570044
237	0x3d3dd3c5	0.046344537
238	0x3d1e43c7	0.038638856
239	0xbb8814b8	-0.0041528605
240	0xbd07b9a8	-0.03313604
241	0x3cc858d5	0.02445642
242	0x3b4345c3	0.002979622
243	0x3ccdb4f2	0.025110696
244	0x3d00e729	0.03147045
245	0x3d595e93	0.05306871
246	0x3d7d8beb	0.061901014
247	0x3de7e2e7	0.11322575
248	0x3b95de7a	0.0045736404
249	0xbca4521a	-0.02005868
250	0xbd0161f1	-0.031587545
251	0xbd406847	-0.046974447
252	0x3dcc564d	0.09977398
253	0x3e26b6af	0.16280626
254	0xbb3ad0b3	-0.0028505742
255	0xbdbbad18	-0.091638744

bias f4 [20]
0	0x3ca5c26e	0.020234313
1	0xbd8ba3e8	-0.06818372
2	0xbc9e2728	-0.01930578
3	0x3d43e9fb	0.047830563
4	0xbd994429	-0.07483704
5	0xbc8c269a	-0.01710825
6	0xbd324428	-0.04352203
7	0x3d235e81	0.039885048
8	0xbb465248	-0.0030261446
9	0x3d175d7b	0.036954384
10	0xbd856c29	-0.065147705
11	0x3d8138da	0.06309672
12	0x3c35e399	0.011101627
13	0xbc9c666c	-0.019091807
14	0xbc2dd9b8	-0.01061099
15	0xbd27a4f4	-0.040928796
16	0xbd26a735	-0.040686805
17	0xbda29907	-0.07939344
18	0x3a2b815e	0.00065424095
19	0xbda67b3a	-0.08128972

weight f4 [50, 320]
0	0xbc453208	-0.012035854
1	0xbce54a4e	-0.027989533
2	0x3d9d5c5b	0.07683631
3	0x3da1b262	0.07895352
4	0x3d6c195a	0.057641365
5	0xbd7745c0	-0.060369253
6	0xbb437e9a	-0.00298301
7	0x3ca510f3	0.020149684
8	0x3bb6be7b	0.0055769063
9	0x3d20eece	0.039290242
10	0xbd27d7f1	-0.040977422
11	0xbccae0de	-0.024765428
12	0xbe00df9c	-0.125853
13	0xbc6205af	-0.0137953
14	0xbb0a1d2a	-0.0021074512
15	0xbdda4eb7	-0.10659545
16	0xbd872af7	-0.06599992
17	0xb9aa0285	-0.00032426804
18	0xbd753a96	-0.059870325
19	0xbd08bd8c	-0.03338389
20	0xbdbbea25	-0.09175519
21	0x3c3b0928	0.011415757
22	0x3d8c8675	0.06861583
23	0x3c3fac89	0.01169885
24	0x3cc226ea	0.023700196
25	0x3c1c7f92	0.0095518995
26	0x3b34bd17	0.0027578527
27	0x3db8df4a	0.09026964
28	0x3dadae27	0.084804825
29	0xbcb86e42	-0.022513513
30	0x3bc56aa3	0.006024675
31	0xbc912478	-0.017717585
32	0xbb22286e	-0.0024743336
33	0x3c702485	0.014657144
34	0x3d015d6f	0.031583246
35	0xbc5e19d6	-0.013555964
36	0xbd2a85e0	-0.04163158
37	0x3c52a96f	0.012857779
38	0x3dc3dbd5	0.09563414
39	0x3c275217	0.010212443
40	0xbda9343a	-0.082619146
41	0x3c00aca0	0.007853657
42	0xbc8e5a00	-0.0173769
43	0x3ca03cf3	0.019560313
44	0xbddbacf2	-0.10726346
45	0x3cfac8c3	0.030613309
46	0xbca03449	-0.019556182
47	0x3db35187	0.087557845
48	0xbe23e49b	-0.16005175
49	0xbdfe2c84	-0.124108344
50	0xbd6f825f	-0.05847394
51	0xbdac289a	-0.08406182
52	0xbc71c25a	-0.01475581
53	0xbd6b7c01	-0.057491306
54	0x3c99206d	0.01869222
55	0xbdb35a98	-0.08757514
56	0x3d052295	0.032503683
57	0xbdbf83de	-0.093513235
58	0x3ce85e64	0.028365321
59	0xbc25834e	-0.010102106
60	0x3dfc3dd1	0.12316478
61	0x3dbbb61b	0.09165593
62	0xbc084670	-0.008317575
63	0x3de8080f	0.11329662
64	0x3d81e83b	0.063431226
65	0xbd86b980	-0.0657835
66	0x3c7a3e4c	0.015273642
67	0x3d70c864	0.058784857
68	0x3d52007e	0.05127
69	0x3e09bd90	0.13451219
70	0xbccbbfa3	-0.024871653
71	0xbd34f315	-0.044177134
72	0xbd8d6835	-0.069046415
73	0x3d0e8f21	0.034804467
74	0xbd72fb03	-0.059321415
75	0xbc85b0c2	-0.016319636
76	0xbe3bbb4d	-0.18333168
77	0xbe0c226c	-0.13685006
78	0xbda545e3	-0.080699705
79	0xbe0b3197	-0.13593136
80	0xbdc48175	-0.095950045
81	0xbb3019c6	-0.002687083
82	0xbd09563d	-0.03352951
83	0xbd8572e5	-0.06516055
84	0xbd2babde	-0.041911952
85	0xbd044e32	-0.032301135
86	0xbc93269f	-0.017962752
87	0x3d6268ba	0.055275656
88	0x3d866829	0.06562836
89	0xbd8e89a2	-0.06959845
90	0xbd01c483	-0.03168155
91	0x3d0cf44f	0.03441268
92	0x3d98401e	0.074341044
93	0xbd2312d9	-0.039812896
94	0x3d183638	0.037161082
95	0xbd760ec0	-0.06007266
96	0x3dcfd609	0.10148246
97	0x3ca4639d	0.02006703
98	0xbdbaf87d	-0.09129427
99	0x3db28bc8	0.087180674
100	0x3d4b1c98	0.049587816
101	0xbca6e24b	-0.020371577
102	0xbc31a3e3	-0.010842296
103	0x3de10468	0.109871686
104	0xbd9ba6a3	-0.07600143
105	0xbd63d5bd	-0.05562376
106	0x3c42a5a8	0.011880316
107	0xbda57720	-0.08079362
108	0xbe27f59b	-0.16402285
109	0xbde9add9	-0.11410112
110	0xbca975d2	-0.020686064
111	0xbd6bee92	-0.057600565
112	0x3d35af5a	0.04435668
113	0xbcff223b	-0.031144252
114	0x3cd863f8	0.026414856
115	0xbb8b8ebb	-0.004258958
116	0xbd9a3a52	-0.07530655
117	0xbd226bb1	-0.039653484
118	0x3ccf8e55	0.025336424
119	0x3e41364a	0.18868366
120	0xbdfc3b00	-0.12315941
121	0xbda17601	-0.078838356
122	0xbca40e34	-0.020026304
123	0x3e20d35c	0.15705627
124	0xbdc9ea10	-0.09859097
125	0xbb7270e9	-0.003699357
126	0x3bd9726f	0.006635956
127	0xbcf353e5	-0.02970309
128	0x3bcc8f10	0.0062426403
129	0xbd4b4502	-0.049626358
130	0x3c900b4d	0.017583514
131	0xbbce660e	-0.006298787
132	0xbcf5a04a	-0.029983658
133	0xbb42b057	-0.0029707158
134	0xbc684bd8	-0.014178239
135	0xbbcd5dad	-0.0062672705
136	0x3d0b19f4	0.033960298
137	0x3d83aa8c	0.064290136
138	0x3cc78970	0.024357527
139	0xbceaa21e	-0.028641757
140	0xbdb6894c	-0.08912906
141	0xbc52355e	-0.012830107
142	0x3d14e092	0.03634698
143	0x3d00befb	0.031432133
144	0x3c4a8d0f	0.012362733
145	0xbcfd083e	-0.03088772
146	0xbd449e6d	-0.04800265
147	0x3a11f6f7	0.00055681117
148	0xbbcb0a68	-0.006196309
149	0xbb411c17	-0.0029466206
150	0xbc9a411c	-0.018829875
151	0x3c4a54c4	0.012349311
152	0xbb1e4dcd	-0.002415526
153	0x3d8434bc	0.06455371
154	0xbbfd63b5	-0.0077328333
155	0x3d852022	0.065002695
156	0xbd85e790	-0.06538308
157	0xbd45cf36	-0.048293315
158	0x3daa7dce	0.083247766
159	0x3ca7f342	0.020501737
160	0xbe1e4a77	-0.15458094
161	0xbd069b49	-0.032862935
162	0xbd609f54	-0.054839447
163	0xbe04f679	-0.12984647
164	0xbe0b2017	-0.1358646
165	0x3d53f704	0.051749244
166	0xbd0b209f	-0.033966657
167	0xbd8f727a	-0.070042565
168	0x3def9eb7	0.11700194
169	0x3d180ab2	0.037119575
170	0xbd68e2fc	-0.056857094
171	0xbd7852b1	-0.060625736
172	0x3e26bc3c	0.16282743
173	0xbd940e73	-0.072293185
174	0xbd4b2ff9	-0.049606297
175	0xbdc7ffca	-0.09765585
176	0x3dccae82	0.09994222
177	0xbc802893	-0.015644347
178	0x3caeaf02	0.021323685
179	0xbdc079d3	-0.09398236
180	0x3d3c26a9	0.045935307
181	0xbbb0f4f6	-0.0054002954
182	0xbd1af539	-0.03783152
183	0xbd462b3c	-0.048381075
184	0xbd63b9f8	-0.055597275
185	0x3da2143f	0.07914018
186	0xbd15ecb4	-0.03660269
187	0x3bba48c6	0.005684945
188	0xbae13dd4	-0.0017184564
189	0xbce007f3	-0.02734754
190	0x3d7c3ff9	0.061584447
191	0xbc49d929	-0.012319841
192	0xbd975e9c	-0.07391092
193	0xbe4118f8	-0.18857181
194	0xbd25da76	-0.040491544
195	0xbdbc0881	-0.091813095
196	0x3d12f52a	0.035878338
197	0x3c835098	0.016029641
198	0xbcb758ac	-0.02238115
199	0xbd7627c4	-0.060096517
200	0x3d86a575	0.06574527
201	0x3dffa6e8	0.12483007
202	0x3cbbf816	0.022945445
203	0xbb80df39	-0.00393286
204	0xbd23f4a7	-0.04002824
205	0xbd3c0b7a	-0.045909382
206	0x3be15522	0.0068766037
207	0xbd2178ba	-0.039421774
208	0x3d8b6db1	0.06808031
209	0x3d0237a2	0.031791337
210	0xbd4bae02	-0.049726494
211	0xbdaac6f5	-0.08338729
212	0xbdda9e93	-0.10674777
213	0x3cb53bc3	0.022123223
214	0x3d614c05	0.05500414
215	0x3d707c70	0.058712423
216	0xbdf061b7	-0.117373876
217	0x3a0fa453	0.00054795033
218	0xbc9660e8	-0.018356755
219	0xbb80825d	-0.0039217905
220	0xbdb6f7d4	-0.08933988
221	0xbd4b8124	-0.049683705
222	0x3db59363	0.088660024
223	0x3c8d1710	0.017222911
224	0xbd68334b	-0.05668954
225	0x3d2bc792	0.041938372
226	0xbc4c1540	-0.012456238
227	0x3d180cc6	0.037121557
228	0xbd23b273	-0.039965104
229	0xbd421569	-0.0473837
230	0x3cec7ffa	0.028869618
231	0x3e28d8b5	0.16488917
232	0xbddae05b	-0.10687324
233	0xbcb1e297	-0.021714492
234	0x3dc919d5	0.0981938
235	0x3db1454d	0.08655796
236	0xbe338f29	-0.1753508
237	0xbd9106e3	-0.07081392
238	0xbd69fa3e	-0.057123415
239	0x3d29756e	0.041371755
240	0xbd895e56	-0.06707446
241	0x3dd78e87	0.10525232
242	0x3d5e8042	0.054321535
243	0x3d65ca1d	0.056100953
244	0xbdbb2465	-0.09137801
245	0xbd71df40	-0.0590508
246	0xbd6f55aa	-0.058431305
247	0x3c113246	0.008862084
248	0x3da7d515	0.08194939
249	0xbdd8d82c	-0.105881065
250	0xbd297425	-0.04137053
251	0xbc1d0a93	-0.009585041
252	0x3de66fe5	0.11251811
253	0xbd97b49d	-0.07407496
254	0xbd4ac441	-0.04950357
255	0xbdac466e	-0.08411871

bias f4 [50]
0	0x3c7bf6ba	0.015378648
1	0x3d9cbece	0.076535806
2	0x3e066b15	0.13126786
3	0x3ea34637	0.31889507
4	0x3ddad3e5	0.10684947
5	0xbcbe0572	-0.023195956
6	0x3d8db555	0.06919352
7	0x3ca88e19	0.02057557
8	0x3d8b9653	0.068157814
9	0x3e384b57	0.1799749
10	0x3e2633b4	0.1623066
11	0x3e78faf5	0.24314483
12	0x3e387758	0.18014276
13	0x3e13b9df	0.14426373
14	0x3deb038e	0.114752874
15	0x3e0f046a	0.13966528
16	0x3e6ae228	0.22937834
17	0x3e0faba5	0.14030321
18	0x3de202be	0.11035679
19	0x3e20652d	0.15663595
20	0x3e27b6d6	0.1637834
21	0x3e0c1bee	0.1368253
22	0x3dae71cc	0.08517799
23	0x3e92eeb4	0.2869774
24	0x3e3a4364	0.1818977
25	0x3db5fb18	0.08885783
26	0x3e351d96	0.17687067
27	0x3e5d529a	0.21613541
28	0x3d85e850	0.06538451
29	0x3dc92b74	0.09822741
30	0x3cb23463	0.021753496
31	0x3e1c4ae0	0.15262938
32	0x3d1a65d5	0.03769477
33	0x3e135113	0.14386396
34	0x3d930efd	0.07180593
35	0x3e177db9	0.14794053
36	0x3e1c2558	0.1524862
37	0x3e086063	0.13318019
38	0x3e23fcc4	0.16014391
39	0x3e36ec5b	0.178636
40	0x3e585364	0.21125561
41	0x3deb5774	0.1149129
42	0x3e3c01f0	0.18360114
43	0x3da75fb6	0.08172552
44	0x3d4ab071	0.049484674
45	0x3da85aad	0.0822042
46	0x3db6667f	0.08906268
47	0x3e3f0dae	0.18657562
48	0x3d0fedca	0.035138883
49	0x3e3203ce	0.17384264

weight f4 [10, 50]
0	0xbe915340	-0.28383827
1	0xbeb1e274	-0.34743083
2	0xbc230787	-0.009950525
3	0xbeb6dfc2	-0.3571759
4	0xbebbdc2b	-0.36691412
5	0xbe916a8e	-0.28401607
6	0xbbe18a9f	-0.00688298
7	0xbe98e81d	-0.29864588
8	0x3bdf1fd3	0.0068092137
9	0x3bce3a47	0.0062935683
10	0x3b99fd70	0.0046994016
11	0xbebf6997	-0.37385246
12	0xbea99d57	-0.33127853
13	0xbecf45d7	-0.4048297
14	0xbebc8cb7	-0.36826107
15	0xbf0721fd	-0.52786237
16	0xbeb29ce9	-0.34885338
17	0x3c1eed4c	0.009700131
18	0xbe5fdb2f	-0.21860956
19	0x3c3e31a8	0.011608519
20	0xbee0e200	-0.43922424
21	0x3bd0bab3	0.0063699125
22	0xbabb8536	-0.0014306668
23	0xbf11c612	-0.56942856
24	0x3cffac0d	0.03120997
25	0xbed124a3	-0.40848264
26	0x3beaa10b	0.007160311
27	0xbeefb722	-0.46819407
28	0x3c9ee69f	0.019397078
29	0x3c9b12ed	0.018929923
30	0x3c103b3d	0.008803186
31	0x3baa6202	0.0051996717
32	0xbbbbaaf2	-0.0057271654
33	0x3bdea6fb	0.006794808
34	0x3c310224	0.010803733
35	0xbd98bde8	-0.07458097
36	0xbafe68f1	-0.0019409937
37	0x3c7e3a0a	0.015516767
38	0x3ceb4863	0.02872104
39	0xbec21a8f	-0.37910888
40	0xbee1040c	-0.439484
41	0x3c77afe7	0.015117622
42	0xbebae460	-0.3650236
43	0xbee2b153	-0.44275913
44	0xbe9a782f	-0.30169818
45	0xbe98f1a9	-0.29871872
46	0x38a833bc	8.0205005e-05
47	0xbebbf90b	-0.36713442
48	0xbeddadb1	-0.4329658
49	0xbee56ee5	-0.44811168
50	0x3d51ae90	0.051191866
51	0xbe4185e1	-0.18898727
52	0xbeba4752	-0.36382538
53	0x3bb12151	0.005405583
54	0xbe16340a	-0.14668289
55	0xbeb06721	-0.3445368
56	0x3c04e7a3	0.008111867
57	0xbb500d2b	-0.003174613
58	0xbec8489c	-0.39117897
59	0xbbc0394b	-0.005866205
60	0xbeccc2fb	-0.39992508
61	0xbea2c986	-0.31794375
62	0x3ca23c54	0.019804157
63	0xbe9eb11f	-0.30994508
64	0x3ce2d4bc	0.02768933
65	0x3c4dfe00	0.012572765
66	0x3c3b6a1c	0.011438873
67	0xbee0ba3e	-0.43892092
68	0x3b41d63e	0.0029577161
69	0xbec6ef95	-0.38854662
70	0x3b87ee0d	0.004148251
71	0xbeadea89	-0.33968
72	0xbeda7651	-0.42668393
73	0xbc3b1611	-0.011418835
74	0xbefdab51	-0.49544767
75	0x3b6fa34f	0.0036565845
76	0xbec8ed31	-0.39243463
77	0xbc79024a	-0.0151983
78	0x3abf5520	0.0014597513
79	0xbebb02f6	-0.36525697
80	0xbe876c16	-0.2644965
81	0xbeb6bb7b	-0.3568991
82	0xbec2a4c0	-0.3801632
83	0xbedce9ec	-0.43147218
84	0x3d662578	0.056188077
85	0x3c19eab5	0.009394337
86	0xbeb0caae	-0.34529632
87	0xbc6b7ce0	-0.014373034
88	0x3ccc29aa	0.02492221
89	0x3c2fae21	0.010722668
90	0xbea9c788	-0.33160043
91	0xbea45a0b	-0.32099947
92	0xbed817c6	-0.42205638
93	0xbecd393a	-0.40082723
94	0x3bd0c5f9	0.0063712564
95	0xbee16302	-0.4402085
96	0xbaa71236	-0.0012746516
97	0x3c2d67dd	0.010583845
98	0xbeca64b6	-0.3952996
99	0x3c0fbdb7	0.008773259
100	0xbea8778c	-0.32903707
101	0xbb2e6a48	-0.0026613642
102	0x3ad0f5c2	0.0015942382
103	0x3a7fa2af	0.000975172
104	0xbe81cd96	-0.25352162
105	0x3c2995c9	0.010350653
106	0xbecb7cfc	-0.39743793
107	0xbeab57f3	-0.33465537
108	0x3bfac97a	0.0076534124
109	0x3ca8733f	0.020562766
110	0x3cc890ff	0.024483202
111	0xbeb4f86a	-0.35345775
112	0x3b0945f1	0.002094623
113	0xbca89241	-0.020577552
114	0xbb32fce2	-0.0027311374
115	0xbbff1474	-0.0077844206
116	0xbe8fd005	-0.28088394
117	0xbf162e67	-0.58664554
118	0xbe9d6cb7	-0.30747005
119	0xbeb63223	-0.35585126
120	0xbea007c4	-0.31255925
121	0xbeaeab6c	-0.3411516
122	0x3be7940d	0.0070672096
123	0xbb8c1a0f	-0.0042755674
124	0xbead50ff	-0.33850858
125	0xbe5e04cd	-0.21681519
126	0xbccf6b1a	-0.025319625
127	0x3bed4500	0.0072408915
128	0xbf05a6be	-0.52207553
129	0xbecb0acf	-0.39656684
130	0xbe943141	-0.28943828
131	0xbea4ca00	-0.32185364
132	0x3ab5122f	0.0013814623
133	0x3c7abb63	0.015303466
134	0xbeaa2aee	-0.33235878
135	0x3b84a9f7	0.0040485817
136	0xbeca3de7	-0.39500353
137	0xbeb95c18	-0.36203074
138	0xbeab3002	-0.33435065
139	0x3ab7ded3	0.0014028199
140	0x3c619582	0.013768556
141	0xbe5da289	-0.21644033
142	0x3cd00317	0.025392098
143	0x3d714f70	0.058913648
144	0x399b200b	0.00029587778
145	0xbebb74a4	-0.36612427
146	0xbed8d023	-0.42346296
147	0x3c7ab3c6	0.01530165
148	0xbe9ba083	-0.30395898
149	0x3c3560e8	0.0110704675
150	0xbea0b981	-0.31391528
151	0xbee81742	-0.45330244
152	0x3c1684d9	0.009186947
153	0xb999871c	-0.00029283098
154	0x3cb64392	0.022249017
155	0xbe6f2f8b	-0.2335798
156	0xbeb70a57	-0.35750076
157	0xbb316f81	-0.0027074518
158	0xbe8288d4	-0.25495017
159	0xbee52721	-0.44756415
160	0xbb4a8faa	-0.0030908384
161	0x3cfe3fed	0.031036342
162	0xbe5a1268	-0.21296084
163	0xbeb28f57	-0.34874985
164	0xbe7c002d	-0.24609442
165	0xbf009da7	-0.5024056
166	0x3b40b648	0.0029405523
167	0x3c6dac43	0.014506402
168	0xbe92d19e	-0.2867555
169	0xbb358bb5	-0.002770168
170	0x3ced976d	0.02900287
171	0x3c6575e8	0.014005162
172	0xbe97cac1	-0.29646876
173	0xbc83efc8	-0.016105548
174	0x3b00c123	0.0019646368
175	0x3beff314	0.0073226783
176	0xb9916c77	-0.00027737368
177	0x3c8d8077	0.01727317
178	0xbed60980	-0.41804123
179	0xbebdea32	-0.3709274
180	0xbeb623b1	-0.35574105
181	0xbe9f1b9c	-0.31075752
182	0xbecac1fe	-0.3960113
183	0xbe9d1d04	-0.306862
184	0xbf0fea9a	-0.5621735
185	0x3b2a9fa9	0.0026035106
186	0x3c168de2	0.009189101
187	0xbeeff024	-0.468629
188	0xbe2d4009	-0.16918959
189	0x3c90e34f	0.017686514
190	0x3b514e16	0.0031937412
191	0x3acb2189	0.0015497665
192	0xbb47fd13	-0.0030515834
193	0xbc99d4e8	-0.01877828
194	0xbef23f90	-0.4731412
195	0xbeab1492	-0.3341413
196	0xbf11ce54	-0.56955457
197	0xbeb160dc	-0.3464421
198	0xbeea19b3	-0.45722732
199	0x3b9c740b	0.0047745756
200	0xbea35bc8	-0.3190596
201	0xbecf3cf0	-0.4047618
202	0x3cc98af7	0.024602396
203	0xbeda138d	-0.4259304
204	0xbe01d35e	-0.12678286
205	0xbecd2ed9	-0.40074804
206	0x3b7eb35a	0.0038864226
207	0x3ca66f7c	0.020316832
208	0xbe77e1c6	-0.2420722
209	0x3cb896ca	0.02253284
210	0x3ca5b421	0.020227494
211	0xbee17187	-0.44031927
212	0x3cc8762e	0.024470415
213	0x3ca8c6ec	0.020602666
214	0x3bbfa8a2	0.00584896
215	0xbac42ec3	-0.0014967549
216	0xbec7de01	-0.39036563
217	0xbea70686	-0.32622164
218	0xbef30498	-0.47464442
219	0x3caa05d7	0.020754738
220	0x3ab956b3	0.0014140218
221	0xbc54676a	-0.012964109
222	0xbe652a82	-0.22379497
223	0xbee0f33d	-0.43935576
224	0xbdd4afaa	-0.10385068
225	0xbe227aaf	-0.15867113
226	0xbe82fa85	-0.25581756
227	0xbeaf56fd	-0.34246054
228	0xbeabf8a4	-0.33588135
229	0x3b868c0e	0.0041060513
230	0xbec9377d	-0.39300147
231	0x3ca8bbba	0.020597328
232	0xbed3ddca	-0.4138015
233	0xbc594b58	-0.013262592
234	0xbe18edce	-0.14934465
235	0xbb53bafd	-0.0032307499
236	0x3cf940ff	0.0304265
237	0xbc0f173c	-0.008733567
238	0x3aa33269	0.0012450936
239	0xbeb07ad4	-0.3446871
240	0x3c6f78d5	0.014616211
241	0x3c4c1084	0.0124551095
242	0xbedaf206	-0.42762774
243	0xbe964c24	-0.29354966
244	0xbeda09bf	-0.4258556
245	0xbe95e262	-0.2927428
246	0xbd2302d8	-0.039797634
247	0x3bdac027	0.0066757384
248	0xbdcb7df2	-0.099361315
249	0xbe48a07b	-0.19592468
250	0x3cb8790f	0.022518663
251	0x3cb2d05a	0.021827865
252	0x3c6483b0	0.013947412
253	0x3cc8d5e5	0.024516055
254	0xbb145949	-0.0022636226
255	0x3c9f963b	0.019480815

bias f4 [10]
0	0xbd892cf1	-0.06698025
1	0x3ddc1e46	0.10747962
2	0xbe094b18	-0.13407552
3	0xbd78a820	-0.06070721
4	0x3d0cb444	0.034351602
5	0xbca6cee4	-0.020362325
6	0xbca9471c	-0.02066379
7	0x3df91dea	0.12163909
8	0x3d8fa85a	0.070145324
9	0x3c958398	0.018251225
