artifact_store/13/0a11f6784eae4d049bf774f8c2b459b6/artifacts/model/data/model.pth (torch_old, 92235 bytes, 8 tensors)

weight f4 [10, 1, 5, 5]
00000000: 4a1d 9e3d 1f97 c53d f216 2fbe 084e c0bc
00000010: c5f6 e73d c510 59be 8d0f d03e 2087 21be
00000020: 5e93 a8be a7a3 33be 46cb 98be 8984 8c3e
00000030: 5d1e 923d 63ce 37be 07c0 afbd c69d 76be
00000040: 21d3 923e ed60 a8bd 4512 233d 7340 90bd
00000050: 55f9 29be d7bb b63d 01c8 cd3d afda 80bd
00000060: 8bee 0a3d c36f 15bc a38b 7bbd aa84 2cbd
00000070: 6deb a23e 8826 6a3d aefe 0fbd 3ef2 823b
00000080: aa93 163d 21ac 423e d7fa 39be 1463 993d
00000090: 2100 35be 6564 9d3e 2560 2b3e b6e7 7cbe
000000a0: 824e eebc 1abd 4f3d 3260 8b3e 5ea9 d9bc
000000b0: ca9b 81be b974 073e 14fa 983d 7097 18bc
000000c0: 3e56 6dbe 18a9 eb3c b877 273d 04ee 2fbc
000000d0: f7fa c33d 7a3d 6b3e 8877 4f3e ecdf 8abe
000000e0: 4ee3 b0be b03f debe f0f4 9ebd 2714 933e
000000f0: 5ab4 b33d 8dd7 45be 1d5f d6be 271b b6be
00000100: cb47 91bd 1d1a 503e 4728 993e 3439 4abe
00000110: c20e b6bc a316 22be 9eb0 57be 1986 ab3e
00000120: a689 6a3d 8e75 35bc 7625 883d da3f 293d
00000130: 6631 adbd 64c9 973e 2beb b53e 33f0 c3be
00000140: 81e4 7dbe d0ad b7be 91cd 82be 8491 a43e
00000150: ef89 10bc b3c3 a3be 7c5f 403e 3216 01be
00000160: 5c51 ab3d 349b 273e 6183 3b3d 5a25 993d
00000170: bde2 9fbd a40f 30be eae6 8c3e f608 093d
00000180: 319a 8cbd 3a7e e6bd afe1 abbe 12a0 333d
00000190: abaa 353e dbba c0be cb28 80be 33c7 29bd
000001a0: a346 19be 7787 3a3e 1c1a 6f3d 102e f8bd
000001b0: 4870 d4bd e38b 1abe e66c 1b3e 6a6c 1a3d
000001c0: ee54 b23d ddae c5bc b89a 7dbe 9df8 2d3e
000001d0: f004 9b3d 20d9 563d a7de e33d fc36 42be
000001e0: aef9 873e 3e67 a2bd bd17 1dbc 7faa b0bd
000001f0: 70c6 2d3d e3c5 633d 6b2a 193e 5e48 94bd
00000200: 7e2f c83d 1a2a a83e c5dc c0bd 005b 9a3e
00000210: 4d04 793e 02f5 22be f5de 9ebd 2898 a4be
00000220: 1763 39be d7d5 f33d 14b8 68be 1e9b 46be
00000230: 2fcb a9be 860b 5fbe 6cb7 31be 6746 5e3d
00000240: 25d8 cebd 9873 31be ae4d 86be a179 babe
00000250: 96e7 a3bd 33aa febc 4e6d d9bd 4489 eebd
00000260: e65c 813d 1d74 32bd c883 023e ea05 2d3e
00000270: ec9d f73d 81a4 54bb b2e0 733e 2d4e 29be
00000280: 5d5b 1a3b 1ac7 c43e 3f91 433e 4d9c 713e
00000290: 2e5c 58be a856 febe 1132 31bd 4302 5a3c
000002a0: 3441 20be 0b76 9abe 027b cebe 5c96 06bf
000002b0: c63f 1dbf 2025 abbe aab8 85be 395b 03be
000002c0: 629c 7abe fccd 8dbe 7d7a 8abd e6ad 053d
000002d0: 044d 623d 5958 a2be 2591 61be ae98 c53c
000002e0: 2b34 f0bc eebd adbe 3390 d7bc e248 c93d
000002f0: 46c6 023e bbc3 d33d e6b7 43bd c4c0 5d3d
00000300: b3ec c33d 6df3 8d3b de38 aebd 72fa 973e
00000310: e5c7 803e e414 1c3e 02f3 2bbe 0754 583e
00000320: d393 bcbe 34b1 123d 4887 d83d 855f 20be
00000330: 8ddf 14be 6842 6cbe d83d 573d e7ab bb3d
00000340: 0be4 c2bc 2882 3cbe 1ca1 93be 2131 b43d
00000350: 0ef6 4f3e f38e 57be a51b a6be 3ad5 c23d
00000360: 9353 843e c8c1 ef3d c22d c5be 99b9 59be
00000370: ff47 353c 508a 103e 4947 97be f6ef 33be
00000380: b054 2dbe 5ad5 bdbe 41cf 83be 24bb 30be
00000390: 0306 52be fc0e 903d 9721 33be aa96 28be
000003a0: 8831 32be 85be 41be 324d 403c e5a7 43be
000003b0: 5ee8 20be 484f b8bd 2699 99be 5e71 4ebd
000003c0: f6cb 64be d70a 08be 98fb 3bbe b2a7 49bd
000003d0: 0bcb 40be bd63 87bc 99cc 5bbe da42 29be
000003e0: 8184 b0be 778a 6cbe
0.0772043 0.09647965 -0.17098597 -0.023474708 0.113263644 -0.21197803 0.40636864 -0.15774202
-0.32924932 -0.17542897 -0.29842585 0.27444866 0.071346976 -0.17949824 -0.08581548 -0.24083623
0.28676704 -0.08221612 0.039812345 -0.07043543 -0.16599019 0.08922546 0.10047913 -0.062917106
0.0339189 -0.009120884 -0.061412465 -0.042118706 0.3182024 0.057165653 -0.03515499 0.0039961627
0.036761917 0.19010974 -0.18162094 0.07489601 -0.1767583 0.30740657 0.16735895 -0.24697766
-0.02909017 0.05071745 0.2722183 -0.026570018 -0.2531417 0.1322812 0.074695736 -0.009313449
-0.2317743 0.028767154 0.040885657 -0.0107379 0.09569352 0.2297267 0.20260441 -0.27123964
-0.3454842 -0.43407965 -0.07761562 0.28726313 0.08774634 -0.19320507 -0.4186944 -0.3556759
-0.070937715 0.20322461 0.29913542 -0.19748384 -0.022223834 -0.15828948 -0.21063468 0.33500746
0.057260178 -0.0110753905 0.0664777 0.04132066 -0.08456688 0.29645836 0.3553098 -0.38269195
-0.24794199 -0.35874796 -0.2554746 0.3214227 -0.008821948 -0.31985244 0.18786424 -0.12606123
0.083651274 0.16367799 0.04577959 0.07477827 -0.07806919 -0.17193466 0.27519923 0.03345581
-0.06865347 -0.112545446 -0.3357062 0.043853827 0.17740886 -0.3764256 -0.25031123 -0.041449737
-0.14968352 0.18215738 0.05837451 -0.12118161 -0.103729784 -0.15092425 0.1517826 0.037701048
0.08707605 -0.024131233 -0.24766052 0.1698937 0.07569301 0.05245316 0.11126452 -0.18966287
0.26557678 -0.07929848 -0.009588179 -0.086262695 0.042425573 0.05560864 0.14957587 -0.072403654
0.097746834 0.3284462 -0.094171084 0.30147552 0.24318047 -0.15913776 -0.077573694 -0.32147336
-0.18104206 0.11906021 -0.2272647 -0.1939511 -0.3316283 -0.2178174 -0.17355126 0.05426636
-0.1009982 -0.17329252 -0.2623114 -0.3642092 -0.08003156 -0.031087017 -0.10616551 -0.11647275
0.06316547 -0.043567766 0.12745583 0.16896787 0.12090668 -0.0032446685 0.23816183 -0.16533728
0.0023552992 0.38433152 0.19098376 0.2359478 -0.21128914 -0.49675488 -0.043260638 0.013306203
-0.15649873 -0.30168185 -0.40328223 -0.5257318 -0.61425436 -0.33426762 -0.2611745 -0.12827767
-0.24473718 -0.27696216 -0.06761644 0.032636546 0.05524923 -0.3170803 -0.22028024 0.024120655
-0.02932175 -0.33933967 -0.026313877 0.098283544 0.12770948 0.10340067 -0.0477828 0.054138914
0.09566631 0.004331997 -0.0850694 0.29683262 0.25152507 0.15242344 -0.16791919 0.21125804
-0.3683153 0.035813525 0.10572678 -0.15661438 -0.14538403 -0.23072207 0.052549213 0.09163647
-0.02379038 -0.18409026 -0.28833854 0.08798433 0.20308706 -0.21050625 -0.32442966 0.09513326
0.25845012 0.11706883 -0.38511473 -0.21262206 0.0110645285 0.14115262 -0.29546574 -0.17572007
-0.16926837 -0.37076837 -0.2574406 -0.17258888 -0.20510106 0.07034108 -0.17493282 -0.16463724
-0.17401707 -0.18920334 0.011737155 -0.19107015 -0.15713641 -0.08999497 -0.29999655 -0.050401084
-0.2234343 -0.13285385 -0.18357694 -0.049232192 -0.18827455 -0.016527051 -0.21464767 -0.16529408
-0.34476092 -0.23099695

bias f4 [10]
00000000: 6b29 10bf fcf6 0fbf f708 fdbe 7aca 05bf
00000010: f3f3 0cbf d18e 2abf 7f54 20bf 1295 d9be
00000020: b0c2 d5be a06b ccbe
-0.563132 -0.56236243 -0.49420902 -0.5226208 -0.55059737 -0.6662417 -0.6262893 -0.42496544
-0.41750097 -0.3992586

weight f4 [20, 10, 5, 5]
00000000: cafd 11be 24c8 0f3e 72aa 133e b06d acbc
00000010: e709 86bd a1cd 05bd d721 9abd a74b 413d
00000020: d5a1 44bd 3710 67bd a0c4 1dbe 4d45 d8bc
00000030: 511e 4d3a 2d5a dfbd e004 5a3c c153 c4bd
00000040: 8d49 103d 42cd 833d 482a 673c 01ba 62bd
00000050: 1091 93bd 9d5d 553c d965 143d 674d a63d
00000060: 53d3 903c 2980 a0bd 3e63 b3bd e9c3 eb3c
00000070: 5618 ac3a 0ab3 5ebd a5ea 17bd 00b3 923d
00000080: 3a5e 1a3d 8ec7 84bc 3d02 63be 9d3f 4cbd
00000090: 002d e13c 745c 36bd 88c0 cc3b 38b4 03be
000000a0: 61f7 78bd fb8a 5f3d 522a 263d ae94 793d
000000b0: 66bb 34bd a643 8d3d dcee fc3d fbd7 0f3c
000000c0: 7705 a43d 5db1 6fbd 1502 5f3e 3db9 9c3c
000000d0: 2858 f6bd a892 eabd 2d11 76bc bd6d 073e
000000e0: 2ae9 16bd d6a3 25be 5231 0ebe f591 b4bc
000000f0: 6e4d 843d 8888 35bd 1b64 30bd 385d 233d
00000100: ff68 723d a77a eebd e213 8abd 77f7 a2bd
00000110: 4213 c13b f294 aa3d e9a1 09be 01a2 99bd
00000120: 8aef a2bd ec6d 103d 62bb e13d d9a2 d73d
00000130: d9c8 ba3d cda8 e9bd 5848 11be f680 03be
00000140: 9da1 453d 79a4 343d 484b d6bb 49b6 0ebe
00000150: 2794 20be ba1d e83c 352f bbbd b91f 19bc
00000160: fba0 b8bd 621e 4bbd 8758 5abd b4d3 aa3c
00000170: ba09 d83c 8b13 ccbd 0b10 103d 945e 43be
00000180: f933 fcbd c2af 45bd 32a0 42bd e004 b23c
00000190: fbfc 0ebe 9638 2fbc 4d94 503d 68f6 f1bd
000001a0: c68d 07be e4e4 03be 2ed0 873d de18 cabc
000001b0: 23c1 a23d fbe7 603b ced7 1cbe 532d b63d
000001c0: 9f03 133d f7cf 0e3c e49a 8a3b 54f4 b9bd
000001d0: 215e 0fbc 5be1 8fbb 98fc c43d bca6 3e3d
000001e0: 2de1 75bd 24b9 093d a99f 91bc 4169 583e
000001f0: 3d54 d43d 81e1 0d3c c0aa 4dbd df7c 75bd
00000200: de30 dcbd 593c 983d aa7c 9bbc 5528 50bd
00000210: 0b3c fabd 0008 a0bd dd07 8cbd 24d4 4fbd
00000220: 696a dabb cd0f b5bd 591a 9bbc 0ac9 8fbd
00000230: 4f3a 17bd 477c 6bbd 8cc2 d4bd a6ec debb
00000240: 27cb 9d3c 9f8b 03be fef6 febd 00b1 8dbd
00000250: e0db 183c 841a 85bc 411d fbbd e03e 41be
00000260: 37c9 31be a6ed efbd dac7 9abd 3b55 6bbe
00000270: cc77 17be e6e1 3bbe a010 6abd 33b3 1bbe
00000280: a1cb 5cbe 4396 45be c0a3 6fbe 4cf3 ebbd
00000290: 9f18 14bd 8a6c c2bd 5850 99be c74e 83be
000002a0: 3843 c2bd b89e adbd b8e2 2dbd 9950 85be
000002b0: 3fad 48be aa93 e5bd 2307 293c 4dfb e8bd
000002c0: c025 0dbe 8d88 45be cc01 e7bd 178c 32be
000002d0: 138a a4bc 3af9 12bc 92c4 b7bd cfe7 b7bd
000002e0: 2321 8dbd d1a7 dc3d 35da 113d 6a1b 2dbe
000002f0: f4be e4bd 7082 49be d5bc 073e 16ef edbd
00000300: 62b9 67be e336 0cbe 80e3 32be 89da 0dbe
00000310: c5db 96be e470 b2be 8583 95be c4d0 9abe
00000320: 8ab6 5f3a 0987 493e d929 253d 1d24 ee3c
00000330: d31d 4f3d 247c d03c 6c30 0b3e d964 603d
00000340: c1d3 5cbc 277b f3bb e26a 4b3d 04d0 ba3d
00000350: 3d69 343d 549c a23a 9cfa 1abd f3e9 95bd
00000360: a640 6e3d 3353 a33b 8b56 f13c fc0d 8a3d
00000370: 1a7a a83c 38db 5c3e d882 c13d e029 d53d
00000380: 11e0 4f3d 3b87 623e 25c6 e8bc 7292 56bc
00000390: 215e 9e3d 74fe 413d 7fc6 fb3b 9055 28be
000003a0: d772 2b3a f86e c13d ce5d 4dbd 5df1 cfbb
000003b0: e33e 68be ca4f 47bc e87f b63c f098 4d3d
000003c0: d6cd b7bd cb63 46be bab9 0ebb 8f86 c83c
000003d0: 6b61 193e 8f78 0ebc 57df 51bd 9320 8abc
000003e0: be83 043d 8e27 263e af8e bcbd 32c3 a8bd
000003f0: 98e8 bfbd 3155 cbbd 048e d0bd ff26 fabd
-0.14256969 0.14041191 0.14420488 -0.021048397 -0.065448575 -0.032666806 -0.07525986 0.04719129
-0.048005898 -0.056411948 -0.15407038 -0.026400233 0.0007824647 -0.109058715 0.013306826 -0.09586287
0.035226393 0.06435634 0.014109202 -0.05535317 -0.07205403 0.013022807 0.036229942 0.08120232
0.017678892 -0.078369446 -0.08759163 0.02877994 0.0013129811 -0.054369964 -0.03708901 0.07163048
0.037687518 -0.016208436 -0.22168823 -0.049865354 0.027487278 -0.044521764 0.0062485375 -0.12861717
-0.060782794 0.0545759 0.040567704 0.060932808 -0.04412403 0.068976685 0.12350246 0.008779521
0.08008855 -0.058518756 0.21778138 0.019131297 -0.12028533 -0.11453754 -0.015018743 0.13225456
-0.036843456 -0.1617578 -0.13886002 -0.022042254 0.06460081 -0.04431966 -0.043064218 0.039883822
0.059182163 -0.11644488 -0.067420736 -0.079573564 0.0058921883 0.0832919 -0.1344067 -0.07501603
-0.07955845 0.03526108 0.110220686 0.105291076 0.0912034 -0.11409149 -0.14187753 -0.12842163
0.04824983 0.044102166 -0.006539736 -0.13936724 -0.15681516 0.028334487 -0.091398634 -0.009345942
-0.090150796 -0.049589522 -0.053307083 0.020852901 0.026371825 -0.09964665 0.03517155 -0.19079047
-0.123146005 -0.04826332 -0.047516055 0.02173084 -0.13963692 -0.0106946435 0.05092268 -0.118145764
-0.13237676 -0.12880284 0.06631504 -0.02467006 0.07946994 0.0034317959 -0.15316698 0.08895364
0.035892125 0.008716575 0.00422989 -0.09079805 -0.008750469 -0.004390878 0.09618491 0.04654573
-0.060029197 0.03362383 -0.017776327 0.21133901 0.1036763 0.008659721 -0.050211668 -0.05993354
-0.10751508 0.074333854 -0.018980343 -0.050819714 -0.122184835 -0.07814026 -0.06837437 -0.050739422
-0.006665517 -0.088409044 -0.018933462 -0.07020767 -0.03692084 -0.057491567 -0.10388669 -0.006803113
0.01926191 -0.1284623 -0.12449454 -0.06918526 0.009329766 -0.016247995 -0.12261439 -0.18871641
-0.17361914 -0.1171525 -0.0755765 -0.22981732 -0.14791793 -0.18347892 -0.05714476 -0.15205078
-0.21562053 -0.19295602 -0.2340231 -0.115210146 -0.036156293 -0.094933584 -0.2994411 -0.2564604
-0.09485477 -0.08477539 -0.042452544 -0.26038054 -0.19597338 -0.11209805 0.010316643 -0.11376057
-0.13783932 -0.19290371 -0.112796396 -0.17436253 -0.02008537 -0.008970553 -0.0897304 -0.08979761
-0.06891086 0.10774196 0.03560849 -0.16904989 -0.11169234 -0.19678664 0.13255627 -0.11617868
-0.22629312 -0.13692813 -0.17469597 -0.13852896 -0.29464546 -0.34851754 -0.29201904 -0.302374
0.00085339753 0.19680418 0.040323112 0.029069955 0.050565552 0.02544982 0.1359269 0.054783676
-0.01347822 -0.0074304524 0.04966248 0.09121707 0.044045676 0.0012406209 -0.037836656 -0.07320013
0.058167122 0.0049842834 0.029460212 0.067409486 0.020566035 0.21568 0.094487846 0.10408378
0.050750796 0.22121899 -0.028414795 -0.013096439 0.077327974 0.047361806 0.0076835747 -0.1643889
0.0006540245 0.09444994 -0.050138287 -0.0063459114 -0.2268024 -0.012165019 0.022277787 0.05019468
-0.08974807 -0.19374005 -0.0021778182 0.024478225 0.14978568 -0.008695736 -0.051238384 -0.016861236
0.0323522 0.16226026 -0.09206902 -0.082403556 -0.093705356 -0.09928358 -0.10183337 -0.12214469

bias f4 [20]
00000000: dcbd 243b c38e c8bd 8a02 053c 38e6 88bd
00000010: 71c4 5abc b601 34bd 56d6 b6bd 3f3c 79bc
00000020: 1a47 24bc 7963 d8bc 15ad dfbd c9b9 dfbd
00000030: d974 29be 7548 16bd aec0 9abc b0a1 f4bd
00000040: e9d9 49bd 010b 41bd 5e75 eabc f0ff 653c
0.002513758 -0.09792855 0.008118281 -0.06684536 -0.013352499 -0.043946944 -0.089276 -0.015212118
-0.010026718 -0.02641462 -0.10921685 -0.109241076 -0.1654848 -0.036690194 -0.018890705 -0.11944902
-0.04928008 -0.047129635 -0.028620418 0.014038071

weight f4 [50, 320]
00000000: b294 ba3d e618 3d3d 0c8b be3b 2062 303c
00000010: b89f 35bd de33 b5bd 9cf0 18bd 99ac 32bd
00000020: 4611 18be a466 64bd 1f05 b13c d2cf 483b
00000030: a556 993d 69d6 023e 987d 28bd ac4c 2fbd
00000040: cc98 b4bb 15e4 733d c730 ddbd da8f 2eba
00000050: 1034 b23c e115 81bd 76bd eebd 7c95 c1bc
00000060: 1a73 9a3d b98d 98bc 28a4 c5bd 24fa e83b
00000070: ae7c db3d fc23 1f3e 59ce 313e ccdc 493c
00000080: fbde 09bc 2b74 d8bd c2e4 893d 1334 8d3d
00000090: 1702 1c3e 38bb c7bc d7d4 4abb f70b d7bd
000000a0: 3ab3 663b f62a c8bc 1608 07be 3846 00be
000000b0: 76a3 823d 9dfe 1e3d e3f2 b63b 838a cb3d
000000c0: 344c 703c 29f4 de3c a9d8 8ebd ecf7 9e3b
000000d0: f46e d23d e27b aabd 2368 acbd 109e 83bc
000000e0: cfc0 813c f09b e0bd 966a 4cbd d89e d53c
000000f0: baf0 0bbd a6a2 2e3d 4d52 8d3d 29fe 053d
00000100: a8df 88bd 20c6 29be ea4a 343e 985c 093e
00000110: 800a c5bd 18bc 48bd 9e6b 2f3c 7fc2 acbc
00000120: 8e48 e6bd 85bd aabd 9d3b e93c 35b1 cfbc
00000130: 8db5 76bd b6d6 43be 5654 af3c e67d 64bd
00000140: 2fe2 81bc 112a f03d 40b9 713d d47f a4bd
00000150: 22c3 763d fe62 ea3d 3561 34be 116b f9bd
00000160: 2beb 08bd 48ad 4fbc 60db d4bd 42b1 d7bd
00000170: 24c8 0bbd 3595 3e3d a4fc ab3d 8725 e5bb
00000180: f7c0 2e3d e544 bc3d 085f 543d 58f2 b23c
00000190: 9ee3 b3bd 8ec1 473d 4600 273e 8f2a 2abe
000001a0: 9353 04bd 42f3 7dbd bb07 e2bd 5b5d e2bd
000001b0: 9bdf 0ebd b558 afbd c979 b93a 1d6f 4b3e
000001c0: 0ae3 023d 05d6 923d 2b81 ff3c 2f9e b03a
000001d0: abcd a43d 41b3 b13c f3f6 0ebd 51b4 f8bc
000001e0: 40b7 17bd c3eb 10bd 727d 1b3e 72f8 27bd
000001f0: ecd8 30be 7856 a93b 1670 6c3c 27b0 9abd
00000200: 94f4 98bd ef56 a43c c685 0ebe 8f9c 2dbd
00000210: bfce 9cbb 55c9 2ebd 45d5 35bd 0881 743c
00000220: ed40 053b 320a 18bd d9e1 50bd 2d83 f8bd
00000230: 9c43 933d d59b 4abd 4d16 063e 8dee 403d
00000240: 10c4 18bd 182d 72bc ca75 5e3e 1130 87bd
00000250: a652 a0bd 3bd3 ed3c c507 913d d833 40bd
00000260: 669f 5bbe ae88 a13c 6940 91b9 7624 34bc
00000270: 7fc7 37be de56 98bd d5da 3cbd 9149 313d
00000280: eb28 ca3c 9654 99bd 241d 8bbd 89f8 95bd
00000290: 5a5b 03bc 84dc 80bd 884a d5bc a438 79bd
000002a0: 834f 0abe 2cb9 a0bd 07ff 11be 3a06 24bd
000002b0: 9ccb 87bd 71b9 e1bc 43f3 e5bc 8f95 183e
000002c0: cff1 0ebb 804d 18be 836f 50bc 2da5 f43d
000002d0: fb2f 66bd 4b4c 2ebe 951b 4ebc 402d 02be
000002e0: 478e 9bbd 491c 16be 98c6 a7bd 27df 3ebd
000002f0: 4e28 6f3d bc96 a03d 32ee c83c c49e 373d
00000300: 630a 1fbe 4fff ccbd c684 1e3e f091 cb3d
00000310: 2db8 46be 4e4b 8abd 55bd d73a 0fb8 5a3e
00000320: 7567 c6bd e856 68bd aebf 363d 5eda 0d3e
00000330: 5cfd e4bd 8353 f3bd 2e95 993c 002c c93c
00000340: 9dde fdbd 908a 10bd ea4a 793b f4f8 423d
00000350: fa6a 79bd 5f68 a13d deca c23c 0a28 9f3b
00000360: da4b 20be ac2a a23d 4b0b 9e3b d6e1 12bc
00000370: 6ef8 2f3a 8ad2 f7ba 80a8 d73d 0d9b af3d
00000380: 1cc1 b2bd 4bba 3abe f88f fd3a 3cea 343d
00000390: 59df 38be 7dee efbd 446c b43c fc8a 62bd
000003a0: c3b0 0e3c 33bd 4cbd 3201 6f3d a0d8 283e
000003b0: 4761 38bc 5c1c ed3c 5c23 da3d 30a6 7d3d
000003c0: 4a25 9bbd 5bb3 22bd 6f1d 653d 78e0 4ebd
000003d0: d4e3 0cbe c233 063d ba75 d33d 3979 84bc
000003e0: 940a c93c d6d7 993c 11a3 f139 14b1 87bc
000003f0: 5ff1 6d3d 68a2 9abd 7b41 6cbd f410 2ebd
0.09110393 0.046166323 0.0058149155 0.010765582 -0.044341773 -0.088477835 -0.037338838 -0.043621633
-0.1485034 -0.05576195 0.021608887 0.0030641449 0.07487229 0.12777103 -0.0411354 -0.04279773
-0.005511379 0.059543688 -0.10800319 -0.0006659009 0.021753341 -0.06303001 -0.116572306 -0.02363085
0.07541485 -0.018622266 -0.09650451 0.007109897 0.1071714 0.1554107 0.17363872 0.0123207085
-0.008414979 -0.10569032 0.06733085 0.06894698 0.15235172 -0.024381265 -0.0030949616 -0.10500329
0.0035202042 -0.024434548 -0.13186678 -0.12526786 0.06378834 0.038817037 0.0055831536 0.099385284
0.014666606 0.027216034 -0.069749184 0.004851332 0.10275069 -0.0832441 -0.084183 -0.016066581
0.015839009 -0.10967243 -0.049906336 0.02607672 -0.03416512 0.042635582 0.06900463 0.03271309
-0.06683284 -0.16579485 0.17606702 0.13414228 -0.09621143 -0.049007505 0.01070681 -0.021088837
-0.112443075 -0.08336929 0.028470809 -0.025353054 -0.060231734 -0.19124874 0.02140252 -0.05578413
-0.015854923 0.117267735 0.05901456 -0.08032194 0.060244687 0.114446625 -0.17615207 -0.121786244
-0.0334274 -0.012675591 -0.10393405 -0.10531856 -0.034126416 0.046529014 0.08397797 -0.006992999
0.042664494 0.09192828 0.05184844 0.021844074 -0.08783649 0.048768573 0.16308698 -0.16617797
-0.032306265 -0.061999567 -0.11036631 -0.110529624 -0.034881216 -0.085618414 0.0014150675 0.19866605
0.031954803 0.07169727 0.031189522 0.0013474877 0.080470406 0.02169192 -0.034903478 -0.030359419
-0.037039995 -0.03538109 0.15184572 -0.04100842 -0.17270249 0.0051677786 0.01443102 -0.0755313
-0.074685246 0.020060984 -0.13918218 -0.042385634 -0.0047853882 -0.042672474 -0.044392843 0.014923342
0.0020332888 -0.037119098 -0.050996635 -0.12134395 0.0719063 -0.04946502 0.13094445 0.0471025
-0.037296355 -0.014781259 0.2172462 -0.06600965 -0.07828264 0.029031387 0.0708156 -0.046924442
-0.21447524 0.019718494 -0.00027704544 -0.010995021 -0.17947195 -0.074384436 -0.046107132 0.04328305
0.024677714 -0.074868366 -0.067926675 -0.07322795 -0.008017385 -0.0629206 -0.026036516 -0.060845032
-0.13506894 -0.07847819 -0.14257441 -0.040045 -0.06630632 -0.027554246 -0.028070098 0.14900802
-0.002181161 -0.14873314 -0.012721899 0.11945567 -0.0561981 -0.17021291 -0.012579818 -0.12712574
-0.075954966 -0.14659227 -0.081921756 -0.046599533 0.058388047 0.0784125 0.024527643 0.044829145
-0.15531306 -0.10009634 0.15480337 0.09939945 -0.19406195 -0.067526445 0.0016459624 0.21359275
-0.096877016 -0.056723505 0.044616394 0.13852832 -0.11181137 -0.11881163 0.018747892 0.024557114
-0.12395976 -0.035288393 0.0038039037 0.0476007 -0.060893036 0.07881235 0.023778375 0.004857068
-0.15653935 0.07918295 0.0048231236 -0.008964976 0.0006712739 -0.001890735 0.10530186 0.085744955
-0.08728239 -0.18235128 0.0019345274 0.044168696 -0.1805395 -0.1171541 0.022024281 -0.055308327
0.008709135 -0.049985122 0.05835075 0.16488886 -0.0112536615 0.028944187 0.106512755 0.061926067
-0.07575472 -0.039721828 0.055936273 -0.05050704 -0.13758785 0.032764204 0.10325189 -0.016171085
0.024541177 0.018779676 0.00046088596 -0.01656393 0.058091518 -0.07550508 -0.057679635 -0.042496637

bias f4 [50]
00000000: caa8 d23e 2d94 413e b3b0 ec3d 9dd9 7c3e
00000010: b246 23bc 43af 583d 8c89 d73d 5f85 333e
00000020: 89af c93d a0d1 1a3e 2c76 203e 2c11 8f3d
00000030: 01ff 943d 37ce 0e3d 7007 b93d b280 83bc
00000040: f474 243d ba8b 313e e136 273e 604b f83d
00000050: ac67 c03d 0fed a53c b24f 4c3d 4034 7f3e
00000060: 62b1 903d 5546 5f3e ee70 943d 4a54 433e
00000070: 5927 d43c 41bc 923e 98ea 8a3e d5a0 3b3d
00000080: f993 ed3d a461 543e 7bf9 fd3d dc0a 243e
00000090: b075 ac3d 91ea f33c 05c2 2b3e cd16 2a3e
000000a0: 1a9f 0e3e 3082 9f3d 906d 333e 19ef df3d
000000b0: af09 0a3e e094 c73d cec4 3d3e a64e 173e
000000c0: 2eb9 a73d 5d60 703e
0.411444 0.18904181 0.1155714 0.24692388 -0.009965586 0.052901518 0.10524282 0.17531346
0.09847934 0.15119028 0.15670079 0.06985697 0.07275201 0.03486463 0.09034622 -0.016052578
0.040150598 0.17338458 0.16329528 0.12123752 0.09394774 0.02025464 0.04988069 0.24922276
0.07065083 0.21804173 0.07248102 0.19075122 0.025897669 0.2865925 0.27132106 0.04580768
0.11600489 0.20740372 0.124011 0.16019768 0.084208846 0.029774936 0.16773231 0.1661026
0.1392788 0.07788503 0.17522264 0.10934276 0.13480256 0.097451925 0.18532106 0.14776096
0.08189617 0.2347426

weight f4 [10, 50]
00000000: 126a 23bf 8f70 b13c 3175 9cbb e7aa efbe
00000010: 9956 c8be ca50 3dbc 7426 2ebc 74dc e7be
00000020: 40bf 5cbd d16e cb3c 901c 74bc 053f 89be
00000030: 8913 143d a354 edbe ff4f 98be fcd7 88bd
00000040: 221b fbbe 5a85 123d 0bb0 e9bc ce9a f5bb
00000050: b5d1 3e3d ed9d 663d 06c9 dbbe d2ae f9be
00000060: 4599 f73c b82b 0ebc 9fdf f2be f861 86be
00000070: 895f 70bd 2f14 febe 1e6b f2be 57c1 d03c
00000080: 8b9b 7439 4a73 97be 5163 09bf 7ddd 0ebf
00000090: 8ab4 c6be 71fc 3a3c cc84 2e3d fdc4 a5be
000000a0: c614 cbbe a046 f0be 2134 113d 8973 05bf
000000b0: 2e3d 1fbc f29e af3c ed90 163d 9328 8cbe
000000c0: 03cc cfbe 24ea 95be 7f1b 2f3c 2ed3 993d
000000d0: e795 8ebe 1563 b3be ffbf 713d 911c cebe
000000e0: 56d8 cebe 54d7 a5bc dbb2 98bc 4abc 9bbe
000000f0: da70 dcbe 323b b03c bea3 51be 541b bdbe
00000100: 1176 16be a1cc d7be c50c 913d 6e17 36be
00000110: c897 adbe 037b dabe d505 88be 52b5 183c
00000120: 8de4 b7bb c74b 903c 6c79 edbe 28cf ccbe
00000130: eeae d4be 6047 3cbb 661c aabc d39b bcbc
00000140: 6ed3 32be 1ae8 ae3d 5625 84be fc06 573d
00000150: f816 85bc d259 183d f9c5 92be 0064 c8be
00000160: 8d48 9fbd cdbe 823c 03d3 b5be f8e2 bcbe
00000170: 259e 91be 699f c8ba 63f5 69be 758c 54bc
00000180: 703e 85be 2a03 d0be 1cef 52be 0265 6cbe
00000190: b0ab abb9 d65c 463d dcd9 d9be b148 cd3c
000001a0: b9e9 843d ff59 80be 7572 ffbe aa1f d7be
000001b0: 7ba8 04bf 99a6 c5be ad39 123d e360 25bd
000001c0: 70ac 04bf a9a8 f93c 4bf1 21bb 271e f9be
000001d0: ffe7 633d 6451 c8be 230c e4bd 46c0 f2ba
000001e0: 53c0 193c 4deb c7be 1dda dabe ccf1 453d
000001f0: 1ff2 49be 74ec 61be 5ca5 b73b 4d55 cdbe
00000200: bf0b b0be c261 caba ae42 183c 8b3a fbbe
00000210: ca0b ecbe 42f1 83be d8a1 a8be b54c 7d3c
00000220: e3b7 95bb 6646 ebbe 1c7b fbbe 94d3 4c3d
00000230: 1c22 f0bd d95e b83b d245 26bd c869 f33a
00000240: b3af 85be 8ca8 c6be cb54 96bc 3130 363d
00000250: 3d31 313d 50e4 e33d 6d49 7e3c 8091 07bf
00000260: 75d4 db3c a5f3 3e3d fed2 cabe 1b3e f33c
00000270: 66aa a2bc 0316 0cbf 505f ebbe a43f 773d
00000280: 8572 9abe bbb6 0f3b 17b8 15bf 43bb 87be
00000290: 57b9 85be 2b80 80bd 112c 1bbf 314f dcbe
000002a0: 084d cbbe 0ae9 d9be 7dea eebd dfa8 64be
000002b0: c8d2 f6be 6b83 353c f15b 15bd d902 c8bc
000002c0: db54 f2be c2ef 0cbf 04a5 493b f4e5 00bc
000002d0: 51a5 373d a0e2 d9be af1c 20be 179f 573d
000002e0: c10d f8bc 2b81 02bf fb87 b1be 7f48 68bb
000002f0: 1ad0 0fbf 91af 6bbe 534c a53c 9445 6c3c
00000300: 5daf c3be 03ad 133d 99e6 3a3d 8a5c b4be
00000310: 3783 f7be 06e3 773c 12f5 87bd 0888 2abd
00000320: 1e19 d6be f2ea c33c 3117 193d c3f7 553b
00000330: dfee cebe 9921 133a b748 7dbe a5cb 813c
00000340: 6c0e 4fbe 41dd dd3c 4826 a0be bdce c4be
00000350: d1d1 853d dbea efbe 9bf7 703c 5ae2 adbe
00000360: bb0f bebe 234f 303c a96c c1be 1e76 89be
00000370: 6e7c 9d3c dc57 7cbe b374 e8be 0707 c5be
00000380: 43f6 8cbe 5279 073d 03b0 0eba 95fa 2d3c
00000390: f0e6 163d bd83 293d 70d3 0fbe 4099 c4be
000003a0: eb85 ad3c 9cb9 d5be aba6 97be 4418 ad3d
000003b0: 6f77 af3d b1b1 9bbe b91a e4bd 376e ddbd
000003c0: f153 39bc 58b3 65be 7f60 803d 8094 80be
000003d0: 947b 79be d3ec 5b3d 6a03 2d3d 2c86 0b3d
000003e0: b152 f0be 9407 9ebe a03c 91be d82d a6be
000003f0: f523 84bd ec21 15be 5f50 a1be 5923 a6be
-0.63833725 0.021660117 -0.0047747125 -0.46810076 -0.3912857 -0.011554906 -0.010629285 -0.4528538
-0.053893328 0.024833115 -0.014899388 -0.26805893 0.036151443 -0.46353635 -0.29748532 -0.06681821
-0.49044138 0.035771705 -0.028526327 -0.007495261 0.04658671 0.056302954 -0.42926806 -0.4876619
0.030224452 -0.008677416 -0.47436234 -0.2624662 -0.05868486 -0.49624774 -0.4734735 0.025482817
0.00023327598 -0.29580146 -0.5366717 -0.55806714 -0.38809615 0.011412726 0.042607114 -0.32376853
-0.39664286 -0.46928883 0.035450105 -0.5212942 -0.009719176 0.021438096 0.036759306 -0.27374706
-0.40585336 -0.29280198 0.010687708 0.075109825 -0.2784874 -0.3503653 0.059020992 -0.4025617
-0.40399426 -0.020244278 -0.018639972 -0.3041709 -0.4305485 0.021512602 -0.20472619 -0.36934912
-0.14693476 -0.42148307 0.07082514 -0.17782375 -0.33904862 -0.42671975 -0.2656695 0.009320574
-0.005611962 0.017614258 -0.463817 -0.40001798 -0.4153971 -0.0028729066 -0.020765495 -0.023023522
-0.17463467 0.085403636 -0.25809735 0.052496895 -0.016246304 0.037195034 -0.28666666 -0.39138794
-0.0777751 0.015960122 -0.35512552 -0.36891913 -0.28440967 -0.0015306297 -0.22847514 -0.012972941
-0.260242 -0.40627414 -0.20599025 -0.23085406 -0.0003274358 0.04842838 -0.42549026 0.025059076
0.064898916 -0.25068662 -0.4989201 -0.42016345 -0.5181958 -0.38603666 0.035699535 -0.0403756
-0.5182562 0.030475931 -0.0024710472 -0.48655817 0.05564117 -0.39124596 -0.111351274 -0.0018520437
0.009384233 -0.39046708 -0.42744532 0.0483263 -0.19721268 -0.22062856 0.005604429 -0.40104142
-0.34383962 -0.0015440511 0.009293241 -0.49068102 -0.46102744 -0.25770003 -0.32935977 0.015460183
-0.00456904 -0.45952147 -0.49117362 0.050006464 -0.11725256 0.005626541 -0.04059393 0.0018570954
-0.2611061 -0.38800466 -0.01835098 0.044479553 0.043259848 0.111275315 0.015520436 -0.5295639
0.026834706 0.046619076 -0.396141 0.0296927 -0.019856643 -0.5472109 -0.45971155 0.060363427
-0.30165496 0.0021928984 -0.58484024 -0.26510057 -0.26117966 -0.06274446 -0.60614115 -0.43029168
-0.39707208 -0.42560607 -0.11665819 -0.22330044 -0.48207688 0.011078696 -0.036464635 -0.02441542
-0.47330365 -0.5505334 0.0030768523 -0.007867325 0.044835392 -0.42555714 -0.15635942 0.052641954
-0.030279996 -0.50978345 -0.34674057 -0.0035443602 -0.5617691 -0.23016192 0.020177996 0.014420886
-0.3821973 0.03605367 0.04563007 -0.35226852 -0.48342296 0.01512981 -0.0663854 -0.041633636
-0.41816038 0.023915742 0.037375633 0.0032648898 -0.4041662 0.00056126114 -0.2473477 0.015844176
-0.20220345 0.027083041 -0.31279206 -0.3843898 0.0653416 -0.46858868 0.014707471 -0.33961755
-0.37121376 0.010761055 -0.37778214 -0.2684793 0.019224372 -0.2464289 -0.45401534 -0.38481924
-0.27531633 0.033074684 -0.0005443098 0.010618825 0.036841333 0.0413854 -0.14045501 -0.3839817
0.021182021 -0.4174317 -0.29619345 0.08451894 0.08567702 -0.30409005 -0.111379094 -0.108120374
-0.011311517 -0.22431695 0.06268405 -0.25113297 -0.24363548 0.05369265 0.042239584 0.034063503
-0.4693809 -0.30865157 -0.28366566 -0.3245685 -0.06452171 -0.14563721 -0.3150663 -0.32448843

bias f4 [10]
00000000: a46e 01be 902f a2bd e8e5 d23c 8950 0cbe
00000010: 1640 00be 3639 d83d d7bf f5bd 5c53 3abd
00000020: 42cf 91bd b4c1 7c3d
-0.12639862 -0.07919228 0.025744393 -0.13702597 -0.12524447 0.10557787 -0.11999481 -0.045489654
-0.071196094 0.061708167
